checkpoint/model-fold-9.pt (torch, 446799 bytes, 8 tensors)

fc1.weight f4 [100, 1024]
0.02684238 0.05318903 -0.024139734 -0.0019586894 0.028991086 0.018191215 -0.03480903 -0.10653059
-0.01758323 -0.061718095 0.0055863103 -0.03220382 0.050023798 -0.002260244 -0.06775034 0.040587403
-0.03795205 0.021645103 0.041269735 0.01363305 -0.039965585 0.008750942 0.04134005 0.026430823
-0.12241074 0.01377791 -0.041626874 0.028267587 0.012582331 -0.056252815 -0.10735254 -0.020734634
0.0011040362 -0.020805733 0.029620674 0.025977999 -0.007346513 -0.043629367 0.003424264 -0.008906468
0.020378467 0.0026223264 0.035518054 0.049487114 -0.03049923 -0.03373361 0.036908768 0.047830928
0.033595648 0.034916688 -0.056157976 -0.0002013634 -0.017467204 -0.04048425 -0.009721673 -0.035518438
0.009719916 0.019702394 0.02321776 0.07462299 0.0006628587 -0.020828346 0.017889163 0.004355289
0.04526083 0.052548222 0.025879933 0.001057629 -0.031059865 -0.024215868 -0.044724543 0.07019301
0.0012828873 -0.05303957 -0.024839813 -0.04591191 -0.03003214 0.027022852 0.014503048 0.022092327
-0.058358405 -0.028243747 0.07870794 -0.12928723 0.05196963 -0.0045453794 -0.008793097 -0.01855278
0.00075332104 -0.006599045 0.01211877 0.006946522 -0.046553694 -0.0037695428 -0.038774375 -0.060005896
0.06536226 -0.005522423 0.007726646 -0.0599151 0.019515175 -0.03555965 -0.008797928 0.008091207
0.028168814 -0.0425581 -0.006442225 -0.024057584 -0.061497703 0.0012287758 0.11126441 -0.022206603
0.076972805 0.01726115 0.008672149 -0.06681626 -0.014345175 -0.044206757 -0.033125684 -0.02885547
0.054023366 0.024769887 -0.024358075 -0.034074884 0.0054041124 -0.03284808 -0.027682861 -0.033249047
-0.056149926 -0.013169912 -0.0041079964 0.03608851 -0.05981392 0.014840585 0.043080688 0.053017553
0.018305752 -0.0439586 0.0925302 0.014861105 -0.0059517133 -0.03502832 0.017674632 -0.038818307
0.017719187 0.032807037 -0.008258523 0.046232708 -0.0256131 -0.080654554 0.012655878 0.0003747136
-0.014826891 -0.06826135 -0.04003859 -0.06840721 0.055786144 0.027978556 0.011905824 -0.010061084
-0.03731061 0.025976112 0.008733581 -0.031756666 0.05604092 0.024848042 -0.082293555 0.01612886
-0.025668243 -0.017971776 -0.020966796 0.019782925 0.0058281277 0.018324308 -0.024766235 -0.019156788
-0.05081062 -0.026346788 -0.051304113 0.0012346668 0.04491753 0.00650501 -0.043638527 -0.021342777
-0.0033426182 0.0051063052 -0.0056846873 -0.018988097 0.063200265 0.006227899 0.12130657 -0.09041385
-0.026657183 0.031849224 0.026804352 0.011530316 0.044454012 -0.023118705 -0.04266641 0.017471936
-0.01599198 0.009243143 0.009977063 -0.10102138 0.01135654 0.0035349147 0.017159978 -0.0162687
-0.021714153 0.015790362 0.0246085 0.014901127 -0.060280677 -0.023233926 -0.012433733 1.1186831e-05
0.032536794 0.0024528992 -0.095467225 -0.045860667 0.004677391 -0.025961624 0.030990193 0.006873394
-0.028567497 0.033587813 0.026449623 0.047228675 -0.06711445 0.07672294 0.027022118 -0.011256679
-0.03780657 -0.0021003012 0.021167211 0.029116923 -0.014595223 -0.10696933 -0.014450002 0.06568844
-0.024554757 -0.057381608 -0.039724182 -0.010895322 0.0012901578 0.08701141 -0.021874776 0.010681783
0.013184102 -0.025582481 0.10336051 -0.011576385 0.0013270042 -0.01289758 0.0138961 -0.06592997
00000000: 8de4 db3c bedc 593d b1c0 c5bc 5b5d 00bb
00000010: b77e ed3c be05 953c ea93 0ebd b62c dabd
00000020: b50a 90bc 1dcc 7cbd 5e0d b73b 27e8 03bd
00000030: c1e5 4c3d 9a20 14bb b1c0 8abd fa3e 263d
00000040: 9c73 1bbd 1251 b13c 740a 293d 285d 5f3c
00000050: f4b2 23bd 1c60 0f3c 2f54 293d 7485 d83c
00000060: 7bb2 fabd bebc 613c f180 2abd 6d91 e73c
00000070: 1f26 4e3c 5a69 66bd a6db dbbd aedb a9bc
00000080: 4fb5 903a c970 aabc 0ea7 f23c d0cf d43c
00000090: 05bb f0bb b5b4 32bd 9e69 603b 6fec 11bc
000000a0: bef0 a63c 56db 2b3b 617b 113d 00b3 4a3d
000000b0: 85d9 f9bc 412c 0abd a62d 173d 5dea 433d
000000c0: 979b 093d cd04 0f3d e805 66bd 1325 53b9
000000d0: 6217 8fbc d0d2 25bd a747 1fbc c87b 11bd
000000e0: 4840 1f3c ea66 a13c 2c33 be3c f0d3 983d
000000f0: b2c3 2d3a 35a0 aabc 4b8c 923c d0b6 8e3b
00000100: 6c63 393d ce3c 573d 2702 d43c 24a0 8a3a
00000110: 4271 febc 5b60 c6bc 1531 37bd 5ac1 8f3d
00000120: 8e26 a83a 0540 59bd dd7c cbbc 200e 3cbd
00000130: f605 f6bc 075f dd3c 319e 6d3c f8fa b43c
00000140: 3909 6fbd 6e5f e7bc a131 a13d df63 04be
00000150: 1bde 543d 68f1 94bb ec10 10bc 00fc 97bc
00000160: 857a 453a cd3c d8bb ce8d 463c a69f e33b
00000170: 16af 3ebd 6f0a 77bb e1d1 1ebd bec8 75bd
00000180: a6dc 853d 71f5 b4bb ce2f fd3b 8969 75bd
00000190: 4ade 9f3c ffa6 11bd 2f25 10bc fb90 043c
000001a0: 49c2 e63c 6751 2ebd 4d19 d3bb 6914 c5bc
000001b0: 04e5 7bbd e00e a13a 98de e33d 9fea b5bc
000001c0: eba3 9d3d 4167 8d3c a115 0e3c f7d6 88bd
000001d0: 0608 6bbc 2512 35bd ccae 07bd 4e62 ecbc
000001e0: 9b47 5d3d 38ea ca3c 968a c7bc 1b92 0bbd
000001f0: fb14 b13b b58b 06bd 2bc7 e2bc 2730 08bd
00000200: 77fd 65bd 9dc6 57bc 5f9c 86bb 8cd1 133d
00000210: 71ff 74bd ed25 733c 6075 303d ef28 593d
00000220: f2f5 953c ef0d 34bd 7980 bd3d fe7b 733c
00000230: 9706 c3bb db79 0fbd 64ca 903c f2ff 1ebd
00000240: d427 913c ac60 063d c24e 07bc 825e 3d3d
00000250: 90d2 d1bc 372e a5bd 9a5a 4f3c 3575 c439
00000260: 7dec 72bc 9bcc 8bbd 81ff 23bd 1419 8cbd
00000270: 0380 643d 4933 e53c a510 433c 3fd7 24bc
00000280: 03d3 18bd dbcb d43c 4b17 0f3c 4713 02bd
00000290: 2a8b 653d 1f8e cb3c 8689 a8bd ac20 843c
000002a0: 3546 d2bc 8c39 93bc 8fc2 abbc cd0f a23c
000002b0: e1f9 be3b dc1c 963c 8fe2 cabc b2ee 9cbc
000002c0: cc1e 50bd 38d5 d7bc 4324 52bd 8bd4 a13a
000002d0: 72fb 373d fb27 d53b 50be 32bd 0cd7 aebc
000002e0: d40f 5bbb cb52 a73b 9d46 babb ed8c 9bbc
000002f0: 246f 813d 6713 cc3b 946f f83d e62a b9bd
00000300: 2a60 dabc 5574 023d cd94 db3c a7e9 3c3c
00000310: 6915 363d 7063 bdbc f9c2 2ebd 4e21 8f3c
00000320: 9d01 83bc 8d70 173c d676 233c 4ce4 cebd
00000330: c810 3a3c 07aa 673b 1593 8c3c f045 85bc
00000340: e1e1 b1bc ca5a 813c c497 c93c db23 743c
00000350: dfe8 76bd 1355 bebc dbb6 4bbc 13af 3b37
00000360: 4d45 053d d2c0 203b 5284 c3bd 65d8 3bbd
00000370: cd44 993b 79ad d4bc 25df fd3c 353a e13b
00000380: 6206 eabc 6093 093d e1ac d83c db72 413d
00000390: 4d73 89bd eb20 9d3d 7d5d dd3c ef6d 38bc
000003a0: 10db 1abd 35a5 09bb dc66 ad3c 9d86 ee3c
000003b0: cd20 6fbc bc12 dbbd b4bf 6cbc a987 863d
000003c0: 0f27 c9bc fa08 6bbd d3b5 22bd 4b82 32bc
000003d0: 831a a93a 0a33 b23d bb32 b3bc a502 2f3c
000003e0: 2202 583c 5a92 d1bc adae d33d e1aa 3dbc
000003f0: dfee ad3a 5f50 53bc 78ac 633c 4b06 87bd

fc1.bias f4 [100]
0.01947888 0.018655479 -0.0060303938 -0.020910766 0.005089011 0.02418772 0.0042179194 -0.011756413
0.0040259813 0.0013473005 0.03196337 0.026108228 0.01219586 -0.011437026 -0.016461119 -0.007680607
-0.019557048 -0.0010700611 -0.029281009 -0.019086355 0.028933242 -0.017727317 0.041235577 0.015326475
-0.011285485 0.03512759 -0.023994934 0.016325846 0.012482784 0.01210332 -0.016216857 0.03541392
0.032891873 0.014963497 -0.024825163 -0.027904298 0.0087476 0.008971586 -0.030995805 0.017685696
0.013261371 0.018653926 -0.027423885 0.006248288 0.023215849 -0.012836835 0.0010799924 0.028850146
-0.012826361 0.05576584 -0.017560255 -0.015816344 0.03263682 -0.022573149 0.0005732669 0.026655404
0.0128377415 0.0012023263 0.030712392 -0.004016358 -0.02600021 0.029519755 -0.0025212318 -0.015405502
-0.0044315904 -0.01103628 -0.01585955 0.025107237 -0.011917054 -0.0055630417 0.0042639305 0.02597223
-0.005964201 0.02732585 -0.036058486 -0.021212146 0.02300548 0.023136428 -0.0021062822 0.014262302
0.024532845 -0.01842118 0.02664856 -0.022470232 0.018891964 0.04425463 0.019541312 -0.01684178
0.03250369 0.02031831 -0.019799557 -0.0150749115 0.0025529042 -0.014143115 0.015082832 0.00654859
-0.00067294645 -0.0006879431 -0.020877698 -0.009777811
00000000: 2c92 9f3c 60d3 983c 9c9a c5bb 0e4d abbc
00000010: b8c1 a63b 5325 c63c 7936 8a3b f89d 40bc
00000020: 61ec 833b e797 b03a 06ec 023d ece0 d53c
00000030: 25d1 473c 5d62 3bbc 78d9 86bc 9aad fbbb
00000040: 1a36 a0bc 4b41 8cba bade efbc fd5a 9cbc
00000050: 6805 ed3c e138 91bc a3e6 283d e51b 7b3c
00000060: c1e6 38bc f3e1 0f3d 0691 c4bc c8bd 853c
00000070: 9784 4c3c 014d 463c 37d9 84bc 300e 113d
00000080: a1b9 063d 7529 753c 245e cbbc 8e97 e4bc
00000090: 1852 0f3c 8ffd 123c eaea fdbc 98e1 903c
000000a0: 3946 593c 1ed0 983c 0ea8 e0bc 70be cc3b
000000b0: 2a2f be3c 9751 52bc 888e 8d3a 2457 ec3c
000000c0: a825 52bc b96a 643d 86da 8fbc 4791 81bc
000000d0: 30ae 053d 53eb b8bc 4a47 163a 6f5c da3c
000000e0: 6455 523c 6097 9d3a 8e98 fb3c a79b 83bb
000000f0: 64fe d4bc 6ad3 f13c 403b 25bb 5c67 7cbc
00000100: e036 91bb 83d1 34bc e3eb 81bc b1ad cd3c
00000110: bf3f 43bc 2d4a b6bb 71b8 8b3b b7c3 d43c
00000120: 586f c3bb 76da df3c 10b2 13bd 18c5 adbc
00000130: fd75 bc3c 9b88 bd3c 8d09 0abb 6eac 693c
00000140: 1bf9 c83c 04e8 96bc 154e da3c 7e13 b8bc
00000150: 52c3 9a3c 5844 353d 1a15 a03c c6f7 89bc
00000160: 9722 053d 9672 a63c ae32 a2bc c3fc 76bc
00000170: a04e 273b 86b8 67bc fc1d 773c 8e95 d63b
00000180: ac68 30ba 1457 34ba b507 abbc 1d33 20bc

fc2.weight f4 [64, 100]
0.12003214 -0.008045236 -0.18385497 0.16443278 0.037610475 0.2627079 0.16035579 -0.09051305
0.20993967 -0.02477585 0.09604066 0.16560815 -0.06451742 0.08020458 0.051532056 -0.029580105
0.24949212 -0.16783428 -0.008200973 -0.06384551 0.2838846 0.25674585 0.12278391 -0.0009559672
0.06574314 0.21200006 0.09717786 0.15500912 0.18877107 -0.051747702 -0.26443985 0.22163188
0.14879543 0.06077575 -0.22958548 0.33281186 0.39059907 -0.25540468 -0.27906585 0.29050666
0.20108454 0.30040404 -0.20717987 -0.021488734 0.02063815 0.37886646 -0.13419017 -0.04196709
0.43886968 0.09514662 0.006339995 0.3034903 -0.09836315 0.3577926 -0.29317042 0.18278006
0.056034483 0.01044567 0.19571608 0.3738879 0.12174056 0.18986699 -0.026435435 0.08282558
-0.32108694 -0.03594292 0.30098304 0.11233952 0.22840998 0.1608096 0.32017753 -0.19603297
0.061257984 0.17461702 -0.1318447 -0.042574346 0.22943188 -0.20968054 -0.018414197 0.25600865
0.26437512 0.23589577 0.099349506 -0.1714682 -0.04090556 -0.051671553 0.32047507 -0.051071998
0.20138775 0.31682003 0.33844402 0.24886678 -0.0036768795 0.15468255 0.038798966 0.06710759
0.2826964 0.2871908 0.14112073 -0.0301137 0.0058419025 0.07985819 -0.015127657 0.16440655
0.018992396 0.25342515 0.06438008 0.04105549 0.2046554 -0.02196317 0.093292765 0.28606445
0.016095484 -0.0858846 -0.097820215 -0.023284495 0.28736842 -0.11215836 0.042674556 -0.018448703
0.31033862 0.23839095 -0.05416228 -0.059550595 -0.024537278 0.17246109 -0.037048053 0.14073373
0.22211954 -0.1025102 -0.22941263 0.34628874 0.2244161 0.088757046 -0.121703975 0.2159991
0.37872636 -0.09513305 -0.24117225 0.23379017 0.18317339 0.17965263 -0.117239304 0.027952826
0.076419555 0.55777377 -0.03840794 0.04121794 0.40964803 0.023260072 -0.07927548 0.11399282
-0.12647912 0.21449594 -0.14543986 0.21208449 0.033490647 -0.02111382 0.20368974 0.19714634
0.31079894 0.13238694 -0.0930661 0.05251342 -0.28546557 0.102760196 0.23263693 -0.0537293
0.1731156 0.10347338 0.2992216 -0.05861379 -0.020946944 0.23863679 -0.07052692 0.08172595
0.13944426 -0.20788811 -0.0015651254 0.24216104 0.24320534 0.24594998 0.18257481 -0.22583729
0.13505529 0.002855879 0.216812 0.0877728 0.23400585 0.19151118 0.25585812 0.20326307
0.0631903 0.14228983 0.0069699935 0.006089222 0.15024474 0.30908304 0.23244679 0.021527667
0.10824415 0.039459378 -0.07863896 0.29229185 0.037511952 0.287013 -0.016272726 0.060415722
0.22027919 -0.16243197 0.026624138 0.23213339 0.06808291 -0.011230842 0.09669735 -0.06779242
0.2008856 -0.1578342 -0.15651186 -0.15085427 0.28851333 0.21568659 -0.034796145 0.09569014
-0.0677617 0.2332567 -0.07521432 0.24097028 0.2591113 -0.16115402 -0.21966772 0.34590724
0.2807868 -0.0587981 -0.18548921 0.27257815 0.35539868 -0.17470367 -0.28281012 0.17104779
0.1781665 0.27794555 -0.12126441 0.095319234 0.15809825 0.34687 -0.039661635 0.00986835
0.32223275 0.011395096 -0.027256345 0.2059032 -0.13062589 0.29695612 -0.37288746 0.06525042
00000000: 69d3 f53d 2ad0 03bc 7a44 3cbe 1161 283e
00000010: 710d 1a3d a681 863e 4f34 243e e85e b9bd
00000020: 6dfa 563e b9f6 cabc f7b0 c43d 2f95 293e
00000030: b621 84bd 4d42 a43d 4713 533d fa51 f2bc
00000040: dd7a 7f3e c0dc 2bbe 605d 06bc 6fc1 82bd
00000050: 5359 913e 3174 833e 2176 fb3d df99 7aba
00000060: 57a4 863d 8b16 593e 3005 c73d b6ba 1e3e
00000070: 344d 413e 66f5 53bd a964 87be 78f3 623e
00000080: d45d 183e feef 783d 7518 6bbe 5166 aa3e
00000090: 9afc c73e 67c4 82be b8e1 8ebe 4abd 943e
000000a0: 1be9 4d3e 8fce 993e f626 54be 2409 b0bc
000000b0: 5611 a93c c9fa c13e 2669 09be afe5 2bbd
000000c0: 87b3 e03e 3bdc c23d bcbf cf3b 1563 9b3e
000000d0: 9f72 c9bd 9730 b73e 6f1a 96be b22a 3b3e
000000e0: 6a84 653d 5124 2b3c cc69 483e 3c6e bf3e
000000f0: 1d53 f93d 7e6c 423e 208f d8bc 75a0 a93d
00000100: 8265 a4be e238 13bd 731a 9a3e 4312 e63d
00000110: 4ee4 693e 46ab 243e 4fee a33e debc 48be
00000120: a7e9 7a3d cece 323e 4c02 07be 7062 2ebd
00000130: 31f0 6a3e 7fb6 56be 5fd9 96bc 9113 833e
00000140: 2d5c 873e a98e 713e c177 cb3d 5c95 2fbe
00000150: 978c 27bd 8da5 53bd 4f15 a43e df30 51bd
00000160: 9738 4e3e 3c36 a23e 8948 ad3e efd6 7e3e
00000170: cdf7 70bb 1a65 1e3e aaeb 1e3d b46f 893d
00000180: 95bd 903e ac0a 933e f481 103e 02b1 f6bc
00000190: 6e6d bf3b b18c a33d fed9 77bc 315a 283e
000001a0: f195 9b3c f1c0 813e b4d9 833d cd29 283d
000001b0: 2f91 513e 1bec b3bc 4710 bf3d 0a77 923e
000001c0: adda 833c 44e4 afbd f755 c8bd 20bf bebc
000001d0: f421 933e 48b3 e5bd 84cb 2e3d bc21 97bc
000001e0: b4e4 9e3e c21c 743e 44d9 5dbd 53eb 73bd
000001f0: 6702 c9bc a499 303e b3bf 17bd 811c 103e
00000200: 4e73 633e def0 d1bd 25eb 6abe c24c b13e
00000210: 56cd 653e 41c6 b53d ef3f f9bd de2e 5d3e
00000220: 6ce8 c13e 1ed5 c2bd dcf5 76be b166 6f3e
00000230: ce91 3b3e dcf6 373e 291b f0bd 53fd e43c
00000240: db81 9c3d 43ca 0e3f a551 1dbd 25d4 283d
00000250: 63bd d13e e88b be3c 2f5b a2bd 1175 e93d
00000260: be83 01be d3a4 5b3e 30ee 14be ad2c 593e
00000270: 7d2d 093d e4f6 acbc 0b94 503e bbe0 493e
00000280: 0a21 9f3e 7190 073e 7099 bebd 5018 573d
00000290: 8b28 92be f073 d23d 6038 6e3e 4113 5cbd
000002a0: 3745 313e dae9 d33d 9333 993e 0315 70bd
000002b0: ed98 abbc 345d 743e 6b70 90bd ef5f a73d
000002c0: 7aca 0e3e 9fe0 54be e524 cdba 10f9 773e
000002d0: d20a 793e 50da 7b3e e4f4 3a3e e441 67be
000002e0: ef4b 0a3e b329 3b3b f703 5e3e 3ac2 b33d
000002f0: 3b9f 6f3e 821b 443e d6ff 823e 3224 503e
00000300: ea69 813d 6db4 113e 8b64 e43b 1988 c73b
00000310: c2d9 193e 2240 9e3e 8806 6e3e ca5a b03c
00000320: 1caf dd3d 28a0 213d 770d a1bd 47a7 953e
00000330: 22a6 193d 5ef3 923e 614e 85bc 7a76 773d
00000340: de90 613e 9154 26be dd1a da3c 60b4 6d3e
00000350: 0d6f 8b3d 9101 38bc 4309 c63d c1d6 8abd
00000360: f4b4 4d3e 4a9f 21be a544 20be 8b79 1abe
00000370: 05b8 933e f2dc 5c3e 6786 0ebd 31f9 c33d
00000380: a5c6 8abd d8da 6e3e f709 9abd eac0 763e
00000390: 3caa 843e 8f05 25be 93f0 60be c11a b13e
000003a0: 4ac3 8f3e 47d6 70bd e2f0 3dbe 5d8f 8b3e
000003b0: d1f6 b53e 85e5 32be 7dcc 90be 2727 2f3e
000003c0: 4771 363e e14e 8e3e 7a59 f8bd bb36 c33d
000003d0: 82e4 213e f298 b13e 3d74 22bd dcae 213c
000003e0: b1fb a43e 7fb2 3a3c b348 dfbc 4ad8 523e
000003f0: cbc2 05be a20a 983e 1beb bebe 03a2 853d

fc2.bias f4 [64]
-0.015901918 -0.0055728117 0.069718994 -0.1098704 0.03395494 0.08630576 0.13600583 0.046453636
-0.060334135 0.00021017635 -0.0054695937 0.10775308 -0.04818074 -0.020235116 -0.058651306 -0.026707342
-0.061112195 -0.006321206 0.08357325 -0.06397089 -0.05847446 0.048407387 -0.07986164 0.106067054
-0.04838474 0.078362316 0.081442066 -0.0042350576 0.14671898 -0.0071709575 -0.044904355 -0.0001671753
0.0694931 0.08839086 0.07810564 0.06960458 0.049083218 -0.040723473 0.03400869 0.062629126
0.10003658 0.12375375 -0.08414868 0.0051340773 -0.015923511 0.011582054 0.02213079 0.08532341
-0.046620507 0.15067647 -0.021318274 -0.02024294 -0.06008306 -0.010632325 0.031000262 0.005744725
-0.026733795 0.044536322 0.061654996 0.08228753 0.056148414 -0.0011952806 0.11438309 0.08956505
00000000: bd44 82bc 229c b6bb d5c8 8e3d bb03 e1bd
00000010: 5614 0b3d 13c1 b03d 1d45 0b3e 2b46 3e3d
00000020: ed20 77bd c962 5c39 473a b3bb a6ad dc3d
00000030: 2b59 45bd 1dc4 a5bc 5a3c 70bd 5bc9 dabc
00000040: c850 7abd 1f22 cfbb 7428 ab3d 2c03 83bd
00000050: ea82 6fbd d346 463d 808e a3bd af39 d93d
00000060: 142f 46bd 6c7c a03d 19cb a63d 3dc6 8abb
00000070: 803d 163e 5afa eabb a1ed 37bd c74b 2fb9
00000080: 6652 8e3d 4406 b53d daf5 9f3d d98c 8e3d
00000090: 7c0b 493d a8cd 26bd b24c 0b3d b343 803d
000000a0: fadf cc3d 9b72 fd3d 2556 acbd c33b a83b
000000b0: 0672 82bc a8c2 3d3c a14b b53c 0abe ae3d
000000c0: 25f5 3ebd ef4a 1a3e a9a3 aebc 86d4 a5bc
000000d0: a819 76bd 3433 2ebc 43f4 fd3c 3f3e bc3b
000000e0: d500 dbbc b86b 363d f389 7c3d 5d86 a83d
000000f0: e1fb 653d f6aa 9cba ae41 ea3d e26d b73d

fc3.weight f4 [32, 64]
-0.037635755 6.670696e-05 0.019739652 0.07307005 -0.15842773 0.18163538 0.106431514 0.06223465
0.19024858 -0.05236511 -0.043422826 -0.09536393 0.044197023 -0.22872838 -0.14505036 0.08817954
-0.18852624 0.17668249 0.14943579 -0.020969301 0.048324026 -0.085243694 0.08968009 -0.026265923
-0.1529275 -0.20134309 0.035510946 -0.04620356 0.16796397 -0.073373616 0.2144804 -0.12579516
0.21478799 0.184645 0.083756536 0.18888412 0.06650913 -0.17167018 -0.027142713 0.054033604
0.033516284 0.07612531 -0.045244657 -0.08389892 -0.14825405 0.2477173 0.08196835 0.18759261
0.087251484 -0.108879186 -0.01662306 -0.09333383 0.12936886 0.27462912 0.12135534 0.09630068
-0.021791695 -0.19584313 0.1866928 0.016282057 0.021191673 0.19987026 0.2524386 0.13825507
0.101720884 -0.030667037 0.010404572 -0.08293025 -0.124427915 0.119132504 -0.10358295 -0.06523523
0.089205965 -0.01890622 -0.08820668 -0.07683177 0.045088038 0.016598508 0.06278396 0.068775445
-0.044317797 -0.022287488 0.007274866 0.09514111 -0.013441071 -0.0051898807 -0.114523545 0.012294605
-0.12142101 0.08134213 0.0056457967 0.11365484 -0.0562993 -0.073908284 0.0037301034 0.030508205
-0.1198055 -0.05218561 0.094372675 -0.09290272 0.109202325 0.11289959 0.097229674 -0.0026154518
0.061585188 -0.08273138 -0.101873145 0.0056125373 -0.05499661 -0.11176954 0.0209869 0.025382727
-0.089626074 -0.051132217 -0.04127513 -0.021131843 -0.08328487 -0.013730183 -0.08449805 -0.097521976
0.079491705 0.046715066 0.022852361 -0.05320236 -0.08348927 -0.109463215 0.06672169 0.089574665
-0.01979262 -0.1692681 -0.122987 -0.014756383 -0.030209903 0.20760123 0.12261277 0.17416112
0.067774996 0.16596648 -0.031212706 -0.08327728 0.22136442 -0.24047758 -0.18403071 0.30408734
-0.25752968 0.21682876 0.18624549 0.10678327 -0.1493553 -0.07242923 -0.06053115 0.042646036
-0.043270763 -0.20975153 -0.07124839 -0.09353428 -0.055603433 -0.0041248216 0.032454986 -0.02227322
0.20308667 0.20473662 0.103901885 0.096668735 0.11153751 -0.11237741 -0.103805445 0.20188954
-0.20977683 0.26402825 -0.16672157 -0.11463236 -0.13603924 0.15448447 0.048331857 0.1189839
0.15595675 -0.051464196 -0.112144224 0.045583703 0.12494342 0.18267827 0.16070397 0.24127278
0.046020772 -0.1214998 0.10040334 -0.03999795 0.24395493 0.14500621 0.12798765 0.07282842
-0.13012044 -0.023579663 -0.04970788 -0.039594505 0.02020643 0.124119624 -0.04864065 0.20106848
0.24890634 0.07128562 -0.1092883 0.049561612 0.29436693 -0.2232564 -0.040127974 0.11125727
-0.07617556 0.27132836 0.06984899 0.028783083 -0.123461604 -0.07418515 -0.04402566 0.14081207
0.015628066 -0.2119779 -0.13745339 -0.088388555 0.07361352 -0.1391113 0.06902943 -0.03139317
0.29234993 0.27741647 0.21620484 0.11122092 0.02668733 -0.04622262 -0.08447464 0.10732617
-0.10799116 0.21604457 -0.017750759 -0.23525897 -0.10837631 0.072150834 -0.03843441 0.00836455
0.18322866 -0.058341444 -0.18337093 0.09268098 0.0821842 0.2682431 0.08603595 0.18814178
0.10046196 -0.09384288 0.24207275 -0.14621875 0.21691254 0.08762381 0.15406616 0.12996705
00000000: f327 1abd 07e5 8b38 0db5 a13c c0a5 953d
00000010: e13a 22be a0fe 393e c4f8 d93d c3e9 7e3d
00000020: 86d0 423e cc7c 56bd 22dc 31bd 2a4e c3bd
00000030: f007 353d c637 6abe 1588 14be 7a97 b43d
00000040: 060d 41be 41ec 343e b205 193e d0c7 abbc
00000050: 6aef 453d 3f94 aebd 32aa b73d a22b d7bc
00000060: 0799 1cbe e22c 4ebe ed73 113d f23f 3dbd
00000070: bffe 2b3e e844 96bd c0a0 5b3e 72d0 00be
00000080: 62f1 5b3e 9413 3d3e 8c88 ab3d d76a 413e
00000090: f035 883d 4fca 2fbe 655a debc 5752 5d3d
000000a0: 5f48 093d 96e7 9b3d 7652 39bd 32d3 abbd
000000b0: e9cf 17be 9ba9 7d3e 06df a73d 4718 403e
000000c0: e8b0 b23d 0dfc debd 152d 88bc cf25 bfbd
000000d0: 4579 043e 309c 8c3e 2689 f83d 4a39 c53d
000000e0: 7f84 b2bc 1a8b 48be 662c 3f3e f361 853c
000000f0: 299a ad3c caaa 4c3e a23f 813e bd92 0d3e
00000100: 0a53 d03d 7039 fbbc f077 2a3c 56d7 a9bd
00000110: 10d4 febd befb f33d 4c23 d4bd 0c9a 85bd
00000120: 9eb1 b63d 38e1 9abc b4a5 b4bd fa59 9dbd
00000130: 3cae 383d 98f9 873c e094 803d 24da 8c3d
00000140: 9486 35bd 4094 b6bc 0062 ee3b 58d9 c23d
00000150: f037 5cbc e00f aabb 528b eabd 506f 493c
00000160: 94ab f8bd b496 a63d 6000 b93b dec3 e83d
00000170: 189a 66bd 3a5d 97bd c074 743b 58ec f93c
00000180: 965c f5bd 94c0 55bd 7646 c13d c843 bebd
00000190: 78a5 df3d e637 e73d 5a20 c73d 0068 2bbb
000001a0: c040 7c3d 126f a9bd dea2 d0bd 60e9 b73b
000001b0: 2044 61bd 6ee7 e4bd b8ec ab3c 70ef cf3c
000001c0: e08d b7bd 0470 51bd 1c10 29bd b01c adbc
000001d0: 4291 aabd 90f4 60bc 500d adbd 9ab9 c7bd
000001e0: 8ccc a23d 4c58 3f3d e034 bb3c b8ea 59bd
000001f0: 6cfc aabd 402e e0bd 62a5 883d ec72 b73d
00000200: 2224 a2bc 9e54 2dbe 9ce0 fbbd c2c4 71bc
00000210: c27a f7bc 6b95 543e 671c fb3d 4b57 323e
00000220: 9ecd 8a3d 1ef3 293e cab1 ffbc 478d aabd
00000230: 5bad 623e c13f 76be 8c72 3cbe 56b1 9b3e
00000240: eeda 83be 5c08 5e3e 23b7 3e3e 30b1 da3d
00000250: 99f0 18be c755 94bd 83ef 77bd 9cad 2e3d
00000260: af3c 31bd 1bc9 56be adea 91bd e78e bfbd
00000270: 6dc0 63bd 8329 87bb 85ef 043d 5476 b6bc
00000280: f4f5 4f3e 7aa6 513e 83ca d43d 42fa c53d
00000290: c76d e43d 2126 e6bd f397 d4bd 22bc 4e3e
000002a0: bdcf 56be b62e 873e 0fb9 2abe 5fc4 eabd
000002b0: df4d 0bbe 2d31 1e3e a0f7 453d d5ad f33d
000002c0: 20b3 1f3e 1fcc 52bd dfab e5bd fab5 3a3d
000002d0: 56e2 ff3d 0310 3b3e 958f 243e 3610 773e
000002e0: 4780 3c3d e3d4 f8bd 44a0 cd3d e4d4 23bd
000002f0: 52cf 793e 827c 143e 320f 033e 1127 953d
00000300: 4b3e 05be 232a c1bc 7d9a 4bbd d92d 22bd
00000310: f587 a53c 6e32 fe3d 6b3b 47bd e5e4 4d3e
00000320: 4ee1 7e3e 32fe 913d 8bd2 dfbd 1e01 4b3d
00000330: 43b7 963e 539d 64be 3b5d 24bd dada e33d
00000340: ef01 9cbd 8deb 8a3e fd0c 8f3d 80ca eb3c
00000350: 70d9 fcbd 62ee 97bd 4054 34bd 0a31 103e
00000360: 6e06 803c bc10 59be 95c0 0cbe 0f05 b5bd
00000370: afc2 963d 3173 0ebe 4d5f 8d3d 2096 00bd
00000380: e4ae 953e 8809 8e3e cd64 5d3e cbc7 e33d
00000390: 639f da3c ee53 3dbd 0a01 adbd d3cd db3d
000003a0: 782a ddbd ca3a 5d3e 0a6a 91bc bae7 70be
000003b0: 66f4 ddbd d1c3 933d 666d 1dbd 770b 093c
000003c0: 4ba0 3b3e 70f7 6ebd 97c5 3bbe 87cf bd3d
000003d0: 3150 a83d 2957 893e 9e33 b03d 3da8 403e
000003e0: 00bf cd3d b230 c0bd ebe1 773e 5eba 15be
000003f0: 521e 5e3e 1d74 b33d 85c3 1d3e 1516 053e

fc3.bias f4 [32]
-0.037869066 -0.064289615 0.052096106 -0.020496085 0.025125911 -0.0932215 0.03583595 0.057715166
0.13860105 0.08676391 0.090638 -0.073049925 0.108380854 -0.031746365 0.052975245 0.045731425
0.0054572294 0.01716474 -0.029717559 0.018070411 -0.05607406 -0.04663026 0.12449848 -0.08965169
-0.042788282 0.045848507 -0.031509925 0.07961722 0.074715525 -0.086373836 -0.003340492 0.041643225
00000000: 981c 1bbd 46aa 83bd ba62 553d 68e7 a7bc
00000010: dbd4 cd3c eaea bebd b8c8 123d bd66 6c3d
00000020: 6fed 0d3e 47b1 b13d 6aa0 b93d 339b 95bd
00000030: c8f6 dd3d 7a08 02bd 92fc 583d e050 3b3d
00000040: 8fd2 b23b 129d 8c3c 3d72 f3bc 6608 943c
00000050: eaad 65bd 5fff 3ebd 0ff9 fe3d 4e9b b7bd
00000060: c442 2fbd a5cb 3b3d 8d10 01bd 5a0e a33d
00000070: 7404 993d c4e4 b0bd 28ec 5abb 1692 2a3d

fc4.weight f4 [2, 32]
-0.49912325 -0.11608578 -0.29283684 -0.33739266 -0.43633154 0.041533276 0.5263446 0.3446533
-0.50388527 0.5727606 0.32721582 0.5431162 0.398525 0.3077114 -0.48862234 -0.54909164
-0.55013156 -0.5914801 -0.6392712 -0.5752477 -0.0498404 0.118977286 -0.39116818 -0.23181733
0.11427256 0.54959404 -0.52741086 -0.49962193 -0.37301695 0.41278744 -0.43234617 -0.51269716
0.38270357 -0.10331619 0.569923 0.5280743 0.55542195 0.037204117 -0.3712317 -0.46550724
0.38252762 -0.46569458 -0.5696187 -0.5034926 -0.46698916 -0.5639717 0.36975327 0.48686928
0.5480874 0.47935936 0.6300243 0.39883652 -0.09092607 -0.14835197 0.44084463 0.35003948
-0.08161166 -0.34610838 0.47944492 0.59505457 0.40403253 -0.27379525 0.16513926 0.54404294
00000000: 158d ffbe 62be edbd b6ee 95be bbbe acbe
00000010: d966 dfbe cc1e 2a3d 85be 063f 6676 b03e
00000020: a0fe 00bf 70a0 123f d588 a73e aa09 0b3f
00000030: 780b cc3e 598c 9d3e b52c fabe 4591 0cbf
00000040: 6cd5 0cbf 3d6b 17bf 47a7 23bf 6f43 13bf
00000050: 7325 4cbd 5daa f33d 3247 c8be 8661 6dbe
00000060: bb07 ea3d 32b2 0c3f 6604 07bf 72ce ffbe
00000070: 14fc bebe e058 d33e 7a5c ddbe 1f40 03bf
00000080: b9f1 c33e 7097 d3bd 79e6 113f e12f 073f
00000090: 2230 0e3f 5863 183d 1512 bebe f756 eebe
000000a0: a9da c33e 856f eebe 88d2 11bf e4e4 00bf
000000b0: 3419 efbe 7360 10bf 4d50 bd3e ee46 f93e
000000c0: 754f 0c3f 976e f53e 4649 213f 4d34 cc3e
000000d0: 7337 babd 94e9 17be 63b6 e13e 6038 b33e
000000e0: 0424 a7bd 1e35 b1be ce79 f53e 7f55 183f
000000f0: 5add ce3e e42e 8cbe 441a 293e 6646 0b3f

fc4.bias f4 [2]
0.08341308 0.03433603
00000000: 7ad4 aa3d f0a3 0c3d
