checkpoint/model-fold-5.pt (torch, 446799 bytes, 8 tensors)

fc1.weight f4 [100, 1024]
00000000: 2172 113d 89f7 833d 4d9c 79bc a4ab 10bc
00000010: aab6 1c3d 35ac af3c 5a92 15bd 9619 a1bd
00000020: 4505 e1bc 2241 90bd 5f88 d73c 7248 80bc
00000030: 02fb 4b3d a533 ec3b 5190 4ebd 8fc1 e83c
00000040: 816e 1fbd fb1b fa3c a423 f53c 94ba 083c
00000050: 6fe0 f2bc 215f 773c c3af fe3c d0f5 943c
00000060: 2723 cabd 2a2e 08bb 22cb f6bc e05f 3e3d
00000070: e7de 9c3c 791a 7fbd 9929 babd 8f91 33bc
00000080: 618d 75bb c257 63bc d9f3 193d a28f a03c
00000090: 4863 13bb 6af6 24bd 2104 67bb 092e a3bc
000000a0: fd95 003d 1c12 5b3c 5959 413d 22ff d03c
000000b0: 5616 abbc da16 29bd f96b 393d 90aa f13c
000000c0: f6f1 343d 3dfc eb3c 8782 92bd abaa e4bb
000000d0: 1629 1bbc ff3c 58bd 7630 a0bb 8c3e f4bc
000000e0: 9cd4 093c 549a fb3b 2119 253c 58ee 373d
000000f0: f182 05bc 3452 e6bc 068e e33c 1838 e23b
00000100: 55c1 f93c 8013 e23c 4b21 023d c4e2 0cbc
00000110: dc24 a2bc 2db5 c6bc f7db 5dbd ce7a 473d
00000120: 8300 93bb 240e 65bd 239b a0bc 398e 4ebd
00000130: 6376 2fbd 5521 833c cef3 b43c c9dd 103d
00000140: 4f96 53bd ff47 9fbc c19b 933d e1f3 dabd
00000150: bae5 093d 7758 74bc 9ac1 9cbc 2382 08bd
00000160: e439 e23b dfe1 a1ba fde3 f53c 5ec5 2dbc
00000170: b008 80bd abff 6abc a7fa 3ebd 214f 37bd
00000180: 5dd4 a03d 4f0b f7bb 1709 753c a4df 25bd
00000190: c2df cb3c 9f51 2cbd 344c 99bc 5a72 633c
000001a0: 10e4 c93c 5c08 57bd d00f 7bbc a1ea 0abd
000001b0: 1a85 46bd 21af c83b c27c c73d 7497 1cbc
000001c0: 0bba 8d3d 6de0 cc3c 0155 55bb a58b 9abd
000001d0: 3fdf d2bb 192d 11bd 5c0c 12bd c9dc 17bd
000001e0: 2ef4 603d 8c0e 023d ab8d eabc 6b10 bbbc
000001f0: 25f5 543b 8a7b 27bd 5e1f b5bc 5fa4 b9bc
00000200: cd8f 7bbd db8e 86bc b07b 24bc dabf 3d3d
00000210: 62ce 52bd 17d0 d43c 93e4 433d 16fd 373d
00000220: 9351 863c 6906 f5bc 58ff a43d 7e4f cd3c
00000230: a9b0 29bc 26d1 e3bc 5a52 b63c 711e 59bd
00000240: 9382 be3c e8d8 203d 4d5f 77bc c756 643d
00000250: 910e f4bb 172b bbbd 8581 193c 7dc8 99bc
00000260: 0570 2dbc ca4b 93bd cf98 e2bc a41d 86bd
00000270: 0ab7 6b3d 112f 893c 7981 e63b a747 7eba
00000280: 1de1 52bd 40ee 083d 506e 843c 0467 1ebd
00000290: b5b7 2f3d 14b3 053d ba2e a9bd d7c3 c73c
000002a0: cb97 dfbc 6cfc e3bc e1d6 02bd d23a 0c3c
000002b0: 3365 5a39 b253 423c 99a8 27bd 9f6f 75bc
000002c0: be74 66bd fb5a 02bd f920 d5bc 79fe 4e3c
000002d0: 8715 363d fa4c 853b 3297 58bd 3b80 03bd
000002e0: 93bf 233c 5eb9 ae3c e8e7 81bc 84fb 55bc
000002f0: ac0e 823d 8d21 9f3c 8561 bb3d ae3f efbd
00000300: 0ed7 9abc 166c 2c3d 2e84 1c3d 341b ce3c
00000310: 15d5 4e3d 9126 2abc 414b 6abd 3e85 fc3c
00000320: 47eb cdbc 06aa 94b9 9469 5339 1bcb 98bd
00000330: 0fc7 9c3c 6273 4b3c ac62 a13c ce9b 93bb
00000340: 322b 00bd 1b84 993c 6760 303c 7fed 0e3d
00000350: b533 91bd bf05 f7bc a6b3 a3bc 1bc9 c039
00000360: 3001 2e3d 2de4 3c3c 3900 a9bd 9e4a 2ebd
00000370: de4d 303c 9bd5 0dbd 021e 2e3d 1601 803c
00000380: 06c6 18bd 8413 2d3d 3c62 053d cdd5 673d
00000390: 1571 99bd 1b0f 943d 4a46 973c 45c0 94bc
000003a0: e317 bebc 08eb 32bc ca9a 343c 17ad ee3c
000003b0: e756 cdbc 0a1c b2bd 61cf d3bc f6d9 b13d
000003c0: 5428 5ebc 027c 36bd a458 1ebd a145 21bc
000003d0: 0b5c bb3b ae9d 743d 94fe f0bc 0692 9c3c
000003e0: 9183 ba3c 72d2 04bd 033b a03d a834 94bc
000003f0: dfca 053c f847 cbbb 64ab 843c fa59 76bd
0.035509232 0.06443698 -0.015235019 -0.008829985 0.03826014 0.02144442 -0.036516525 -0.07866208
-0.027468333 -0.07043673 0.026310144 -0.015659545 0.049799927 0.007208305 -0.0504306 0.028412608
-0.038923744 0.03053092 0.029924221 0.008345265 -0.029648034 0.015098364 0.03108967 0.018183619
-0.09869986 -0.002077947 -0.030126158 0.046478152 0.019149257 -0.062281106 -0.090899654 -0.010959997
-0.0037468302 -0.013875904 0.037586067 0.01959974 -0.0022489596 -0.04027406 -0.0035250264 -0.019919412
0.03139304 0.013371017 0.04720435 0.025512282 -0.020884674 -0.04128156 0.045268986 0.029500276
0.044176064 0.0288068 -0.07153802 -0.006978353 -0.009470245 -0.052792545 -0.0048885895 -0.02981498
0.008412506 0.0076783095 0.010076792 0.044905037 -0.008148895 -0.02811537 0.027777683 0.0069036596
0.030487696 0.027597189 0.031770032 -0.008598987 -0.019792967 -0.024256313 -0.054164853 0.0487011
-0.004486145 -0.05592169 -0.019605225 -0.050428603 -0.04283751 0.016007105 0.022088911 0.03536776
-0.051657017 -0.01944351 0.07207442 -0.106910475 0.03366635 -0.01491367 -0.019135285 -0.033327233
0.0069038738 -0.001235064 0.03001594 -0.010606138 -0.06251657 -0.014343183 -0.04662576 -0.044753198
0.07853005 -0.00753919 0.0149557805 -0.040496483 0.02488697 -0.042070027 -0.018713094 0.013882244
0.024644881 -0.052498206 -0.015323594 -0.033915166 -0.04846678 0.0061243926 0.097405925 -0.009557594
0.069202505 0.025009358 -0.0032551887 -0.07546166 -0.0064353044 -0.0354434 -0.035656318 -0.03707579
0.054920368 0.031752154 -0.028632006 -0.022834977 0.003249475 -0.0408893 -0.022109684 -0.022661386
-0.061416436 -0.01642554 -0.010039255 0.046325542 -0.051466353 0.025978131 0.047825407 0.044919096
0.01639632 -0.029910283 0.080565155 0.025062319 -0.0103570605 -0.02780969 0.022256065 -0.053007547
0.023255622 0.039269358 -0.015098405 0.05574682 -0.0074480255 -0.09139078 0.009369259 -0.018772358
-0.01058579 -0.0719219 -0.027660755 -0.06548622 0.057547607 0.016746076 0.0070344773 -0.0009700008
-0.051484216 0.033430338 0.016165882 -0.038672462 0.042899806 0.032641485 -0.082608655 0.024385376
-0.02729406 -0.027830325 -0.031943206 0.008558946 0.000208278 0.011860775 -0.04093227 -0.014980226
-0.056263678 -0.031825047 -0.0260167 0.012633913 0.044454124 0.004068014 -0.052878566 -0.032104712
0.009994405 0.021328624 -0.015857652 -0.013060454 0.06350455 0.019425178 0.0914946 -0.11682068
-0.018901374 0.042095266 0.038211994 0.025159456 0.05049618 -0.0103851715 -0.057200674 0.030825254
-0.025136603 -0.00028355437 0.00020161859 -0.07460614 0.019137887 0.012417646 0.01970037 -0.0045046574
-0.031291194 0.01873975 0.010765172 0.034894463 -0.070899405 -0.030154107 -0.019983124 0.0003677093
0.0424816 0.011529011 -0.082519956 -0.04255163 0.0107607525 -0.03462754 0.042509086 0.015625518
-0.037298225 0.04225494 0.032564387 0.05660038 -0.07492272 0.07229444 0.018466134 -0.018158088
-0.02320475 -0.010920294 0.011023233 0.02913527 -0.025065852 -0.08696754 -0.025855722 0.08684151
-0.01355942 -0.044551857 -0.038658753 -0.009843261 0.0057177595 0.059720688 -0.029418267 0.019112598
0.022767814 -0.03242726 0.078237556 -0.018091515 0.008166044 -0.0062036477 0.016195007 -0.060144402

fc1.bias f4 [100]
00000000: c5fb d63c e325 9e3c 8d5e 9abb 794f a7bc
00000010: 2fa6 d33b 25b0 ca3c 8722 943b f89d 40bc
00000020: 0413 963b fd20 093b 6df7 253d 2ea4 df3c
00000030: 25d1 473c 5d62 3bbc 78d9 86bc 9aad fbbb
00000040: f519 87bc 0c76 78b9 85d3 e5bc 7e71 8dbc
00000050: e55d f13c fd9a 88bc 9ef9 353d e51b 7b3c
00000060: c1e6 38bc 9b0d 1b3d 0691 c4bc 2237 893c
00000070: c053 763c cf70 683c 3911 85bc e86f 123d
00000080: 8e71 073d fada 8e3c 8bcc cbbc 243c e8bc
00000090: 598c 1c3c f80b 153c 4a8c f5bc 595f 923c
000000a0: 593a 703c 7a23 a33c 1234 d8bc 70be cc3b
000000b0: 8abd c83c b785 65bc 988a 3d3b aaef 013d
000000c0: c8b5 47bc 13b4 743d 86da 8fbc 4e88 7cbc
000000d0: 6106 083d b3a9 b2bc 0fc8 063b 7ead db3c
000000e0: 74ce 743c d517 233b ceb6 fe3c da8a 58bb
000000f0: 6854 d3bc 0c86 f73c 403b 25bb 5c67 7cbc
00000100: a1cb 8ebb 4211 febb adfc 7abc f73a f53c
00000110: 767e 36bc 3be9 d4bb ffdb 9f3b a331 d73c
00000120: 586f c3bb c8ed db3c d401 05bd 18c5 adbc
00000130: b906 b73c 8947 bf3c fd1e 8f3b 2fb5 693c
00000140: 81bb cd3c 4c1e 90bc d795 e23c 8113 b7bc
00000150: 4029 bb3c 827c 453d 5d56 a73c 9b32 8bbc
00000160: 494f 053d ea22 9e3c b3d0 9bbc 69dc 71bc
00000170: a04e 273b af71 4ebc fc1d 773c a57e eb3b
00000180: fe8b 4cba 808c b4ba 1490 a6bc cd1a 0bbc
0.0262431 0.019305175 -0.0047109784 -0.020423638 0.0064590196 0.024742195 0.0045207175 -0.011756413
0.0045799036 0.0020924204 0.040519167 0.027299967 0.01219586 -0.011437026 -0.016461119 -0.007680607
-0.01649187 -0.00023695099 -0.028054962 -0.017266031 0.029463718 -0.016675467 0.044427507 0.015326475
-0.011285485 0.037854772 -0.023994934 0.016749922 0.015034616 0.014187052 -0.016243564 0.035751253
0.03306728 0.0174384 -0.024877807 -0.02834899 0.009554946 0.009097092 -0.029974122 0.01786773
0.014662349 0.019914377 -0.026392017 0.006248288 0.024504442 -0.014008931 0.002892172 0.031722702
-0.012189336 0.059742045 -0.017560255 -0.015413357 0.03320921 -0.021809435 0.0020566022 0.026816126
0.0149418 0.0024886031 0.031093027 -0.0033041746 -0.025797084 0.030215286 -0.0025212318 -0.015405502
-0.0043577706 -0.007753522 -0.015319032 0.029935343 -0.011138549 -0.00649753 0.0048785205 0.026268786
-0.005964201 0.026846781 -0.032472447 -0.021212146 0.022342073 0.02334954 0.0043677078 0.014264389
0.025113823 -0.017592572 0.02765934 -0.022348167 0.022846818 0.048214443 0.020426923 -0.016991904
0.032546315 0.019303758 -0.019020414 -0.0147620225 0.0025529042 -0.0126003465 0.015082832 0.007186728
-0.0007802843 -0.0013774782 -0.020332374 -0.0084902765

fc2.weight f4 [64, 100]
00000000: e6d1 f23d 2643 adbb d789 30be edde fb3d
00000010: 3f44 273d 2ea1 743e 87bc 1c3e e85e b9bd
00000020: b164 483e c7a6 13bc 1917 c03d f0bb 143e
00000030: b621 84bd 4d42 a43d 4713 533d fa51 f2bc
00000040: 2d3a 793e 5d93 1abe d153 f0ba ccd2 53bd
00000050: e0c8 8f3e 76cc 363e 9a11 fa3d df99 7aba
00000060: 57a4 863d 99f9 513e 3005 c73d 537f de3d
00000070: 2ea6 443e 2b6c a2bc 25a5 63be 128d 4f3e
00000080: bd66 0e3e 5fb3 7f3d 9c2e 47be 9212 9f3e
00000090: ed30 b03e c247 69be 4cee 60be b245 8c3e
000000a0: 0048 3b3e 412c 923e 2890 4abe 2409 b0bc
000000b0: b727 753c 125a 923e 30c0 ebbd 6275 42bd
000000c0: 5299 b23e 260c be3d bcbf cf3b 5bd1 9a3e
000000d0: 027b b0bd f370 9d3e 2043 60be c33c 3f3e
000000e0: 0023 5c3d 23bf a93c 9b9a 163e df18 a23e
000000f0: 502d cf3d ddb5 383e 208f d8bc 75a0 a93d
00000100: c683 88be a5e8 26bd f43b 933e 672a e43d
00000110: 5b26 463e 6220 073e 5ca0 853e a5a0 23be
00000120: a7e9 7a3d a8c2 233e b9cc b3bd 7062 2ebd
00000130: e9b6 363e fb70 33be 3b68 a1bc e13d 153e
00000140: c340 613e d387 543e 9a14 903d 2124 15be
00000150: 571f 2fbd ce66 5fbd 438b 823e bfbc 3fbd
00000160: a979 3c3e 7f7e 913e a07c 9e3e c4e3 633e
00000170: cdf7 70bb 8b63 1c3e aaeb 1e3d 4a59 9d3d
00000180: b1b9 633e 9a1d 5d3e 4097 053e 2132 b4bc
00000190: 10c3 823b ce13 a93d 6163 54bb 88a6 fb3d
000001a0: a7ab b73c 08be 6a3e d663 643d cd29 283d
000001b0: e1f4 403e 525e bcbb 3a98 ba3d e680 873e
000001c0: adda 833c 44e4 afbd f755 c8bd 20bf bebc
000001d0: 3dbf 8f3e df96 c2bd 2bbb 493d 71dd bfbb
000001e0: 66d2 9c3e 5b87 233e 2e63 62bd 53eb 73bd
000001f0: 6702 c9bc 77b4 293e b3bf 17bd 2112 be3d
00000200: b79c 663e 9ef5 8ebd ee00 40be c13c a73e
00000210: a289 5a3e bc5b b83d 6db0 b0bd db9c 453e
00000220: 7ffb a93e cbf0 89bd 2647 39be 515b 5e3e
00000230: db50 273e 7c6b 283e 4515 dcbd 53fd e43c
00000240: 3120 903d 2d9f ed3e 926a 98bc 92e3 113d
00000250: 136b a33e 61ab a83c 2f5b a2bd 4185 e63d
00000260: 32e9 eabd d9c4 273e b0dd 91bd ff02 5c3e
00000270: f5f2 fa3c c122 2cbc a989 1e3e 38dd 0e3e
00000280: 193d 943e 3233 fc3d 7099 bebd 5018 573d
00000290: 880e 6cbe 57f9 c73d 8e47 603e 237f 62bd
000002a0: 3a89 0c3e e499 963d 559f 753e 9d1e b5bc
000002b0: ed98 abbc efa6 643e fba3 ddbc ef5f a73d
000002c0: 64ad b23d 071d 32be 2b39 40bb 68ea 053e
000002d0: 2ac6 4a3e 756f 5d3e dc7e 1c3e c027 4dbe
000002e0: 5e5d 083e c27e c4b9 ad00 1b3e 54b0 bc3d
000002f0: 88ae 5c3e e29a 213e 9176 673e acb5 333e
00000300: ea69 813d 1283 0e3e 8b64 e43b e3ae 853c
00000310: 6326 b43d 7e2d 733e 780c 623e a950 f73c
00000320: 916c db3d 6a65 2e3d 54df 88bd ddc8 803e
00000330: 37ce 273d c309 873e 30e0 b8bc 7a76 773d
00000340: aa1d 543e b1fb 15be 061b cb3c 64d3 593e
00000350: 0d6f 8b3d 9101 38bc 4309 c63d c1d6 8abd
00000360: c049 473e 4eef 0fbe b252 19be 7664 0dbe
00000370: 2492 923e 28d4 0d3e ee9b 0fbd 31f9 c33d
00000380: a5c6 8abd 06d6 673e f709 9abd 6e51 483e
00000390: d04a 863e 9e85 03be 8cb3 35be e2d5 a73e
000003a0: 215d 8b3e b7dc 67bd 31d0 19be fd8c 803e
000003b0: f698 9e3e b27f 16be 53df 63be ab4f 1f3e
000003c0: 8838 253e 1d0d 873e f92b e4bd bb36 c33d
000003d0: caf6 1c3e af67 823e 44fc a1bc 3c6b 9e3b
000003e0: 6aa7 6e3e 4980 183c b348 dfbc 415a 523e
000003f0: fc16 f3bd 9ce7 7d3e c5e7 98be 2e15 903d
0.11856441 -0.0052875457 -0.17240082 0.12298379 0.04083657 0.2388961 0.15306292 -0.09051305
0.1956966 -0.009011931 0.093794055 0.14524817 -0.06451742 0.08020458 0.051532056 -0.029580105
0.24338599 -0.15095277 -0.0018335526 -0.051714703 0.28082943 0.17851433 0.122103885 -0.0009559672
0.06574314 0.2050537 0.09717786 0.10864129 0.19204018 -0.01982697 -0.22230966 0.20268658
0.13906379 0.06242692 -0.19451374 0.31068856 0.34412327 -0.2278128 -0.21965903 0.27396923
0.18289185 0.28549388 -0.19781554 -0.021488734 0.014963082 0.28584343 -0.11511266 -0.047475226
0.348826 0.09279661 0.006339995 0.3023785 -0.08617212 0.30750236 -0.21900606 0.18675523
0.053744316 0.020721024 0.14707415 0.316596 0.101160645 0.18038125 -0.026435435 0.08282558
-0.26663035 -0.04074921 0.28756678 0.111409 0.19350569 0.13195947 0.26098907 -0.1597925
0.061257984 0.15992224 -0.08779282 -0.042574346 0.17843212 -0.17523567 -0.019703021 0.14574386
0.21997361 0.20754938 0.070351794 -0.14564563 -0.042754497 -0.0545414 0.25496873 -0.04681086
0.18405785 0.2841682 0.30954456 0.22254854 -0.0036768795 0.15272348 0.038798966 0.07683046
0.22238804 0.21593323 0.13045979 -0.02199656 0.0039905384 0.082557306 -0.0032407867 0.12287623
0.022420717 0.22924054 0.055759273 0.04105549 0.18843414 -0.0057485485 0.09111066 0.2646553
0.016095484 -0.0858846 -0.097820215 -0.023284495 0.2807559 -0.095014326 0.049250763 -0.0058552553
0.3062927 0.15969603 -0.055270366 -0.059550595 -0.024537278 0.16572748 -0.037048053 0.092808016
0.2252072 -0.069804415 -0.18750355 0.3266354 0.21341565 0.09001872 -0.086274005 0.19298117
0.3319969 -0.06735381 -0.18093547 0.21714522 0.16339438 0.16447252 -0.10746244 0.027952826
0.0703739 0.46410504 -0.018605504 0.03561742 0.3191763 0.020589532 -0.07927548 0.11255885
-0.1147026 0.16383685 -0.07122362 0.21485518 0.030633429 -0.010506333 0.154822 0.13951576
0.28952864 0.12314452 -0.0930661 0.05251342 -0.23052418 0.09764355 0.21902296 -0.05529703
0.13724223 0.07353571 0.23986562 -0.022109324 -0.020946944 0.22329305 -0.027055731 0.08172595
0.08724478 -0.17393886 -0.002933095 0.130777 0.19802156 0.21624549 0.15282768 -0.20034695
0.13316867 -0.00037478475 0.15136977 0.092133194 0.21550953 0.1578174 0.22603823 0.17549771
0.0631903 0.13917187 0.0069699935 0.016318744 0.08796384 0.23747823 0.22075069 0.030189829
0.10714067 0.042577185 -0.066832215 0.25153247 0.040968146 0.26374635 -0.022567838 0.060415722
0.20714441 -0.14646794 0.02479316 0.21272045 0.06808291 -0.011230842 0.09669735 -0.06779242
0.19461727 -0.14056131 -0.14972952 -0.13807854 0.2862712 0.13850462 -0.035060816 0.09569014
-0.0677617 0.22640237 -0.07521432 0.19562313 0.26228952 -0.1284394 -0.17744273 0.32780367
0.2721949 -0.056606974 -0.15020825 0.25107566 0.30976075 -0.1469715 -0.2225316 0.15557735
0.16134846 0.26377192 -0.111411996 0.095319234 0.15328518 0.2546973 -0.01977361 0.0048345607
0.23306051 0.009307929 -0.027256345 0.20542242 -0.11869618 0.24795383 -0.29864326 0.0703529

fc2.bias f4 [64]
00000000: 01e1 5dbc 63b5 6bbb aad9 943d bdf7 e3bd
00000010: d17a 143d ae64 aa3d 8265 043e 1239 2e3d
00000020: 79df 88bd ff61 a8bb cd33 12bb 00fd c53d
00000030: 4bdb 59bd 1865 a5bc b8b7 6cbd 30e2 f9bc
00000040: 83cf 6dbd cfee 38bc 9b44 a53d 2c03 83bd
00000050: 65bb 65bd 2d33 513d 275c a3bd 99e8 d03d
00000060: bae3 41bd 0f2c a63d 8422 ac3d f2cd f0ba
00000070: 8be6 103e d7e6 9abb 10b2 45bd a38e d63a
00000080: 8f1a 863d f5a3 ae3d a128 993d e5b9 873d
00000090: 3b46 3c3d 384c 21bd 564f 163d 66dc 733d
000000a0: 8a00 d33d c4c1 f63d e7c8 a9bd 3169 c53b
000000b0: cfbc 56bc 07cc e13b 6580 b93c d32a a83d
000000c0: 41c7 4bbd da5a 1b3e 60e6 abbc a6de a7bc
000000d0: 8f31 86bd 8357 88bc f660 cc3c ca2b 243b
000000e0: 9ecb f8bc 894e 433d 2d7f 653d 52f4 ad3d
000000f0: e2dd 573d 23ed debb 8006 e33d 539e b03d
-0.013542415 -0.003596627 0.072680786 -0.11131237 0.03624994 0.083199844 0.12929347 0.042534895
-0.06683249 -0.005138635 -0.0022308708 0.096673965 -0.05318765 -0.020189807 -0.057792395 -0.030503362
-0.058059227 -0.011287405 0.08069726 -0.06397089 -0.056086916 0.051074196 -0.07976561 0.102006145
-0.047336318 0.08113872 0.08405021 -0.0018371923 0.14150445 -0.0047272253 -0.048265517 0.0016369413
0.065480344 0.08527366 0.074784525 0.066272534 0.045965414 -0.03937933 0.036696754 0.05953636
0.10302837 0.120486766 -0.08290272 0.0060245027 -0.013106539 0.006890777 0.022644231 0.08211293
-0.04975057 0.15171376 -0.020983875 -0.02049191 -0.06552421 -0.016643291 0.024948578 0.0025050514
-0.03037053 0.04768232 0.056029487 0.08493866 0.05270184 -0.0068031712 0.11085224 0.08623948

fc3.weight f4 [32, 64]
00000000: cc0f bcbc d806 a73c c3f5 223d 3b72 873d
00000010: 2c07 0bbe 37ba 173e ca62 cf3d 5288 4b3d
00000020: ef97 143e 6929 85bd 788e adbc 143f bebd
00000030: 29a5 a23b 2a26 3fbe 3ad3 d0bd 171b 613d
00000040: e434 1abe 71e8 073e 0ae5 083e d0c7 abbc
00000050: ad8a 773d 9c5e 86bd 76df b73d 6b1e 14bd
00000060: 64ce f3bd d25e 32be fdd8 4d3d 2973 b9bc
00000070: 263f 243e cb41 35bd d175 413e 5145 e9bd
00000080: c2a7 373e 2973 283e d7e3 7f3d 3f84 2b3e
00000090: 1aa2 2b3d 3d0e 0ebe c435 20bc d547 233d
000000a0: ae9d 523d b9a8 4e3d f9d8 6abc b8bf 5ebd
000000b0: 4a9e fdbd a005 623e 3be1 a73d 8938 2e3e
000000c0: d8bb 853d 8786 cfbd bac8 893c cf25 bfbd
000000d0: b086 c73d 052d 6c3e 60e9 aa3d 28bc 9b3d
000000e0: 8e52 10bd 96b9 33be b361 133e d666 113d
000000f0: c7b8 5abb 8b1c 263e 8540 5c3e 4b36 dd3d
00000100: 0a53 d03d 7039 fbbc f077 2a3c 56d7 a9bd
00000110: 10d4 febd befb f33d 4c23 d4bd 0c9a 85bd
00000120: 9eb1 b63d 38e1 9abc b4a5 b4bd fa59 9dbd
00000130: 3cae 383d 98f9 873c e094 803d 24da 8c3d
00000140: 9486 35bd 4094 b6bc 0062 ee3b 58d9 c23d
00000150: f037 5cbc e00f aabb 528b eabd 506f 493c
00000160: 94ab f8bd b496 a63d 6000 b93b dec3 e83d
00000170: 189a 66bd 3a5d 97bd c074 743b 58ec f93c
00000180: 965c f5bd 94c0 55bd 7646 c13d c843 bebd
00000190: 78a5 df3d e637 e73d 5a20 c73d 0068 2bbb
000001a0: c040 7c3d 126f a9bd dea2 d0bd 60e9 b73b
000001b0: 2044 61bd 6ee7 e4bd b8ec ab3c 70ef cf3c
000001c0: e08d b7bd 0470 51bd 1c10 29bd b01c adbc
000001d0: 4291 aabd 90f4 60bc 500d adbd 9ab9 c7bd
000001e0: 8ccc a23d 4c58 3f3d e034 bb3c b8ea 59bd
000001f0: 6cfc aabd 402e e0bd 62a5 883d ec72 b73d
00000200: 4fa5 babb 204d 18be 6791 d3bd 847c c4bc
00000210: 65cd 01bc a062 333e f3a1 f03d 63ee 253e
00000220: 9007 ba3c c19d 1d3e b3b6 12bc 79cd a5bd
00000230: 033c 3c3e 8bde 4abe 0723 10be f8e6 8a3e
00000240: 2dd4 60be aa05 323e d06e 2f3e 30b1 da3d
00000250: a5e4 0cbe d97c 5bbd 24bc 78bd cc85 063d
00000260: 6499 17bc 32e8 3bbe 49a7 69bd e181 90bd
00000270: f16e 81bd 64ae cd3c f109 d63b 2d44 26bc
00000280: 316c 2b3e 474f 3d3e e8b1 a93d e479 9b3d
00000290: 35ed b13d bcd0 a5bd 5aa3 b1bd d891 403e
000002a0: 0305 45be 1564 743e 4e96 0cbe 9ffb acbd
000002b0: 9443 e5bd 2acc 023e 9afb 453d dc72 d03d
000002c0: 3997 083e e88a 33bd 1f49 a2bd fab5 3a3d
000002d0: 1cac be3d 202d 0e3e 319f fd3d 2363 623e
000002e0: 9d3a 073d 30c2 d0bd dafd 6c3d 3947 b5bc
000002f0: 4b48 613e aadc dc3d c010 ba3d a2f0 2d3d
00000300: 441e eebd 953c 82bb 640d fabc 7143 44bd
00000310: b186 2b3d fc99 b83d c706 60bd d925 413e
00000320: c131 503e f443 713d e017 b4bd 319a 513d
00000330: 9ce0 823e 6d56 3abe 2836 243b 343e 9f3d
00000340: 0471 21bd ae45 683e 6108 5c3d 80ca eb3c
00000350: f0a4 e5bd f7e5 65bd af21 35bd 7a6a 053e
00000360: ccda 4b3d 77e6 3ebe ca8b fdbd 101c 86bd
00000370: 69e8 853d d42b e2bd 2049 2e3d bd25 a6bc
00000380: 9f0e 833e 4253 833e 1c54 473e f416 b83d
00000390: 3871 f23a c9dd 7abc d0e7 8abd 4d92 bd3d
000003a0: 0d95 bbbd 7d2e 433e ea33 423c 2276 52be
000003b0: f584 aebd 63cc 333d 6169 1dbd 9404 1ebc
000003c0: ea7b 233e ae93 53bd b136 1abe 87cf bd3d
000003d0: 85d3 493d 3cc1 653e 67a2 363d ef92 2b3e
000003e0: 118b b13d 49b3 99bd 1219 4c3e 7f32 04be
000003f0: e846 453e 43c5 4e3d 6cbc ed3d 90c4 cb3d
-0.022956751 0.020389006 0.039785158 0.066135846 -0.13576955 0.14817129 0.101262644 0.049690552
0.14511083 -0.06502039 -0.021186098 -0.09289375 0.0049635363 -0.18666902 -0.10196538 0.054957476
-0.15059239 0.13272263 0.13368621 -0.020969301 0.060434986 -0.06561014 0.08978169 -0.03616182
-0.119046 -0.17418984 0.050255764 -0.02263792 0.16039714 -0.0442522 0.188926 -0.11390174
0.17935088 0.1645018 0.062473144 0.16749667 0.04190264 -0.13872619 -0.009778444 0.039863426
0.051419906 0.050453875 -0.014333957 -0.054382056 -0.12383707 0.22072458 0.08197256 0.17013754
0.06529969 -0.10133081 0.016819347 -0.09333383 0.097424865 0.23064049 0.08345294 0.07604247
-0.03523498 -0.17551264 0.14392738 0.035498463 -0.0033374296 0.16221826 0.21508987 0.10801371
0.101720884 -0.030667037 0.010404572 -0.08293025 -0.124427915 0.119132504 -0.10358295 -0.06523523
0.089205965 -0.01890622 -0.08820668 -0.07683177 0.045088038 0.016598508 0.06278396 0.068775445
-0.044317797 -0.022287488 0.007274866 0.09514111 -0.013441071 -0.0051898807 -0.114523545 0.012294605
-0.12142101 0.08134213 0.0056457967 0.11365484 -0.0562993 -0.073908284 0.0037301034 0.030508205
-0.1198055 -0.05218561 0.094372675 -0.09290272 0.109202325 0.11289959 0.097229674 -0.0026154518
0.061585188 -0.08273138 -0.101873145 0.0056125373 -0.05499661 -0.11176954 0.0209869 0.025382727
-0.089626074 -0.051132217 -0.04127513 -0.021131843 -0.08328487 -0.013730183 -0.08449805 -0.097521976
0.079491705 0.046715066 0.022852361 -0.05320236 -0.08348927 -0.109463215 0.06672169 0.089574665
-0.005695976 -0.14873171 -0.10330468 -0.023985155 -0.007922505 0.17518091 0.11749639 0.16204219
0.022708684 0.1539221 -0.008954692 -0.080958314 0.18382268 -0.19811456 -0.14075862 0.2712934
-0.21955939 0.17384973 0.17132115 0.10678327 -0.13759096 -0.05358586 -0.0607263 0.032842442
-0.00925288 -0.18350294 -0.0570443 -0.070560224 -0.063199885 0.02510757 0.006531947 -0.01014809
0.1674049 0.18487273 0.08285886 0.07591608 0.08687822 -0.080964535 -0.08673735 0.18805635
-0.19240193 0.23866303 -0.13729212 -0.084464304 -0.1119453 0.12773195 0.04833565 0.10178158
0.13338937 -0.043833643 -0.07924103 0.045583703 0.09310171 0.13884401 0.12383879 0.2210813
0.033014882 -0.10193288 0.05785928 -0.022128688 0.22000234 0.10784276 0.09085226 0.042465813
-0.116268665 -0.003974507 -0.030523963 -0.04791588 0.0418765 0.09013745 -0.054693963 0.18862094
0.2033148 0.058902696 -0.08793616 0.05117244 0.25561988 -0.18197031 0.0025056694 0.07775536
-0.03941442 0.2268283 0.05371893 0.028783083 -0.112131 -0.056127515 -0.044221576 0.13028899
0.049769208 -0.18642603 -0.12380178 -0.06548321 0.06538469 -0.11043516 0.042550206 -0.020281667
0.25597093 0.25649458 0.19465679 0.08988753 0.0018496877 -0.015311667 -0.06782496 0.0925642
-0.091592886 0.19060703 0.011853198 -0.20552877 -0.08521453 0.04389609 -0.038430575 -0.009644646
0.15965238 -0.05165451 -0.15059926 0.09268098 0.049273986 0.22436994 0.044588473 0.1675527
0.08669103 -0.07504899 0.19931439 -0.12909888 0.1926533 0.050481092 0.11608204 0.09949601

fc3.bias f4 [32]
00000000: a21c 2abd 46aa 83bd 8fed 453d 6057 d1bc
00000010: 0b98 b93c eaea bebd 07a9 233d 72b4 783d
00000020: bda0 0c3e 1168 ae3d d403 bd3d 6817 94bd
00000030: 003e df3d 20f1 05bd 6a13 4a3d ef57 283d
00000040: ca85 4a39 3212 1a3c 9801 14bd b80b 4b3c
00000050: eaad 65bd 5fff 3ebd 3573 fe3d 4ba9 c3bd
00000060: c442 2fbd 997e 383d b2f0 14bd 8a08 9d3d
00000070: 39f4 973d cd56 b7bd 0430 eabb d89d 153d
-0.041531213 -0.064289615 0.048322257 -0.025554359 0.022655508 -0.0932215 0.03995612 0.06071896
0.13733192 0.08515943 0.09229246 -0.07231027 0.109004974 -0.032700658 0.04933492 0.041099485
0.00019314062 0.009403752 -0.036134332 0.012392931 -0.05607406 -0.04663026 0.12424318 -0.095537744
-0.042788282 0.045042608 -0.036362357 0.07667644 0.07419629 -0.08952103 -0.007146837 0.036527485

fc4.weight f4 [2, 32]
00000000: a41a c3be 62be edbd 1b03 2abe 4a5e 57be
00000010: 228b a0be cc1e 2a3d ef89 e03e b89e 823e
00000020: f704 c8be 72e4 f23e d937 6b3e 1902 e33e
00000030: eaaa 9c3e fd3b 563e b621 bebe 14f7 d5be
00000040: cd98 d4be 70f9 ebbe ac28 01bf a5b6 e4be
00000050: 7325 4cbd 5daa f33d 78d8 8bbe 21be febd
00000060: bb07 ea3d 7cfa e73e c2ef c9be 8fc3 bcbe
00000070: e438 87be fd24 a63e 84fb a6be 36ef c0be
00000080: d266 873e 7097 d3bd 358f e53e c629 cf3e
00000090: a5f2 de3e 5863 183d 8f88 8dbe 0f5e c1be
000000a0: a93b 893e d12b b9be 91e5 f3be 88f0 ccbe
000000b0: cc7a bfbe d6c6 f0be a8a0 803e 9811 b63e
000000c0: aded d33e c2d0 b13e 7710 fe3e 031c 893e
000000d0: 7337 babd 94e9 17be 7842 a63e ca8a 7a3e
000000e0: 0424 a7bd 22f1 76be af70 b13e 43e5 ee3e
000000f0: 45f5 973e ea85 39be 3005 6c3d 1fce d13e
-0.38106263 -0.11608578 -0.16602747 -0.21032062 -0.3135615 0.041533276 0.43855235 0.25511718
-0.39066288 0.47439915 0.22970523 0.44337538 0.30599147 0.20921321 -0.37135094 -0.41790068
-0.41522828 -0.46088743 -0.50452685 -0.44670597 -0.0498404 0.118977286 -0.2731359 -0.12438608
0.11427256 0.45308292 -0.39440733 -0.3686795 -0.26410592 0.32450095 -0.32613766 -0.37682503
0.26445633 -0.10331619 0.4483582 0.40461558 0.43544498 0.037204117 -0.27643248 -0.37767074
0.2680333 -0.36166242 -0.47636083 -0.4002726 -0.37398374 -0.470267 0.2512257 0.35560298
0.4139227 0.34729582 0.49621937 0.26779184 -0.09092607 -0.14835197 0.32472587 0.24467006
-0.08161166 -0.24115422 0.34656283 0.46659288 0.29679313 -0.1811749 0.057622135 0.4097757

fc4.bias f4 [2]
00000000: e67a a03d 71c9 2b3d
0.07835941 0.041940156
