checkpoint/model-fold-4.pt (torch, 446799 bytes, 8 tensors)

fc1.weight f4 [100, 1024]
000000 3a da 1e 3d 8e 83 8d 3d d4 33 29 bc 3a 74 37 bc
       0.038782336 0.06909858 -0.010327298 -0.011197144
000010 0e 8c 29 3d 4b 0c 9f 3c fd 3f 1b bd b9 f1 84 bd
       0.041393332 0.019415041 -0.03790282 -0.064914174
000020 d4 91 fc bc a7 de 97 bd ac 89 f2 3c 6a 79 28 bc
       -0.030831255 -0.074155144 0.029606663 -0.010282854
000030 c9 b5 50 3d 4f 4a 38 3c cf 4c 3f bd 0b 04 de 3c
       0.050954614 0.011248185 -0.04670411 0.027101537
000040 fe 89 1f bd 89 89 0a 3d 8c 6b f5 3c 89 a1 e5 3b
       -0.03894996 0.03382257 0.029958509 0.007007782
000050 5b 32 cf bc a7 16 76 3c 42 63 eb 3c 0d 6b 75 3c
       -0.025292566 0.015020049 0.028733853 0.014979136
000060 b2 dc c0 bd be 84 01 bb be 3e d1 bc 0c d5 43 3d
       -0.09417094 -0.0019762958 -0.025542613 0.0478106
000070 cf 66 c1 3c a8 95 86 bd f5 e6 b3 bd 64 c9 11 bc
       0.023608593 -0.065715134 -0.08784286 -0.008898113
000080 8b c7 ce bb 34 59 19 bc f7 5b 28 3d 16 0e 74 3c
       -0.0063104085 -0.009359647 0.04110333 0.0148959365
000090 d7 c7 c5 3a 78 5d 23 bd 04 4f b6 bb c8 3c bc bc
       0.0015089464 -0.03988406 -0.0055636186 -0.022978202
0000a0 6f c5 11 3d 74 a0 8e 3c 8a 10 49 3d ae aa 9e 3c
       0.035588678 0.017410494 0.04908804 0.019368496
0000b0 5e 75 ad bc 0a dc 30 bd 0c 2e 48 3d 2a b5 bf 3c
       -0.02117413 -0.043178596 0.04887204 0.023401815
0000c0 97 54 42 3d 52 2d d9 3c 82 af 9e bd b8 0b 30 bc
       0.047443952 0.026510868 -0.07748319 -0.0107449815
0000d0 52 f1 55 bc 9b cf 69 bd 36 ed a4 bb b7 55 da bc
       -0.0130580235 -0.057082754 -0.0050331606 -0.0266522
0000e0 ce fa 09 3c 9d fe 2c 3b ce 71 e3 3b b0 e3 00 3d
       0.008421613 0.0026396879 0.006941057 0.03146714
0000f0 88 eb 36 bc 30 86 fb bc b1 dc 00 3d 2d 71 54 3c
       -0.011164553 -0.030703634 0.031460468 0.012966436
000100 6d df dd 3c 73 da be 3c ed 98 06 3d c4 d7 9c bb
       0.027084077 0.023297524 0.032860685 -0.0047864635
000110 b7 5a 87 bc 02 af c6 bc 3a 9b 60 bd 23 08 23 3d
       -0.016522748 -0.024253372 -0.054835536 0.03980268
000120 ba 62 df bb 80 dc 7e bd d5 44 80 bc d4 61 55 bd
       -0.006817189 -0.062222004 -0.015657822 -0.05209525
000130 42 dd 40 bd fd 9a 3e 3c 69 e3 d0 3c 3d 01 17 3d
       -0.047086008 0.011633632 0.025499063 0.036866415
000140 f6 c6 49 bd ef c9 91 bc 25 55 8e 3d f1 8a d0 bd
       -0.04926201 -0.017796485 0.06949834 -0.10182751
000150 76 9d f0 3c c6 51 9c bc 90 de c5 bc e6 c4 13 bd
       0.029371958 -0.019081961 -0.024153978 -0.03607645
000160 a4 53 18 3c ff 6f 8f ba f8 10 25 3d 28 22 3f bc
       0.009297285 -0.0010943412 0.040299386 -0.011665858
000170 d6 c7 7a bd c1 7c 89 bc e3 21 48 bd ae 06 1d bd
       -0.061225735 -0.01678312 -0.048860442 -0.03833645
000180 5a d3 a5 3d 64 88 36 bc 2e d3 94 3c 22 b9 08 bd
       0.08096953 -0.0111409165 0.018167105 -0.03337968
000190 d2 42 e9 3c 7a 9c 36 bd 34 17 ac bc 43 8f 87 3c
       0.028474245 -0.04458282 -0.021007158 0.016547805
0001a0 cf f3 ca 3c 9e e7 60 bd e0 f3 a3 bc 8a fc 18 bd
       0.02477446 -0.054908387 -0.02001375 -0.037350215
0001b0 4e e8 44 bd 81 b3 fc 3b 14 21 c2 3d 4c 0b d2 bb
       -0.048073106 0.007711828 0.094789654 -0.006410038
0001c0 90 ed 81 3d ce e0 e8 3c 4d 0a b6 bb 6b 1e a0 bd
       0.063441396 0.028427508 -0.005555427 -0.07818302
0001d0 36 f1 df ba 31 a8 03 bd 11 0c 1f bd 72 c1 21 bd
       -0.0017085436 -0.03214282 -0.038829867 -0.039491124
0001e0 53 58 4e 3d c8 dc 0e 3d 08 bf fc bc ba db 93 bc
       0.0503772 0.034878522 -0.03085281 -0.01804911
0001f0 36 29 1f ba c3 d6 1b bd 71 39 a2 bc fe bf 92 bc
       -0.00060715096 -0.03804661 -0.01980278 -0.017913815
000200 06 cf 80 bd b1 f3 93 bc b3 7b 47 bc ab ec 49 3d
       -0.062894866 -0.018060537 -0.012175488 0.04929797
000210 7b dc 42 bd 53 cb f1 3c 36 05 45 3d 03 98 21 3d
       -0.047573548 0.029515898 0.048100673 0.03945161
000220 a1 60 83 3c d4 0e de bc 2e ac 9b 3d ad 41 c0 3c
       0.016037287 -0.02710668 0.076012 0.023468817
000230 e1 e7 59 bc 5d 48 e5 bc bf c7 c8 3c 49 30 6a bd
       -0.013299913 -0.027988607 0.024509309 -0.057174955
000240 b1 b1 d1 3c 11 97 2e 3d 1b 8e 8d bc 46 8a 72 3d
       0.025597425 0.042624537 -0.017279675 0.0592139
000250 2b 11 66 b9 f9 6e c8 bd da eb 45 3c 69 f8 bc bc
       -0.00021940905 -0.09786791 0.012080157 -0.02306767
000260 05 da f0 bb cd 7d 95 bd 67 e9 82 bc 03 13 84 bd
       -0.0073502087 -0.07299385 -0.015980436 -0.06448939
000270 e3 64 6e 3d a9 b8 4e 3c c4 08 a1 3b d1 28 6a 3a
       0.05820168 0.012617269 0.004914375 0.0008932474
000280 10 d4 61 bd 4d fc 1a 3d ea 1a 95 3c 95 49 1f bd
       -0.05513388 0.03783827 0.01820131 -0.038888533
000290 c9 a0 16 3d 7c 07 18 3d c5 96 ac bd 3b 52 f5 3c
       0.03677443 0.037116513 -0.084271945 0.029946437
0002a0 67 ca da bc 8a ab 01 bd 0e 08 0f bd 38 df b4 3b
       -0.026707841 -0.031657733 -0.03491979 0.005519774
0002b0 b5 cf 33 bb 5c a9 07 3c ea f2 3d bd a9 80 43 bc
       -0.0027437035 0.0082801245 -0.04637424 -0.01193253
0002c0 54 b2 6b bd 48 39 0a bd 20 0b b2 bc 7d 45 58 3c
       -0.057543114 -0.033746034 -0.02173382 0.013200161
0002d0 4c aa 45 3d c9 46 07 3b 58 fa 6a bd 1d 75 16 bd
       0.04825811 0.0020641556 -0.057367653 -0.03673278
0002e0 52 e7 62 3c a8 a1 c7 3c 0d 8d 98 bc 74 5d 25 bc
       0.013849096 0.024369076 -0.018621946 -0.010093082
0002f0 f7 eb 79 3d 42 d1 c1 3c 0e 80 aa 3d 0d f2 f2 bd
       0.06101605 0.023659352 0.08325206 -0.11862574
000300 46 c1 73 bc ab ce 3a 3d d9 fc 2a 3d 66 a3 f3 3c
       -0.014877623 0.04560725 0.04174504 0.029741
000310 db c0 58 3d d0 b4 bd bb 98 84 81 bd 78 cf f6 3c
       0.052918296 -0.005789377 -0.063241184 0.030128226
000320 3c 42 eb bc 9d 5d bb bb 4c 76 a3 bb a3 f2 85 bd
       -0.028718106 -0.0057179467 -0.0049884673 -0.0654042
000330 70 f4 b4 3c 7c ca 83 3c bf 6c 98 3c c9 ad c2 ba
       0.022089213 0.016087763 0.018606542 -0.0014852817
000340 01 71 0d bd 1b 38 b3 3c 05 92 eb 3b 68 f4 18 3d
       -0.034531597 0.02187734 0.0071890377 0.03734246
000350 89 66 96 bd d0 21 05 bd d9 0f ba bc 83 d7 cc 3b
       -0.07343776 -0.03250295 -0.022712635 0.006251277
000360 84 c1 34 3d e0 f8 6f 3c cf f0 97 bd bc cd 3e bd
       0.044129863 0.014646739 -0.074189775 -0.046582922
000370 86 4c 5b 3c 4f 90 1e bd bb da 2b 3d fa ab 65 3c
       0.013384944 -0.038711842 0.041956645 0.014018053
000380 ab cb 1f bd 9c e7 3c 3d a3 30 12 3d fb 42 75 3d
       -0.039012592 0.046119317 0.035690915 0.05987833
000390 e7 11 97 bd 04 3c 99 3d 2e 1f 9e 3c 8c c2 ac bc
       -0.073764615 0.0748215 0.019301977 -0.02108886
0003a0 24 99 a9 bc 1d a9 73 bc 61 ca 16 3c e3 39 e8 3c
       -0.020702906 -0.014871863 0.009203524 0.028347915
0003b0 1d 3f ed bc 16 35 a8 bd b9 21 d8 bc d7 bd b8 3d
       -0.028960759 -0.0821325 -0.026383268 0.09020584
0003c0 41 b7 38 bc 04 f4 23 bd 33 2e 18 bd b0 8c 01 bc
       -0.01127416 -0.040027633 -0.037153434 -0.007907078
0003d0 ee db 0d 3c d9 9e 40 3d 85 b1 08 bd fc 68 b9 3c
       0.008658392 0.04702649 -0.03337242 0.022633068
0003e0 55 bb d5 3c 21 4c 08 bd 6c 77 91 3d 0d 1d a7 bc
       0.026090303 -0.033275727 0.07102856 -0.020399595
0003f0 2b 45 53 3c ac 4c cd bb 30 41 66 3c 9c 13 6a bd
       0.012894909 -0.0062652435 0.014053628 -0.057147607

fc1.bias f4 [100]
000000 16 62 ed 3c b0 af a4 3c 1e e1 96 bb 99 11 a8 bc
       0.028977435 0.020103306 -0.004604473 -0.020516204
000010 62 bf e5 3b 62 b2 cc 3c fb 9b a4 3b f8 9d 40 bc
       0.00701134 0.024987403 0.005023477 -0.011756413
000020 64 b2 a7 3b e9 36 31 3b 60 5b 31 3d 7b 12 de 3c
       0.0051177014 0.0027040786 0.043300033 0.027108422
000030 25 d1 47 3c 5d 62 3b bc 78 d9 86 bc 9a ad fb bb
       0.01219586 -0.011437026 -0.016461119 -0.007680607
000040 c1 79 6d bc 94 7b ee 37 6f b1 e6 bc f0 d2 8a bc
       -0.01449436 2.8429356e-05 -0.028160779 -0.016946286
000050 90 30 f4 3c 81 bf 86 bc 19 d9 33 3d e5 1b 7b 3c
       0.029808313 -0.016448738 0.043908212 0.015326475
000060 c1 e6 38 bc 19 fd 1d 3d 06 91 c4 bc 56 1b 8b 3c
       -0.011285485 0.03857145 -0.023994934 0.016980808
000070 ec 01 7e 3c 4f 3c 71 3c f1 fe 82 bc 94 db 12 3d
       0.015503388 0.014723851 -0.015990706 0.035853937
000080 a7 0d 09 3d 57 15 90 3c 4e 3b c9 bc bc 92 e7 bc
       0.033460286 0.0175883 -0.024564411 -0.02826821
000090 99 f0 20 3c c7 cc 10 3c e1 19 ef bc 7c 33 98 3c
       0.009822988 0.008837885 -0.029187145 0.018579237
0000a0 22 76 74 3c a4 33 a8 3c 84 0d d5 bc 70 be cc 3b
       0.014920743 0.020532437 -0.026007421 0.006248288
0000b0 30 98 c8 3c bc 19 62 bc d6 52 4e 3b ea d6 02 3d
       0.024486631 -0.013800081 0.003148248 0.03194324
0000c0 cf ef 43 bc fe b6 7a 3d 86 da 8f bc 5f 7d 7e bc
       -0.01195903 0.06120967 -0.017560255 -0.0155328205
0000d0 35 09 07 3d ce db ae bc 42 c4 fb 3a df be dc 3c
       0.032967765 -0.021345045 0.001920827 0.026946483
0000e0 66 21 89 3c b6 1b 43 3b 0d 6f 01 3d 1c 20 4e bb
       0.016739558 0.0029771156 0.031600047 -0.0031452244
0000f0 4b 8e d0 bc 44 bb fa 3c 40 3b 25 bb 5c 67 7c bc
       -0.025458476 0.030606873 -0.0025212318 -0.015405502
000100 a3 dc 9a bb cb 0c d3 bb 05 2b 77 bc 31 cf 00 3d
       -0.004726009 -0.006440734 -0.01508594 0.031447593
000110 17 5d 35 bc a5 48 ca bb 27 1d b0 3b 44 df d2 3c
       -0.011069558 -0.0061732107 0.005374569 0.025741227
000120 58 6f c3 bb 5b a9 dd 3c aa 33 01 bd 18 c5 ad bc
       -0.005964201 0.027058294 -0.03154341 -0.021212146
000130 92 6f b8 3c 23 e1 c2 3c 39 57 d8 3b f1 ba 69 3c
       0.022514138 0.023788994 0.0066021946 0.014265762
000140 76 1a cf 3c 84 db 8a bc 07 53 e9 3c 52 34 b3 bc
       0.025281172 -0.016950376 0.028481973 -0.021875534
000150 7e 1a cc 3c 4e 70 4e 3d 01 e3 a5 3c dd 1c 86 bc
       0.024914976 0.05040007 0.020249845 -0.016371185
000160 80 0d 07 3d e9 3a 92 3c 85 a4 9d bc 26 1d 73 bc
       0.03297186 0.017850356 -0.019243488 -0.0148384925
000170 a0 4e 27 3b 92 6c 48 bc fc 1d 77 3c 17 aa 04 3c
       0.0025529042 -0.012232916 0.015082832 0.008097193
000180 60 ce 5b 39 a4 a4 be ba 68 50 a5 bc ef 4f 05 bc
       0.00020962348 -0.0014544916 -0.020179942 -0.008136733

fc2.weight f4 [64, 100]
000000 81 5d f1 3d 63 3b 6f bb 10 bf 2b be 1a ee d7 3d
       0.117854126 -0.0036503903 -0.16772103 0.10543461
000010 21 63 28 3d 96 12 68 3e 44 55 19 3e e8 5e b9 bd
       0.04111016 0.2266334 0.14973933 -0.09051305
000020 f4 1d 45 3e 80 de a7 ba 69 cf c1 3d 6e 1b 0a 3e
       0.19249707 -0.0012807399 0.094633885 0.13487026
000030 b6 21 84 bd 4d 42 a4 3d 47 13 53 3d fa 51 f2 bc
       -0.06451742 0.08020458 0.051532056 -0.029580105
000040 b1 09 7e 3e 63 e4 14 be b3 38 c5 39 51 8b 47 bd
       0.24808384 -0.14540248 0.00037617012 -0.048716847
000050 16 06 8c 3e fb 1f 28 3e cc af fb 3d df 99 7a ba
       0.27348393 0.1641845 0.1228939 -0.0009559672
000060 57 a4 86 3d 40 0f 4e 3e 30 05 c7 3d 88 91 d2 3d
       0.06574314 0.20123005 0.09717786 0.10281664
000070 d4 36 42 3e 18 10 31 bc 51 60 59 be ea f7 45 3e
       0.18966228 -0.01080706 -0.21228148 0.19332853
000080 d3 48 07 3e 30 dc 7a 3d f0 9f 3f be 52 2e 9a 3e
       0.13211374 0.061245143 -0.18713355 0.30113465
000090 bd ed a6 3e 3e 03 5f be 4c 67 51 be 2c 25 88 3e
       0.32603255 -0.2177858 -0.20449561 0.2659086
0000a0 78 d5 35 3e c7 22 8e 3e d5 6f 4b be 24 09 b0 bc
       0.17757213 0.27760908 -0.1986688 -0.021488734
0000b0 7e 04 5b 3c 3a bd 81 3e 1a 57 e7 bd ef 6c 41 bd
       0.01336777 0.2533968 -0.1129591 -0.047223028
0000c0 bf 2f a3 3e 33 c6 be 3d bc bf cf 3b a3 7b 97 3e
       0.31872365 0.09315147 0.006339995 0.29586515
0000d0 a2 02 a1 bd cc 1c 98 3e 96 e7 4e be cc 5c 3b 3e
       -0.0786183 0.2970947 -0.2020553 0.18297118
0000e0 03 ff 56 3d 93 4a b8 3c 24 1f 08 3e 51 c1 98 3e
       0.052489292 0.022496497 0.13293129 0.2983499
0000f0 47 2d bd 3d 69 d3 34 3e 20 8f d8 bc 75 a0 a9 3d
       0.092371516 0.17658772 -0.026435435 0.08282558
000100 7b 97 7c be 86 9c 2a bd 1e 86 8d 3e 27 97 e3 3d
       -0.2466716 -0.04165318 0.27641386 0.111128144
000110 91 af 3a 3e ef 66 02 3e 20 70 70 3e 85 23 16 be
       0.18231036 0.12734579 0.23480272 -0.14661987
000120 a7 e9 7a 3d 2d ec 15 3e eb 84 a4 bd 70 62 2e bd
       0.061257984 0.14640875 -0.080331646 -0.042574346
000130 aa be 25 3e 45 ef 20 be 96 a6 ad bc 4a 04 f9 3d
       0.16186014 -0.15716274 -0.021197598 0.12159021
000140 33 35 51 3e 0c d0 4f 3e 10 df 75 3d 6e 1b 10 be
       0.2043045 0.20294207 0.060027182 -0.14072964
000150 b3 6c 31 bd 7c c2 65 bd c4 b3 77 3e c3 22 38 bd
       -0.043316554 -0.056093678 0.24189669 -0.044955026
000160 52 7a 38 3e 53 83 8f 3e 28 65 9a 3e a7 cb 5d 3e
       0.18015411 0.2802988 0.301553 0.21659718
000170 cd f7 70 bb 90 c1 1b 3e aa eb 1e 3d f2 ff 9c 3d
       -0.0036768795 0.15210557 0.038798966 0.07666005
000180 ec db 5f 3e c7 9f 4b 3e ed 7a 00 3e 00 77 a0 bc
       0.21861237 0.19885169 0.12546892 -0.019587994
000190 36 fb 4d 3b b5 7c ac 3d 44 84 c1 3a 3d 81 d7 3d
       0.003143025 0.084222235 0.001476415 0.10522697
0001a0 40 4a ba 3c 40 e7 5d 3e 71 8c 56 3d cd 29 28 3d
       0.022740483 0.21670246 0.05238003 0.04105549
0001b0 1e 87 3d 3e 5d 39 e1 3a 0e 3b bc 3d 6b 2a 82 3e
       0.18508574 0.0017183233 0.09190951 0.25422987
0001c0 ad da 83 3c 44 e4 af bd f7 55 c8 bd 20 bf be bc
       0.016095484 -0.0858846 -0.097820215 -0.023284495
0001d0 ad f9 91 3e d6 a9 b7 bd 91 c9 53 3d 24 e7 2e bb
       0.285108 -0.089679405 0.0517059 -0.0026688064
0001e0 b2 f9 98 3e c5 5a 14 3e ad 73 5f bd 53 eb 73 bd
       0.29878002 0.14487751 -0.054553676 -0.059550595
0001f0 67 02 c9 bc 99 65 25 3e b3 bf 17 bd 5e ac b1 3d
       -0.024537278 0.16152038 -0.037048053 0.086754546
000200 77 bc 63 3e 9f 32 78 bd ae f3 35 be 7a 33 a2 3e
       0.22239862 -0.06059515 -0.17768738 0.31679899
000210 54 ff 52 3e 3e b7 b5 3d ab 59 a2 bd 14 a4 3b 3e
       0.20605212 0.08872841 -0.07927259 0.1832431
000220 93 a3 a0 3e 6f db 6b bd aa 6f 29 be 49 42 56 3e
       0.31374797 -0.057582315 -0.16546503 0.20923723
000230 70 c9 21 3e e5 c8 1f 3e a0 b1 dd bd 53 fd e4 3c
       0.15799499 0.15603979 -0.10824895 0.027952826
000240 8a 76 8d 3d b7 d0 dc 3e b1 9d 85 bc ef c3 12 3d
       0.06907375 0.43127987 -0.016310545 0.035831388
000250 21 a6 93 3e 3a 67 ab 3c 2f 5b a2 bd d6 99 d8 3d
       0.28837684 0.020923246 -0.07927548 0.10576217
000260 f6 dd db bd 31 17 1d 3e 78 a7 5f bd d1 fa 57 3e
       -0.10735695 0.15340878 -0.05460307 0.21091773
000270 6f af f0 3c 8c 18 10 bc 9c ee 0f 3e 76 22 f7 3d
       0.029380528 -0.008794915 0.14055866 0.1206712
000280 9d ba 8f 3e 44 f4 f4 3d 70 99 be bd 50 18 57 3d
       0.28072062 0.119606525 -0.0930661 0.05251342
000290 70 cd 57 be b8 1f c6 3d 17 83 54 3e 94 e3 63 bd
       -0.21074462 0.096740186 0.20753132 -0.055636957
0002a0 de d1 00 3e 49 59 8c 3d b1 f2 5a 3e 29 34 18 bc
       0.12580058 0.06852967 0.21381642 -0.00928978
0002b0 ed 98 ab bc 20 68 56 3e 73 cf 9f bc ef 5f a7 3d
       -0.020946944 0.20938158 -0.0195081 0.08172595
0002c0 59 53 90 3d 88 a0 1f be e5 86 90 bb 16 b0 d9 3d
       0.07047147 -0.15588582 -0.004410612 0.10629289
0002d0 37 54 3a 3e 83 b2 58 3e d4 6e 11 3e 83 4c 48 be
       0.18196188 0.21161847 0.14202434 -0.19560437
0002e0 6d bb 07 3e 71 03 ef ba 70 2e 0d 3e 95 b5 c0 3d
       0.13255091 -0.0018235279 0.13787246 0.09409634
0002f0 98 a3 58 3e f2 96 1d 3e 0e 18 5f 3e b1 55 2d 3e
       0.21156156 0.15389612 0.2178652 0.1692722
000300 ea 69 81 3d 04 ad 0d 3e 8b 64 e4 3b 25 5d 84 3c
       0.0631903 0.13835531 0.0069699935 0.016157696
000310 3b 58 ab 3d f3 19 61 3e 1e bc 5c 3e 8f d5 05 3d
       0.08366438 0.21982555 0.21556136 0.03267437
000320 08 a1 d9 3d f8 f0 34 3d 90 a8 7e bd ca d8 6f 3e
       0.106264174 0.04417512 -0.062172472 0.23422542
000330 fb bd 28 3d 04 d7 80 3e ab 2b d2 bc 7a 76 77 3d
       0.041196804 0.25164044 -0.025655588 0.060415722
000340 e8 0b 51 3e 21 f5 0d be b8 f3 d0 3c 46 46 4f 3e
       0.20414698 -0.1386304 0.02550684 0.20241651
000350 0d 6f 8b 3d 91 01 38 bc 43 09 c6 3d c1 d6 8a bd
       0.06808291 -0.011230842 0.09669735 -0.06779242
000360 eb 47 4c 3e ca 3e 0a be f9 20 17 be 8f 77 0a be
       0.1994931 -0.13500515 -0.14758672 -0.1352217
000370 82 e8 8e 3e 23 c7 fe 3d ee 8a 0c bd 31 f9 c3 3d
       0.27911764 0.12440326 -0.03431218 0.09569014
000380 a5 c6 8a bd 72 c6 63 3e f7 09 9a bd 75 4f 42 3e
       -0.0677617 0.2224367 -0.07521432 0.18975623
000390 06 0e 85 3e 18 1e f5 bd 42 99 2b be 84 15 a3 3e
       0.25987262 -0.119686306 -0.16757682 0.31852353
0003a0 07 fd 87 3e 97 45 6d bd 71 5f 12 be f6 6f 77 3e
       0.26560232 -0.057927694 -0.1429422 0.24163803
0003b0 8b 79 95 3e 05 3a 0c be 6b 78 54 be 23 08 17 3e
       0.29194292 -0.13694008 -0.20749061 0.14749198
0003c0 34 e7 1f 3e 61 18 83 3e b6 db e5 bd bb 36 c3 3d
       0.1561554 0.25604537 -0.11223547 0.095319234
0003d0 11 55 1b 3e 9e 40 64 3e 85 be 8f bc ac 03 a6 3b
       0.15169169 0.22290275 -0.017546901 0.0050663557
0003e0 38 17 50 3e d6 41 1d 3c b3 48 df bc db e4 4b 3e
       0.20321357 0.009598216 -0.027256345 0.1991152
0003f0 01 45 e3 bd 2c 63 73 3e 26 45 90 be 46 5a 88 3d
       -0.11097146 0.237683 -0.28177756 0.06657843

fc2.bias f4 [64]
000000 1d 0c 4b bc e7 a2 1e bb 7c 18 97 3d f9 62 e1 bd
       -0.012393025 -0.0024205984 0.07377717 -0.11005206
000010 28 57 19 3d c3 97 a7 3d c2 78 02 3e d5 e9 29 3d
       0.037436634 0.08183243 0.12741378 0.041482765
000020 2e d8 8c bd f9 7c d6 bb c0 52 6c ba 0e e2 cb 3d
       -0.068771705 -0.0065456596 -0.0009015016 0.09955226
000030 76 c5 5f bd 57 59 a0 bc 50 c3 69 bd c6 d8 02 bd
       -0.054631673 -0.01957385 -0.05707103 -0.031945013
000040 8d 9e 68 bd 6f de 5d bc 5f f4 a2 3d 2c 03 83 bd
       -0.05679183 -0.013541802 0.07956766 -0.06397089
000050 75 f1 60 bd 45 9f 55 3d 7e bc a2 bd 92 d6 ce 3d
       -0.05491777 0.052153844 -0.07946108 0.1009952
000060 04 53 3e bd c5 1b a8 3d d9 a3 ae 3d cc 9a 34 ba
       -0.04646589 0.082084216 0.08527345 -0.00068895216
000070 e4 33 0f 3e 2c be 5c bb c2 f2 4b bd ae cd 2a 3b
       0.13984638 -0.0033682687 -0.04979206 0.0026062536
000080 47 e2 82 3d af d0 ab 3d 1e 60 96 3d e3 17 85 3d
       0.06390815 0.083894126 0.07342552 0.06498697
000090 65 4c 37 3d ef 0c 1e bd d0 a4 1a 3d 7d 0e 6f 3d
       0.04475059 -0.038586553 0.037754834 0.058363426
0000a0 fd 81 d5 3d 93 f0 f3 3d ce 36 a8 bd 1c 18 ce 3b
       0.10425184 0.1191112 -0.08213578 0.006289495
0000b0 c1 8b 41 bc fb 29 b2 3b 65 80 b9 3c be 8a a5 3d
       -0.011813105 0.0054371334 0.022644231 0.080831036
0000c0 42 f3 51 bd 7f e5 1c 3e 10 89 a4 bc 18 c1 a8 bc
       -0.05125738 0.15321921 -0.020084888 -0.020599887
0000d0 d5 e6 87 bd 33 e5 99 bc 9d 80 cc 3c 7c 51 9f 3a
       -0.066358246 -0.018786049 0.024963671 0.0012155022
0000e0 aa 1d 01 bd 27 5b 48 3d 6a d4 5d 3d 92 13 b0 3d
       -0.03152243 0.048915055 0.054157652 0.08597483
0000f0 a6 70 52 3d b1 b2 0d bc dc 0e e0 3d d4 75 ad 3d
       0.05137696 -0.00864856 0.10940334 0.084697396

fc3.weight f4 [32, 64]
000000 00 7f a6 bc b8 c8 c5 3c 5d 5e 36 3d 1b 9e 80 3d
       -0.02032423 0.024143562 0.044523586 0.06280156
000010 c3 15 06 be 7c b0 0d 3e 49 82 ca 3d 48 84 3a 3d
       -0.13094239 0.13836855 0.09888131 0.04553631
000020 f4 a7 09 3e 9c 85 8d bd df 40 86 bc be 6f bf bd
       0.13442975 -0.069102496 -0.016388355 -0.09347485
000030 9c 65 74 bb 28 b4 36 be d0 f1 bb bd 9a 6d 3e 3d
       -0.003729201 -0.17842162 -0.091769814 0.046491243
000040 ee 69 12 be 44 91 f7 3d 25 8b 03 3e d0 c7 ab bc
       -0.14298221 0.12088254 0.12846048 -0.020969301
000050 2c 83 80 3d 84 f8 77 bd 45 85 b7 3d 3b 29 23 bd
       0.06275019 -0.060539737 0.08960966 -0.039834242
000060 22 3d e7 bd dc 24 2c be 6c ec 5b 3d 7b 58 89 bc
       -0.11290957 -0.16810936 0.053692266 -0.016765824
000070 10 33 21 3e 81 3f 1f bd b5 60 39 3e 3b 2e e5 bd
       0.15742135 -0.03887892 0.18103297 -0.111904584
000080 25 8d 2d 3e 5c c8 20 3e 87 b7 64 3d 2e 43 24 3e
       0.16948374 0.15701431 0.055839088 0.16041252
000090 ac 46 09 3d 96 d3 05 be 82 85 b4 bb 50 52 0c 3d
       0.033514664 -0.13068995 -0.0055090794 0.034258187
0000a0 1a 8a 60 3d 96 62 2f 3d 59 f9 ea bb 29 72 3e bd
       0.054819204 0.04281863 -0.007170838 -0.04649559
0000b0 68 77 f2 bd c8 a4 58 3e 3b e1 a7 3d f5 35 29 3e
       -0.11839181 0.21156609 0.08197256 0.16524489
0000c0 17 03 6f 3d 07 e9 cd bd 00 04 c7 3c cf 25 bf bd
       0.058352556 -0.10054212 0.0242939 -0.09333383
0000d0 5b f9 af 3d 58 00 5f 3e 64 34 93 3d f1 a0 90 3d
       0.08592483 0.21777475 0.07187727 0.07061947
0000e0 f9 2b 22 bd a9 9a 2e be ec 84 06 3e 35 f8 25 3d
       -0.039592717 -0.17051186 0.13136643 0.04051991
0000f0 3a f9 3b bc 72 16 1b 3e f2 8c 50 3e 8f 70 cc 3d
       -0.011472994 0.15145281 0.20366266 0.09982406
000100 0a 53 d0 3d 70 39 fb bc f0 77 2a 3c 56 d7 a9 bd
       0.101720884 -0.030667037 0.010404572 -0.08293025
000110 10 d4 fe bd be fb f3 3d 4c 23 d4 bd 0c 9a 85 bd
       -0.124427915 0.119132504 -0.10358295 -0.06523523
000120 9e b1 b6 3d 38 e1 9a bc b4 a5 b4 bd fa 59 9d bd
       0.089205965 -0.01890622 -0.08820668 -0.07683177
000130 3c ae 38 3d 98 f9 87 3c e0 94 80 3d 24 da 8c 3d
       0.045088038 0.016598508 0.06278396 0.068775445
000140 94 86 35 bd 40 94 b6 bc 00 62 ee 3b 58 d9 c2 3d
       -0.044317797 -0.022287488 0.007274866 0.09514111
000150 f0 37 5c bc e0 0f aa bb 52 8b ea bd 50 6f 49 3c
       -0.013441071 -0.0051898807 -0.114523545 0.012294605
000160 94 ab f8 bd b4 96 a6 3d 60 00 b9 3b de c3 e8 3d
       -0.12142101 0.08134213 0.0056457967 0.11365484
000170 18 9a 66 bd 3a 5d 97 bd c0 74 74 3b 58 ec f9 3c
       -0.0562993 -0.073908284 0.0037301034 0.030508205
000180 96 5c f5 bd 94 c0 55 bd 76 46 c1 3d c8 43 be bd
       -0.1198055 -0.05218561 0.094372675 -0.09290272
000190 78 a5 df 3d e6 37 e7 3d 5a 20 c7 3d 00 68 2b bb
       0.109202325 0.11289959 0.097229674 -0.0026154518
0001a0 c0 40 7c 3d 12 6f a9 bd de a2 d0 bd 60 e9 b7 3b
       0.061585188 -0.08273138 -0.101873145 0.0056125373
0001b0 20 44 61 bd 6e e7 e4 bd b8 ec ab 3c 70 ef cf 3c
       -0.05499661 -0.11176954 0.0209869 0.025382727
0001c0 e0 8d b7 bd 04 70 51 bd 1c 10 29 bd b0 1c ad bc
       -0.089626074 -0.051132217 -0.04127513 -0.021131843
0001d0 42 91 aa bd 90 f4 60 bc 50 0d ad bd 9a b9 c7 bd
       -0.08328487 -0.013730183 -0.08449805 -0.097521976
0001e0 8c cc a2 3d 4c 58 3f 3d e0 34 bb 3c b8 ea 59 bd
       0.079491705 0.046715066 0.022852361 -0.05320236
0001f0 6c fc aa bd 40 2e e0 bd 62 a5 88 3d ec 72 b7 3d
       -0.08348927 -0.109463215 0.06672169 0.089574665
000200 cf 0b eb ba b3 3e 13 be 1a 78 c7 bd 1a 15 e3 bc
       -0.0017932596 -0.14379387 -0.097397044 -0.027720023
000210 44 01 03 bb d5 87 2a 3e cf 0c ee 3d 71 26 23 3e
       -0.0019989768 0.16653378 0.11623537 0.15932633
000220 c9 ca 5a 3c 51 00 1b 3e 06 03 3f bb 1e a0 a4 bd
       0.013354012 0.1513684 -0.002914609 -0.080383524
000230 71 93 34 3e 8b f5 40 be 14 c3 04 be 88 44 87 3e
       0.1763437 -0.18843667 -0.12965041 0.26419473
000240 87 0f 58 be bd 00 27 3e 7e 83 2b 3e 30 b1 da 3d
       -0.21099673 0.16308875 0.16749379 0.10678327
000250 f4 62 09 be d3 3f 43 bd 68 9f 7a bd d7 57 f9 3c
       -0.13416654 -0.04766829 -0.061187178 0.030437393
000260 51 78 bf ba f6 9b 34 be de b8 57 bd 06 a0 82 bd
       -0.0014608001 -0.1763762 -0.052666537 -0.06378178
000270 ee 0e 85 bd af f8 01 3d 57 e2 46 b8 5e c0 e6 bb
       -0.06496988 0.031731304 -4.7417674e-05 -0.007041975
000280 cd e8 21 3e 63 04 37 3e b2 cf 9e 3d 45 08 90 3d
       0.15811463 0.17872767 0.077544585 0.07032827
000290 d7 e6 a3 3d 84 f8 93 bd 94 7b a6 bd 29 3a 3c 3e
       0.080030136 -0.07225135 -0.081290394 0.18381561
0002a0 8d 6c 40 be 4e f9 6d 3e c7 0f 04 be 9d aa 9a bd
       -0.18791409 0.23239633 -0.12896644 -0.07552073
0002b0 20 e0 d7 bd ea 35 f5 3d 9a fb 45 3d 34 79 c8 3d
       -0.10540795 0.11973174 0.04833565 0.09788743
0002c0 2c 9a 02 3e 1e a7 2b bd f1 17 91 bd fa b5 3a 3d
       0.12754124 -0.041907422 -0.070846446 0.045583703
0002d0 1a 39 a9 3d 4e 35 02 3e 94 80 e6 3d d3 f7 5d 3e
       0.082628444 0.12715647 0.11254993 0.21676569
0002e0 75 15 f6 3c 21 8e c4 bd 14 68 3e 3d b6 31 87 bc
       0.030039528 -0.095974214 0.046485975 -0.016503196
0002f0 35 81 5a 3e ba f8 c8 3d da 15 a5 3d 8a ce 0f 3d
       0.21338351 0.09813066 0.080608085 0.03510908
000300 7c be e7 bd 4f 08 23 3a 03 5c d2 bc 31 22 4f bd
       -0.11315629 0.00062191946 -0.02567864 -0.050569717
000310 26 5f 42 3d ef 2a a6 3d 0d aa 67 bd cd 7a 3d 3e
       0.047454022 0.08113658 -0.056558657 0.18503876
000320 a3 46 45 3e 92 93 63 3d 0a 19 a9 bd 6f bb 51 3d
       0.19265227 0.055560656 -0.08256729 0.05120414
000330 fb 26 7d 3e 04 24 30 be d3 b8 59 3c 7e 25 8f 3d
       0.24721901 -0.17201239 0.013288694 0.06989573
000340 e9 a5 fe bc 12 70 5c 3e 83 31 49 3d 80 ca eb 3c
       -0.031084972 0.21527126 0.049119484 0.028783083
000350 8b de df bd fd 93 4e bd 26 4f 36 bd cb 21 02 3e
       -0.109311186 -0.0504341 -0.044509076 0.12708203
000360 ee 28 69 3d 9d f6 37 be a3 f6 f5 bd a6 dc 72 bd
       0.0569238 -0.17965169 -0.12009933 -0.059292458
000370 10 ea 80 3d 2c 71 d5 bd 96 4e 0f 3d 40 05 91 bc
       0.06294644 -0.104219764 0.034987055 -0.017702699
000380 0c dc 7c 3e 6f d1 7f 3e 1c cc 40 3e fe f5 aa 3d
       0.24693316 0.24982236 0.18827862 0.083477005
000390 22 e9 d0 bb 3a 59 d1 bb a2 90 81 bd be d0 b3 3d
       -0.006375448 -0.0063888105 -0.06326415 0.08780049
0003a0 a9 b4 b3 bd 69 60 3b 3e 4a ab 9d 3c 6c b8 49 be
       -0.087746926 0.18298496 0.019246716 -0.19699258
0003b0 83 a8 a1 bd 5a 5f 11 3d 61 69 1d bd 05 ec 6a bc
       -0.07893469 0.035491325 -0.038430575 -0.014338498
0003c0 1d 05 1d 3e 71 c3 4d bd 22 7a 11 be 87 cf bd 3d
       0.15333982 -0.050235216 -0.14206746 0.09268098
0003d0 ee 0a 1a 3d 1e cc 57 3e 66 55 0f 3d 9f 66 26 3e
       0.03760808 0.21073958 0.03499355 0.16250084
0003e0 77 c2 a9 3d 3e a5 8e bd 3d e6 3f 3e de 9d fd bd
       0.08289044 -0.06965111 0.18740173 -0.123836264
0003f0 9d c8 3d 3e 80 47 24 3d 91 a1 d7 3d f0 2d bb 3d
       0.18533559 0.04010725 0.10528863 0.09139621

fc3.bias f4 [32]
000000 d2 f7 33 bd 46 aa 83 bd eb f1 3f 3d e2 45 e2 bc
       -0.04393751 -0.064289615 0.04686157 -0.027621213
000010 2c 7a ab 3c 5d 30 be bd 4f bd 27 3d 25 d1 7e 3d
       0.02093228 -0.09286568 0.040952023 0.062211175
000020 c8 a7 0c 3e 60 b1 b0 3d f2 1b be 3d 21 b2 92 bd
       0.13735878 0.086275816 0.09282674 -0.07162882
000030 ec b4 e2 3d 8d a7 06 bd 9c 94 3f 3d 05 3e 23 3d
       0.11069664 -0.032874633 0.046772584 0.03985407
000040 f4 60 49 ba 7d 7b 13 3c 2a 8f 19 bd 80 ef 39 3c
       -0.00076819886 0.00900161 -0.037490048 0.011348605
000050 ea ad 65 bd 5f ff 3e bd 65 a0 fb 3d dc bb ca bd
       -0.05607406 -0.04663026 0.12286452 -0.098991126
000060 c4 42 2f bd f8 cd 40 3d 66 7d 20 bd 99 a3 9a 3d
       -0.042788282 0.047071427 -0.03918209 0.07550735
000070 e5 c9 97 3d 5b 01 b9 bd d1 63 27 bc c7 13 12 3d
       0.07411555 -0.09033462 -0.010216669 0.035663392

fc4.weight f4 [2, 32]
000000 dd 93 b3 be 62 be ed bd 71 c4 0b be 4b 62 39 be
       -0.35073748 -0.11608578 -0.13649155 -0.18103902
000010 a4 4b 91 be 6a dc 2b 3d b8 13 d5 3e dd 42 6e 3e
       -0.28378022 0.04195825 0.41616607 0.23267694
000020 26 57 bb be a2 07 e6 3e b7 d4 50 3e 9c 2b d6 3e
       -0.36589926 0.44927698 0.20393644 0.41830146
000030 8b d0 90 3e 45 dc 3b 3e 1a 73 ae be 97 13 c6 be
       0.28284106 0.18345745 -0.3407219 -0.3868682
000040 f4 c2 c4 be 55 eb dc be fd 76 f0 be 41 54 d5 be
       -0.38429987 -0.43148294 -0.4696578 -0.41665843
000050 73 25 4c bd 5d aa f3 3d 8b 97 7a be b0 15 ca bd
       -0.0498404 0.118977286 -0.24471872 -0.09867418
000060 bb 07 ea 3d c5 87 dc 3e 35 1a b9 be f9 64 ad be
       0.11427256 0.43072334 -0.36152807 -0.338661
000070 2c a3 75 be 0b 10 9a 3e 8e 29 9a be 62 ea b0 be
       -0.23988026 0.30090365 -0.3010983 -0.3455382
000080 83 48 70 3e 70 97 d3 bd a2 a6 d7 3e 51 12 c1 3e
       0.23465161 -0.10331619 0.42119318 0.37709287
000090 00 7c d0 3e 74 a9 16 3d 5a ff 80 be ea 00 b6 be
       0.40719604 0.036782697 -0.25194818 -0.35547572
0000a0 df 1a 79 3e cd 44 ab be f1 3a e7 be 24 7c bf be
       0.24326657 -0.33450928 -0.45162156 -0.373994
0000b0 ea 80 b3 be 8f 58 e4 be 7f 22 62 3e e4 5a a6 3e
       -0.3505929 -0.44598815 0.22083472 0.3249122
0000c0 4f 82 c4 3e e5 cb a2 3e d6 86 ec 3e f4 28 73 3e
       0.38380668 0.31796184 0.46196622 0.23746091
0000d0 73 37 ba bd 94 e9 17 be cf 46 98 3e 2f 70 61 3e
       -0.09092607 -0.14835197 0.29741523 0.22015451
0000e0 04 24 a7 bd 85 34 5d be 4d df a0 3e 52 49 e0 3e
       -0.08161166 -0.21602066 0.31420365 0.4380594
0000f0 c3 27 8c 3e d4 e0 1f be 63 f0 05 3d f8 5d c2 3e
       0.27374086 -0.15613109 0.032699954 0.37962317

fc4.bias f4 [2]
000000 6b 96 9f 3d 37 41 32 3d
       0.07792362 0.043519225
