checkpoint/model-fold-1.pt (torch, 446799 bytes, 8 tensors)

fc1.weight f4 [100, 1024]
0	0x3d58a584	0.052892223
1	0x3dac768f	0.08421051
2	0x3b5a694d	0.0033326924
3	0xbc933813	-0.017971074
4	0x3d55ec9e	0.05222761
5	0x3cab7c89	0.020933406
6	0xbd4da63d	-0.050207365
7	0xbcbc96bd	-0.023021096
8	0xbd0dd64e	-0.034628205
9	0xbda7bb87	-0.08190065
10	0x3cc59aee	0.024121728
11	0xbb9e81c2	-0.0048372457
12	0x3d5e4f45	0.054274816
13	0x3cbe86c4	0.02325762
14	0xbcd81f41	-0.02638209
15	0x3cb78acc	0.02240505
16	0xbd20cc3e	-0.03925728
17	0x3d2c426d	0.042055536
18	0x3d0e8c9f	0.034802075
19	0xbb135aa9	-0.0022484458
20	0xbbd5afa8	-0.006521184
21	0x3c8c0c83	0.01709581
22	0x3c957076	0.018242102
23	0xb9a17e31	-0.00030802333
24	0xbdb1012f	-0.08642804
25	0x3b15c438	0.0022852551
26	0xbc63f17e	-0.013912557
27	0x3cee2e08	0.029074684
28	0x3d1d42eb	0.038393896
29	0xbd98d3cd	-0.07462273
30	0xbda54b76	-0.08071034
31	0xba141738	-0.0005649212
32	0xbc7d6177	-0.015465132
33	0x3c09b723	0.00840548
34	0x3d566b6b	0.052348536
35	0xb9dbab20	-0.00041898433
36	0x3c7e922f	0.015537783
37	0xbd121956	-0.035668693
38	0xbc9acb9b	-0.018895915
39	0xbd152c52	-0.03641922
40	0x3d507139	0.050889228
41	0x3d04651c	0.032322988
42	0x3d661c03	0.056179058
43	0xbb9fbe2e	-0.004874966
44	0xbc136950	-0.008997276
45	0xbd4be45a	-0.04977832
46	0x3d73a6f9	0.05948541
47	0xbbce9033	-0.006303811
48	0x3d60fd6c	0.054929182
49	0x3c50a77e	0.012735246
50	0xbdc0d36a	-0.09415324
51	0xbd05e660	-0.032690406
52	0xbd32ded4	-0.043669537
53	0xbd7960d1	-0.060883347
54	0xbc0bc2f3	-0.008530366
55	0xbd08f83e	-0.033439867
56	0xbbcb2244	-0.006199153
57	0xbcb399e3	-0.021923965
58	0xbacc2735	-0.001557565
59	0x3c6f3e5b	0.014602269
60	0xbc99fabb	-0.018796315
61	0xbd191f34	-0.037383273
62	0x3d3b1499	0.04567394
63	0x3d032f4e	0.032027535
64	0x3ca7452d	0.020418728
65	0x3cbd39e7	0.023098899
66	0x3d32ded4	0.043669537
67	0x3c32c706	0.010911709
68	0xbbe41abe	-0.0069611957
69	0xbd08ab3a	-0.03336642
70	0xbd4908d8	-0.0490807
71	0x3bfb9b46	0.007678422
72	0xbc992701	-0.018695356
73	0xbd8690b0	-0.06570566
74	0xbba26256	-0.00495557
75	0xbd7d2bbc	-0.061809286
76	0xbd7bfd64	-0.06152095
77	0xbb91da7d	-0.0044510947
78	0x3d1a40c4	0.03765942
79	0x3d173eaa	0.036924995
80	0xbd441d98	-0.047879785
81	0xbc839418	-0.016061828
82	0x3d82b264	0.063816816
83	0xbdb1d065	-0.08682326
84	0x3c5716dd	0.01312801
85	0xbd0cda09	-0.034387622
86	0xbd252bca	-0.040324964
87	0xbd408d3c	-0.04700969
88	0x3c9b928e	0.018990781
89	0xbbf05387	-0.007334176
90	0x3d787fb1	0.06066865
91	0xbc7ac7ef	-0.015306457
92	0xbd4aad8f	-0.049481925
93	0xbcc1c93c	-0.023655526
94	0xbd7381c3	-0.059449922
95	0xbc924f30	-0.017860025
96	0x3da83f10	0.08215153
97	0xbcdbc5f0	-0.026827782
98	0x3cf7be45	0.030242095
99	0xbc451aa0	-0.012030274
100	0x3d2320b1	0.0398261
101	0xbd5ffba5	-0.054683346
102	0xbcc1931e	-0.023629721
103	0x3ccc0eb2	0.024909351
104	0x3cd4e776	0.025989275
105	0xbd7351ff	-0.05940437
106	0xbd14d14f	-0.036332425
107	0xbd366532	-0.0445301
108	0xbd569559	-0.052388523
109	0x3c8e35b1	0.017359586
110	0x3db9dea0	0.090756655
111	0x3b91b70e	0.0044468706
112	0x3d14fb29	0.036372337
113	0x3d14b461	0.036304835
114	0xbc8728ef	-0.01649901
115	0xbda7b280	-0.08188343
116	0x3c4df1e8	0.012569882
117	0xbca110f5	-0.019661406
118	0xbd4e0ba2	-0.050304063
119	0xbd37e5a8	-0.04489675
120	0x3d11aa4e	0.035562806
121	0x3d2895ff	0.041158672
122	0xbd2231e7	-0.03959837
123	0xbb0c15a3	-0.0021375201
124	0xbcaa8415	-0.020814935
125	0xbcb6fcc0	-0.022337317
126	0xbaf56e30	-0.0018724855
127	0xbb78d40f	-0.0037968194
128	0xbd7fa038	-0.062408656
129	0xbcbc516f	-0.02298805
130	0xbcab27b5	-0.020892957
131	0x3d6d7c78	0.05798003
132	0xbd11d701	-0.035605434
133	0x3d304246	0.043031953
134	0x3d44d563	0.048055064
135	0x3cef6765	0.029224107
136	0x3ab53a9b	0.001382667
137	0xbc9a519e	-0.018837746
138	0x3d7d47f2	0.06183619
139	0x3bab97d0	0.0052366033
140	0xbcc25953	-0.023724234
141	0xbca0e548	-0.01964058
142	0x3d0d513c	0.0345013
143	0xbd968f49	-0.07351548
144	0x3d09af35	0.033614356
145	0x3d687b66	0.056758307
146	0xbcd02e9a	-0.025412846
147	0x3d8b15c3	0.0679126
148	0x3c67c377	0.014145724
149	0xbdd3af83	-0.103362106
150	0x3cb39c1b	0.021925023
151	0xbd134661	-0.03595579
152	0x3bab13a5	0.0052208477
153	0xbda8e716	-0.08247201
154	0x3baec585	0.0053336048
155	0xbd92cac0	-0.07167578
156	0x3d7435b6	0.059621535
157	0x3bfcf55c	0.007719679
158	0xbb5a7f34	-0.003333998
159	0x3c3bd342	0.011463942
160	0xbd569610	-0.052389205
161	0x3d6ae618	0.05734834
162	0x3cd4cc84	0.025976427
163	0xbd1c150a	-0.038106002
164	0xbb88f7ad	-0.004179916
165	0x3d5bc7fb	0.053657513
166	0xbdb1c455	-0.086800255
167	0x3d3ee3f2	0.046604104
168	0xbca83da5	-0.020537207
169	0xbd387454	-0.045032814
170	0xbd1ccfb5	-0.038284022
171	0xbb24965c	-0.0025114035
172	0xbc3f0792	-0.01165952
173	0xbb46d03e	-0.0030336524
174	0xbd845bab	-0.06462797
175	0xbb863360	-0.00409548
176	0xbd65db4b	-0.056117337
177	0xbd20d0be	-0.039261572
178	0xbcc6fd31	-0.024290653
179	0x3c26a951	0.010172204
180	0x3d5a259e	0.05325853
181	0xbc42d385	-0.0118912505
182	0xbd8f86ba	-0.07008119
183	0xbd492e6f	-0.04911655
184	0x3cfe9020	0.031074584
185	0x3ced0055	0.028930822
186	0xbccfe26c	-0.025376521
187	0x3bcd105e	0.0062580546
188	0x3d63e6bb	0.055639964
189	0x3d08005a	0.03320346
190	0x3d129e4e	0.035795502
191	0xbdc34506	-0.095346496
192	0x3a443355	0.0007484456
193	0x3d5e4d92	0.054273196
194	0x3d4a8678	0.049444646
195	0x3d1e2bd8	0.03861603
196	0x3d7af9f8	0.061273545
197	0x3baba84f	0.00523857
198	0xbda18e90	-0.0788852
199	0x3d18eec1	0.03733707
200	0xbd2d5647	-0.04231861
201	0xbce4d23c	-0.027932279
202	0xbcb9de02	-0.02268887
203	0xbd84da09	-0.064868994
204	0x3d197f2c	0.037474796
205	0x3cb830f3	0.022484278
206	0xbbc00076	-0.00585943
207	0x3c06320b	0.008190642
208	0xbd31ce95	-0.043409903
209	0x3d0bd0c5	0.034134645
210	0xbba94ee7	-0.0051668766
211	0x3d21bdc1	0.039487604
212	0xbda4c019	-0.08044452
213	0xbd2450dd	-0.04011618
214	0xbd0bd947	-0.03414276
215	0x3ca3fafe	0.020017143
216	0x3d7dbd00	0.061947823
217	0x3cb8afbd	0.022544736
218	0xbd1db62d	-0.038503814
219	0xbd875b1e	-0.06609176
220	0x3cc31665	0.02381439
221	0xbd2313b0	-0.039813697
222	0x3d0765dc	0.033056125
223	0x3c0bf00f	0.008541121
224	0xbd33b996	-0.04387816
225	0x3d6d3a46	0.057916902
226	0x3d5062fd	0.050875653
227	0x3d902534	0.07038346
228	0xbd83fe07	-0.06444936
229	0x3db3e557	0.087839775
230	0x3c9a69d2	0.018849287
231	0xbd0866e3	-0.033301245
232	0xbc0861b6	-0.008324077
233	0xbcd1e19c	-0.025620274
234	0x3bb2a3ca	0.005451654
235	0x3c9599cc	0.018261813
236	0xbd36e9c3	-0.044656526
237	0xbd8af08a	-0.067841604
238	0xbc95ae28	-0.01827152
239	0x3db36964	0.08760336
240	0x3a9f89e3	0.0012171831
241	0xbcbf1326	-0.02332456
242	0xbcd00a33	-0.025395488
243	0x3b091545	0.0020917219
244	0x3cbf378b	0.023341915
245	0x3c863565	0.016382882
246	0xbd3f6349	-0.046725545
247	0x3d12cbeb	0.035839003
248	0x3d1cdd50	0.038296998
249	0xbcf55297	-0.029946608
250	0x3d4078b4	0.04699011
251	0xbcdb6777	-0.026782734
252	0x3cd599b9	0.026074277
253	0xbbfaaed2	-0.0076502347
254	0x3c0c6d21	0.00857094
255	0xbd201f55	-0.03909238

fc1.bias f4 [100]
0	0x3d21da6f	0.039514955
1	0x3cbdaf23	0.0231548
2	0xbb84e76c	-0.004055908
3	0xbc9f8d3d	-0.019476527
4	0x3c27ff93	0.010253805
5	0x3cd7dec6	0.026351344
6	0x3c03097d	0.007997868
7	0xbc409df8	-0.011756413
8	0x3be69908	0.0070372857
9	0x3b83db65	0.0040239566
10	0x3d5f4706	0.054511093
11	0x3ce2626b	0.02763482
12	0x3c47d125	0.01219586
13	0xbc3b625d	-0.011437026
14	0xbc86d978	-0.016461119
15	0xbbfbad9a	-0.007680607
16	0xbc32fa30	-0.010923907
17	0x3af47ce7	0.0018652946
18	0xbcdfd938	-0.027325258
19	0xbc83ea07	-0.016102804
20	0x3d014f2f	0.031569656
21	0xbc78a32e	-0.015175624
22	0x3d4c9670	0.049948156
23	0x3c7b1be5	0.015326475
24	0xbc38e6c1	-0.011285485
25	0x3d20e786	0.039283298
26	0xbcc49106	-0.023994934
27	0x3c9dfef7	0.019286616
28	0x3c7e1aae	0.015509291
29	0x3c946ec0	0.018119216
30	0xbc75f1b9	-0.015011244
31	0x3d1718fe	0.03688907
32	0x3d11853c	0.035527453
33	0x3cc8da42	0.024518136
34	0xbcbc4f75	-0.022987107
35	0xbce0b74e	-0.027431156
36	0x3c40fc48	0.011778899
37	0x3c1cc950	0.009569481
38	0xbcd813f4	-0.026376702
39	0x3c9f5374	0.019448973
40	0x3c89cf58	0.016822502
41	0x3cb214c2	0.021738414
42	0xbccb0839	-0.024784194
43	0x3bccbe70	0.006248288
44	0x3cdbcad4	0.026830114
45	0xbc3a197d	-0.011358616
46	0x3b61afd6	0.0034437082
47	0x3d11df96	0.03561362
48	0xbc2b99c5	-0.010473673
49	0x3d8d0004	0.068847686
50	0xbc8fda86	-0.017560255
51	0xbc67b722	-0.014142783
52	0x3d082443	0.033237707
53	0xbcacf638	-0.0211135
54	0x3b1ed509	0.0024235866
55	0x3ce92d16	0.028463881
56	0x3ca7f85e	0.020504173
57	0x3bce91ba	0.006303993
58	0x3cfe1dd8	0.03102009
59	0xbaead1cc	-0.0017915308
60	0xbcc7c2a1	-0.024384798
61	0x3cfe7b03	0.031064516
62	0xbb253b40	-0.0025212318
63	0xbc7c675c	-0.015405502
64	0xbb7decc7	-0.0038745867
65	0xbb2af0e7	-0.002608353
66	0xbc607248	-0.013699122
67	0x3d13654c	0.035985276
68	0xbc058c59	-0.008151137
69	0xbb99638e	-0.0046810573
70	0x3bd2baa6	0.0064309416
71	0x3cd5c2b8	0.026093826
72	0xbbc36f58	-0.005964201
73	0x3cf08477	0.02936004
74	0xbce37c78	-0.027769312
75	0xbcadc518	-0.021212146
76	0x3cc6b699	0.024256991
77	0x3cdb2c64	0.026754566
78	0x3c204d4a	0.009784052
79	0x3c712913	0.0147192655
80	0x3cdc88cd	0.0269207
81	0xbc7bd9bd	-0.015371737
82	0x3cf96616	0.030444186
83	0xbcadda76	-0.021222334
84	0x3cff33d2	0.03115264
85	0x3d59721f	0.05308735
86	0x3ca8d975	0.020611504
87	0xbc61bc59	-0.013777816
88	0x3d0d0283	0.034426223
89	0x3cc7a92c	0.02437266
90	0xbc8fe4b8	-0.017565116
91	0xbc5c3025	-0.013439213
92	0x3b274ea0	0.0025529042
93	0xbc2b2e36	-0.010448029
94	0x3c771dfc	0.015082832
95	0x3c3682c5	0.011139576
96	0x3b35a621	0.0027717429
97	0xb90c5d4e	-0.00013386199
98	0xbc9a0ea7	-0.018805815
99	0xbbc5d6f0	-0.0060375854

fc2.weight f4 [64, 100]
0	0x3df1b1a8	0.11801463
1	0x3a587749	0.0008257521
2	0xbe0f2c89	-0.13981833
3	0x3d80968c	0.062787145
4	0x3d2c839d	0.042117704
5	0x3e319dc2	0.17345336
6	0x3e045e8a	0.12926689
7	0xbdb95ee8	-0.09051305
8	0x3e2e38e6	0.17013893
9	0x3cc02ecd	0.023459816
10	0x3dc2ce7f	0.09512042
11	0x3db893f8	0.09012598
12	0xbd8421b6	-0.06451742
13	0x3da4424d	0.08020458
14	0x3d531347	0.051532056
15	0xbcf251fa	-0.029580105
16	0x3e6e25ca	0.23256603
17	0xbdeb13a2	-0.11478354
18	0x3ca00a1d	0.019536072
19	0xbcfae86c	-0.030628406
20	0x3e6d1792	0.23153523
21	0x3dcea6fa	0.10090442
22	0x3e00156b	0.1250817
23	0xba7a99df	-0.0009559672
24	0x3d86a457	0.06574314
25	0x3e287a58	0.1645292
26	0x3dc70530	0.09717786
27	0x3d8f47ee	0.069961414
28	0x3e1fe563	0.15614848
29	0x3c579cc3	0.0131599335
30	0xbe21027f	-0.15723608
31	0x3e0041bd	0.12525077
32	0x3dcdac14	0.10042587
33	0x3d7f122e	0.062273197
34	0xbe2786e4	-0.1636005
35	0x3e773807	0.24142466
36	0x3e7c4fff	0.24639891
37	0xbe3aeeb7	-0.18255125
38	0xbe1195c1	-0.14217283
39	0x3e648472	0.22316149
40	0x3dfdc1c8	0.123904765
41	0x3e73e89a	0.23819199
42	0xbe32213d	-0.17395492
43	0xbcb00924	-0.021488734
44	0x3c189d48	0.0093148425
45	0x3e20a17a	0.15686598
46	0xbdaf7259	-0.08566732
47	0xbd4c6da1	-0.049909238
48	0x3e67b10d	0.22626133
49	0x3dc29aba	0.09502168
50	0x3bcfbfbc	0.006339995
51	0x3e862578	0.2620046
52	0xbcd0db30	-0.025495142
53	0x3e7cfaa0	0.24704981
54	0xbe136ec7	-0.14397727
55	0x3e1c2b39	0.15250863
56	0x3d511ef9	0.05105493
57	0x3d015844	0.031578317
58	0x3d759658	0.059957832
59	0x3e7bca28	0.24588835
60	0x3d2ecb8b	0.042674582
61	0x3e21e36f	0.15809415
62	0xbcd88f20	-0.026435435
63	0x3da9a075	0.08282558
64	0xbe4b3ac9	-0.19846644
65	0xbd33fd82	-0.043942936
66	0x3e62d9f7	0.2215346
67	0x3ddf16f6	0.10893051
68	0x3e162c05	0.1466523
69	0x3deb5820	0.11491418
70	0x3e194a83	0.1496983
71	0xbdc7d803	-0.09757998
72	0x3d7ae9a7	0.061257984
73	0x3dd2ea31	0.10298575
74	0xbd6ea99c	-0.05826722
75	0xbd2e6270	-0.042574346
76	0x3dd8d64f	0.10587751
77	0xbdce5907	-0.10075574
78	0xbcbe72b5	-0.023248056
79	0x3d9db825	0.077011384
80	0x3e0aeaa2	0.13566068
81	0x3e2ea7fc	0.17056268
82	0x3cdb36b3	0.026759481
83	0xbddb2ea2	-0.10702254
84	0xbd425a95	-0.047449667
85	0xbd690360	-0.056887984
86	0x3e4bffe6	0.19921836
87	0xbd1d8452	-0.03845627
88	0x3e1a2302	0.15052417
89	0x3e77a81e	0.24185225
90	0x3e7482be	0.23877999
91	0x3e32d0e0	0.17462492
92	0xbb70f7cd	-0.0036768795
93	0x3e060f25	0.13091715
94	0x3d1eebaa	0.038798966
95	0x3da1ea2f	0.07905995
96	0x3e433af1	0.19065453
97	0x3e1637f2	0.14669779
98	0x3dcd8b72	0.10036363
99	0xbba65d66	-0.005077052
100	0x3b3f4334	0.0029184343
101	0x3db5ddf2	0.08880223
102	0x3cf7ba14	0.030240096
103	0x3d798d86	0.060925983
104	0x3cc32c64	0.023824878
105	0x3e258a67	0.16166078
106	0x3cf6e723	0.030139511
107	0x3d2829cd	0.04105549
108	0x3e24b0ae	0.16083023
109	0x3cdde9a8	0.027088955
110	0x3dbced9c	0.09225008
111	0x3e54f78f	0.20797561
112	0x3c83daad	0.016095484
113	0xbdafe444	-0.0858846
114	0xbdc855f7	-0.097820215
115	0xbcbebf20	-0.023284495
116	0x3e886f96	0.26647633
117	0xbd6fd889	-0.058556113
118	0x3d927d6c	0.071528286
119	0x3c85c327	0.016328407
120	0x3e82865f	0.25493142
121	0x3da239b6	0.07921164
122	0xbd5a2aea	-0.053263582
123	0xbd73eb53	-0.059550595
124	0xbcc90267	-0.024537278
125	0x3dfdb091	0.12387193
126	0xbd17bfb3	-0.037048053
127	0x3d559177	0.05214068
128	0x3e3fd617	0.18734013
129	0xbd119363	-0.03554095
130	0xbdfa486e	-0.12220846
131	0x3e7bc4f2	0.24586847
132	0x3e30ab45	0.17252834
133	0x3db65167	0.08902245
134	0xbd609697	-0.054831114
135	0x3df7e7bd	0.121047474
136	0x3e6cf2cf	0.23139499
137	0xbcae4301	-0.021272184
138	0xbdd0ab8f	-0.10188972
139	0x3e29fcc3	0.16600327
140	0x3dd0f6c6	0.10203318
141	0x3de99200	0.114048004
142	0xbda89334	-0.08231202
143	0x3ce4fd53	0.027952826
144	0x3d853ae5	0.06505374
145	0x3eaa0052	0.3320337
146	0x3c47449c	0.012162354
147	0x3d06c4cd	0.032902528
148	0x3e45d68c	0.19320124
149	0x3cb65f64	0.022262283
150	0xbda25b2f	-0.07927548
151	0x3d8ebbbf	0.069694035
152	0xbd6174ef	-0.055043157
153	0x3dd41754	0.10356012
154	0x3b90c15b	0.004417581
155	0x3e372dbe	0.17888543
156	0x3ce0dc79	0.02744888
157	0x3a3ac489	0.0007124623
158	0x3d89ee84	0.06734946
159	0x3d870483	0.065926574
160	0x3e6a9069	0.2290665
161	0x3dcfc5c6	0.10145144
162	0xbdbe9970	-0.0930661
163	0x3d571850	0.05251342
164	0xbe25c01a	-0.16186562
165	0x3dc0d71e	0.0941603
166	0x3e196fe4	0.14984089
167	0xbd6e52bb	-0.058184367
168	0x3db3a500	0.087717056
169	0x3d60087d	0.054695595
170	0x3e040763	0.12893443
171	0x3d25756c	0.040395185
172	0xbcab98ed	-0.020946944
173	0x3e27146c	0.16316384
174	0x3b33701f	0.0027380062
175	0x3da75fef	0.08172595
176	0x3c54c82a	0.012987176
177	0xbdcbebfe	-0.09957121
178	0xbbdea875	-0.006794984
179	0x3d754f73	0.05989022
180	0x3de355e4	0.11100367
181	0x3e3564bc	0.17714208
182	0x3dda1c54	0.106499344
183	0xbe25860f	-0.1616442
184	0x3e032324	0.12806374
185	0xbb4f6fac	-0.0031652255
186	0x3dc0114c	0.09378299
187	0x3dce9ec3	0.10088875
188	0x3e381e86	0.17980394
189	0x3de70961	0.11281086
190	0x3e1c787c	0.15280336
191	0x3e008694	0.12551337
192	0x3d8169ea	0.0631903
193	0x3dec0881	0.115250595
194	0x3be4648b	0.0069699935
195	0x3c997ffc	0.018737786
196	0x3d5a0569	0.053227816
197	0x3e28eb6c	0.16496056
198	0x3e40e88a	0.18838707
199	0x3d45252f	0.048131164
200	0x3dd907b5	0.10597173
201	0x3d462537	0.048375335
202	0xbd0ddd84	-0.034635082
203	0x3e44c488	0.19215596
204	0x3d2c2efb	0.04203699
205	0x3e4cc3f7	0.1999663
206	0xbd388643	-0.045049917
207	0x3d77767a	0.060415722
208	0x3e3b014e	0.18262216
209	0xbde9824a	-0.11401804
210	0x3cd14659	0.02554624
211	0x3e2215c4	0.15828615
212	0x3d8b6f0d	0.06808291
213	0xbc380191	-0.011230842
214	0x3dc60943	0.09669735
215	0xbd8ad6c1	-0.06779242
216	0x3e3e23bf	0.18568324
217	0xbdd5c4ac	-0.10437903
218	0xbe045a59	-0.1292509
219	0xbdf0ac47	-0.11751609
220	0x3e742693	0.2384284
221	0x3d81072c	0.06300196
222	0xbd04902a	-0.032364048
223	0x3dc3f931	0.09569014
224	0xbd8ac6a5	-0.0677617
225	0x3e3ebfcd	0.18627854
226	0xbd9a09f7	-0.07521432
227	0x3e219bbc	0.15782064
228	0x3e683591	0.22676684
229	0xbdc40595	-0.09571377
230	0xbde78cc5	-0.113061465
231	0x3e80d360	0.25161266
232	0x3e709a4f	0.23496364
233	0xbd6a1db4	-0.057157233
234	0xbdf54202	-0.119754806
235	0x3e3b8464	0.18312222
236	0x3e5b66a0	0.21425867
237	0xbdd1660e	-0.102245435
238	0xbe1456ae	-0.1448619
239	0x3dd6ab05	0.10481838
240	0x3dd4f532	0.1039833
241	0x3e5f8e54	0.21831638
242	0xbdb3e2c7	-0.08783489
243	0x3dc336bb	0.095319234
244	0x3e1703b2	0.14747503
245	0x3e0443e8	0.12916529
246	0x3c19f1d9	0.00939604
247	0x3b188da0	0.0023277774
248	0x3de71917	0.112840824
249	0x3c3271da	0.010891402
250	0xbcdf48b3	-0.027256345
251	0x3e2a8940	0.16653919
252	0xbd6c5b19	-0.057704065
253	0x3e4024b2	0.18763998
254	0xbe65933c	-0.22419447
255	0x3d17dfdd	0.037078727

fc2.bias f4 [64]
0	0xbc04f8b3	-0.008115935
1	0x3ac51673	0.0015036598
2	0x3d9fa457	0.07795017
3	0xbdcf848a	-0.10132702
4	0x3d295389	0.04133943
5	0x3d9c6caf	0.07637917
6	0x3df933af	0.12168061
7	0x3d12eb45	0.0358689
8	0xbd9cab78	-0.076498926
9	0xbc5e33ff	-0.0135622015
10	0x3b84f8b1	0.0040579666
11	0x3dd3a546	0.10334258
12	0xbd7b1dfa	-0.061307885
13	0xbc9a2cf4	-0.018820263
14	0xbd5c81b6	-0.05383464
15	0xbd1a3d1d	-0.03765594
16	0xbd54f756	-0.05199369
17	0xbcb95da9	-0.022627668
18	0x3d9940f4	0.07483092
19	0xbd830116	-0.063966915
20	0xbd51ca44	-0.051218286
21	0x3d678054	0.056518868
22	0xbd9f7a4e	-0.07787
23	0x3dc522c5	0.096257724
24	0xbd2fe5f6	-0.042943917
25	0x3dae01c2	0.08496429
26	0x3db7f1ec	0.0898169
27	0x3b729dec	0.0037020398
28	0x3e09f094	0.1347068
29	0x3ab51583	0.0013815615
30	0xbd623272	-0.05522389
31	0x3bcf6b13	0.006329903
32	0x3d694bef	0.05695718
33	0x3da1667f	0.07880878
34	0x3d8bf1d1	0.06833232
35	0x3d7566bf	0.05991244
36	0x3d229904	0.03969671
37	0xbd12b250	-0.035814583
38	0x3d2dc5fe	0.04242515
39	0x3d5bafd4	0.05363448
40	0x3dde74ab	0.108620964
41	0x3de84d87	0.11342912
42	0xbda0b9f7	-0.0784797
43	0x3c0d1e2a	0.008613149
44	0xbbe6fb56	-0.0070490045
45	0xba89b794	-0.0010506981
46	0x3cc7b429	0.0243779
47	0x3d9c2db8	0.07625908
48	0xbd6a6808	-0.05722812
49	0x3e222996	0.15836176
50	0xbca046e5	-0.019565055
51	0xbcab73f3	-0.020929312
52	0xbda07a0d	-0.07835779
53	0xbcd379b8	-0.025814876
54	0x3bd03616	0.006354104
55	0xbb89e945	-0.004208716
56	0xbd15dc5e	-0.03658711
57	0x3d5b8f69	0.053603563
58	0x3d3d2b4c	0.04618387
59	0x3db7e3e2	0.08979012
60	0x3d3d4148	0.046204835
61	0xbc7baf67	-0.015361643
62	0x3dd2d170	0.10293853
63	0x3da2907d	0.07937715

fc3.weight f4 [32, 64]
0	0xbc119770	-0.008886203
1	0x3d1d798a	0.038445987
2	0x3d885bc2	0.066581264
3	0x3d58b581	0.05290747
4	0xbde1fe79	-0.11034865
5	0x3dc8a6e1	0.097974546
6	0x3db887ed	0.09010301
7	0x3d023504	0.03178884
8	0x3dcb513b	0.09927603
9	0xbda849a3	-0.0821717
10	0x3b36bedf	0.0027884764
11	0xbdc388f8	-0.09547609
12	0xbd136215	-0.03598221
13	0xbe11d07a	-0.14239684
14	0xbd6ca441	-0.057773832
15	0x3c83d460	0.01609248
16	0xbde7ff3c	-0.11327979
17	0x3d963da6	0.07335977
18	0x3ddf0a33	0.10890617
19	0xbcabc7d0	-0.020969301
20	0x3d91d304	0.07120326
21	0xbd286205	-0.041109104
22	0x3db526be	0.0884528
23	0xbd51d2cd	-0.051226426
24	0xbdad1c54	-0.08452669
25	0xbe0cd7fb	-0.13754265
26	0x3d8b75a6	0.06809549
27	0x3b81ea63	0.0039647087
28	0x3e1708c0	0.14749432
29	0xbc926566	-0.017870616
30	0x3e1c51ff	0.15265654
31	0xbdd4fcbd	-0.103997685
32	0x3e015c0a	0.12632766
33	0x3e0303f4	0.12794477
34	0x3d019d83	0.031644356
35	0x3e088c05	0.13334663
36	0x3b8d12a8	0.0043052025
37	0xbdcbcd80	-0.099513054
38	0x3c50f7f2	0.012754427
39	0x3c7de8a9	0.015497365
40	0x3d907eb1	0.070554145
41	0x3c69ed7a	0.01427781
42	0x3c934d53	0.017981207
43	0xbcac4b42	-0.02103198
44	0xbdcab2a9	-0.09897358
45	0x3e3558fd	0.17709728
46	0x3da7787a	0.08177276
47	0x3e143fc0	0.14477444
48	0x3d0f8664	0.035040274
49	0xbdc58fe2	-0.09646584
50	0x3d7617ca	0.06008128
51	0xbdbf25cf	-0.09333383
52	0x3d5e5db8	0.054288596
53	0x3e36c0f1	0.17847039
54	0x3d14d348	0.036334306
55	0x3d4b2c64	0.04960288
56	0xbd6504ff	-0.055912968
57	0xbe19443e	-0.14967439
58	0x3db5571c	0.088545054
59	0x3d7b9d5a	0.06142936
60	0xbd22b17a	-0.039720036
61	0x3de4c362	0.11170079
62	0x3e265f1e	0.16247222
63	0x3d8aa08e	0.067689046
64	0x3dd0530a	0.101720884
65	0xbcfb3970	-0.030667037
66	0x3c2a77f0	0.010404572
67	0xbda9d756	-0.08293025
68	0xbdfed410	-0.124427915
69	0x3df3fbbe	0.119132504
70	0xbdd4234c	-0.10358295
71	0xbd859a0c	-0.06523523
72	0x3db6b19e	0.089205965
73	0xbc9ae138	-0.01890622
74	0xbdb4a5b4	-0.08820668
75	0xbd9d59fa	-0.07683177
76	0x3d38ae3c	0.045088038
77	0x3c87f998	0.016598508
78	0x3d8094e0	0.06278396
79	0x3d8cda24	0.068775445
80	0xbd358694	-0.044317797
81	0xbcb69440	-0.022287488
82	0x3bee6200	0.007274866
83	0x3dc2d958	0.09514111
84	0xbc5c37f0	-0.013441071
85	0xbbaa0fe0	-0.0051898807
86	0xbdea8b52	-0.114523545
87	0x3c496f50	0.012294605
88	0xbdf8ab94	-0.12142101
89	0x3da696b4	0.08134213
90	0x3bb90060	0.0056457967
91	0x3de8c3de	0.11365484
92	0xbd669a18	-0.0562993
93	0xbd975d3a	-0.073908284
94	0x3b7474c0	0.0037301034
95	0x3cf9ec58	0.030508205
96	0xbdf55c96	-0.1198055
97	0xbd55c094	-0.05218561
98	0x3dc14676	0.094372675
99	0xbdbe43c8	-0.09290272
100	0x3ddfa578	0.109202325
101	0x3de737e6	0.11289959
102	0x3dc7205a	0.097229674
103	0xbb2b6800	-0.0026154518
104	0x3d7c40c0	0.061585188
105	0xbda96f12	-0.08273138
106	0xbdd0a2de	-0.101873145
107	0x3bb7e960	0.0056125373
108	0xbd614420	-0.05499661
109	0xbde4e76e	-0.11176954
110	0x3cabecb8	0.0209869
111	0x3ccfef70	0.025382727
112	0xbdb78de0	-0.089626074
113	0xbd517004	-0.051132217
114	0xbd29101c	-0.04127513
115	0xbcad1cb0	-0.021131843
116	0xbdaa9142	-0.08328487
117	0xbc60f490	-0.013730183
118	0xbdad0d50	-0.08449805
119	0xbdc7b99a	-0.097521976
120	0x3da2cc8c	0.079491705
121	0x3d3f584c	0.046715066
122	0x3cbb34e0	0.022852361
123	0xbd59eab8	-0.05320236
124	0xbdaafc6c	-0.08348927
125	0xbde02e40	-0.109463215
126	0x3d88a562	0.06672169
127	0x3db772ec	0.089574665
128	0x3c3fe996	0.011713406
129	0xbe023f26	-0.12719402
130	0xbd96a1b1	-0.07355059
131	0xbd15724a	-0.036485948
132	0x3caa023d	0.02075302
133	0x3e065cb7	0.13121305
134	0x3de272ed	0.110570766
135	0x3e1837b4	0.14864999
136	0xbc983fb2	-0.01858506
137	0x3e11217b	0.14172928
138	0x3c9cbe08	0.019133583
139	0xbda2a56c	-0.07941708
140	0x3e171c6d	0.14756937
141	0xbe195fab	-0.149779
142	0xbdbf582a	-0.09342988
143	0x3e72e145	0.23718746
144	0xbe36fc27	-0.17869626
145	0x3df30df7	0.11867898
146	0x3e1b2140	0.15149403
147	0x3ddab130	0.10678327
148	0xbdfcf1a0	-0.12350774
149	0xbcd872bf	-0.026421903
150	0xbd7f4f95	-0.062331755
151	0x3cb43d43	0.022001868
152	0x3cea1e22	0.028578822
153	0xbe135962	-0.14389566
154	0xbd15191d	-0.036400903
155	0xbd28f55c	-0.041249618
156	0xbd93ff45	-0.07226423
157	0x3d60b09b	0.054855924
158	0xbcce9937	-0.025219543
159	0x3b739065	0.0037164923
160	0x3df33ca2	0.11876799
161	0x3e1d33a6	0.15351734
162	0x3d6771fd	0.056505192
163	0x3d40224b	0.046907704
164	0x3d5cb532	0.05388374
165	0xbd22536c	-0.03963034
166	0xbd79e985	-0.061013717
167	0x3e2cb13f	0.16864489
168	0xbe2e2cae	-0.17009231
169	0x3e5400c9	0.20703425
170	0xbdd2c3db	-0.10291263
171	0xbd40dbee	-0.04708474
172	0xbdaa6f29	-0.08321983
173	0x3db634ac	0.08896765
174	0x3d45305a	0.048141815
175	0x3da5f398	0.081031024
176	0x3ddc3200	0.10751724
177	0xbd0f2a5e	-0.034952514
178	0xbd09afa5	-0.033614773
179	0x3d3ab5fa	0.045583703
180	0x3d50a779	0.050940964
181	0x3db74054	0.089478165
182	0x3da5a75e	0.080885634
183	0x3e4b5e98	0.19860303
184	0x3c8dc8b0	0.01730761
185	0xbd963dc3	-0.07335999
186	0x3bf2f686	0.007414642
187	0x3bb16fcb	0.005414938
188	0x3e414668	0.18874514
189	0x3d7acdaa	0.061231293
190	0x3d31230e	0.04324632
191	0x3bc13391	0.00589604
192	0xbdd4abf4	-0.1038436
193	0x3c63563a	0.0138755385
194	0xbbb3f3a3	-0.0054916902
195	0xbd755288	-0.05989316
196	0x3d877aeb	0.066152416
197	0x3d250c04	0.040294662
198	0xbd8961b8	-0.067080915
199	0x3e2e09d9	0.16995944
200	0x3e1f9940	0.15585804
201	0x3d2ab625	0.041677613
202	0xbd848ae7	-0.06471806
203	0x3d429cce	0.04751282
204	0x3e5a9220	0.21344805
205	0xbe0bebcf	-0.13664173
206	0x3d3bb345	0.04582526
207	0x3d1b0952	0.037850685
208	0xbb2b9f24	-0.0026187385
209	0x3e2a1730	0.16610408
210	0x3cea6384	0.028611906
211	0x3cebca80	0.028783083
212	0xbdd2e583	-0.10297682
213	0xbd091d72	-0.033475347
214	0xbd3a3ace	-0.045466237
215	0x3de8f25a	0.1137435
216	0x3daa9a74	0.08330241
217	0xbe1b440d	-0.15162678
218	0xbddd15d0	-0.10795176
219	0xbd265fd5	-0.040618736
220	0x3d519f71	0.051177446
221	0xbdad3de7	-0.084590726
222	0x3b98a8ca	0.004658793
223	0xbc386aef	-0.011255964
224	0x3e4e602d	0.20153876
225	0x3e60958d	0.21932049
226	0x3e2696ca	0.16268459
227	0x3d61dc6b	0.055141848
228	0xbd177b41	-0.03698278
229	0x3cb31add	0.021863395
230	0xbd410fbf	-0.047134157
231	0x3d8ab1ac	0.067721695
232	0xbd96d62c	-0.07365069
233	0x3e1d0964	0.15335613
234	0x3d2a85c3	0.04163147
235	0xbe30aef6	-0.17254242
236	0xbd788363	-0.060672175
237	0xb86203b4	-5.3886048e-05
238	0xbd1e343b	-0.03862403
239	0xbd14eca9	-0.03635851
240	0x3e02f294	0.12787849
241	0xbd4327cf	-0.047645386
242	0xbddd9c78	-0.1082086
243	0x3dbdcf87	0.09268098
244	0x3b9ef237	0.0048506516
245	0x3e2d21e8	0.16907465
246	0x39c961fc	0.00038410712
247	0x3e0e8e7a	0.13921538
248	0x3d864b3f	0.06557321
249	0xbd52288b	-0.051308196
250	0x3e130724	0.14358193
251	0xbdd95f42	-0.10613872
252	0x3e1fac72	0.15593126
253	0xbb0359ba	-0.0020042495
254	0x3d7c810a	0.0616465
255	0x3d68efe5	0.056869406

fc3.bias f4 [32]
0	0xbd559b05	-0.05214979
1	0xbd83aa46	-0.064289615
2	0x3d2a0be8	0.04151526
3	0xbd199e12	-0.037504263
4	0x3c58845e	0.013215153
5	0xbdbc41cd	-0.09192238
6	0x3d39d7e5	0.04537191
7	0x3d8dcf85	0.06924347
8	0x3e060365	0.13087232
9	0x3dbb7066	0.09152298
10	0x3dc2fc7c	0.09520814
11	0xbd8c4e40	-0.068508625
12	0x3de65dee	0.112483844
13	0xbd006edd	-0.031355727
14	0x3d2f0c3a	0.04273627
15	0x3d0fab71	0.03507561
16	0xbba7a9a0	-0.0051166564
17	0x3b83e4e6	0.0040250896
18	0xbd22715e	-0.039658897
19	0x3bb20f06	0.00543392
20	0xbd65adea	-0.05607406
21	0xbd3eff5f	-0.04663026
22	0x3df04dfe	0.11733626
23	0xbddf7a44	-0.10911992
24	0xbd2f42c4	-0.042788282
25	0x3d485479	0.048908684
26	0xbd37e28b	-0.044893783
27	0x3d8f5d03	0.070001625
28	0x3d8bcf09	0.06826598
29	0xbdbf584c	-0.09343013
30	0xbcb329f8	-0.021870598
31	0x3d006ae6	0.031351946

fc4.weight f4 [2, 32]
0	0xbe8216fc	-0.2540816
1	0xbdedbe62	-0.11608578
2	0xbd07bbe5	-0.033138175
3	0xbda216a3	-0.07914474
4	0xbe3c58de	-0.18393275
5	0x3d38176a	0.044944204
6	0x3eacda31	0.33760217
7	0x3e1d2c95	0.15349038
8	0xbe8bf59b	-0.2733582
9	0x3eb9a8ee	0.36261696
10	0x3ddc44c9	0.10755307
11	0x3ea869e4	0.32893288
12	0x3e4764bf	0.19472025
13	0x3db21a2a	0.08696397
14	0xbe7f0314	-0.24903518
15	0xbe942a89	-0.28938702
16	0xbe90bdd7	-0.28269836
17	0xbeab3c5f	-0.33444497
18	0xbebace78	-0.36485648
19	0xbea2beb9	-0.31786135
20	0xbd4c2573	-0.0498404
21	0x3df3aa5d	0.118977286
22	0xbe1b26ec	-0.15151566
23	0xbbfea78d	-0.0077714385
24	0x3dea07bb	0.11427256
25	0x3eb09948	0.34491944
26	0xbe84fee3	-0.25975713
27	0xbe7793d8	-0.24177492
28	0xbe1bc3c8	-0.15211403
29	0x3e5962e1	0.21229126
30	0xbe5aedc6	-0.21379766
31	0xbe7a9289	-0.24469961
32	0x3e0e9a9c	0.13926166
33	0xbdd39770	-0.10331619
34	0x3ea71f3c	0.32641017
35	0x3e9013e9	0.2814019
36	0x3ea01bcd	0.3127121
37	0x3d0a6c21	0.033794526
38	0xbe279aea	-0.16367689
39	0xbe8f5948	-0.27997804
40	0x3e19d66c	0.15023202
41	0xbe74aba5	-0.23893602
42	0xbeb98e7e	-0.36241525
43	0xbe8f6fce	-0.28014988
44	0xbe869160	-0.26282787
45	0xbeb6c08a	-0.3569377
46	0x3e0387b2	0.12844732
47	0x3e69ea5a	0.22843304
48	0x3e91d907	0.2848589
49	0x3e61e2e7	0.22059213
50	0x3eb820f6	0.35962647
51	0x3e0c6f26	0.13714275
52	0xbdba3773	-0.09092607
53	0xbe17e994	-0.14835197
54	0x3e55726e	0.20844433
55	0x3e08261f	0.13295792
56	0xbda72404	-0.08161166
57	0xbdf1afef	-0.11801135
58	0x3e5b3403	0.2140656
59	0x3eb188f5	0.34674802
60	0x3e4255e4	0.18978077
61	0xbd813e47	-0.063107066
62	0xbd5f8a1e	-0.05457508
63	0x3e90a763	0.28252706

fc4.bias f4 [2]
0	0x3d946171	0.07245148
1	0x3d56d673	0.05245061
