checkpoint/model-fold-6.pt (torch, 446799 bytes, 8 tensors)

fc1.weight f4 [100, 1024]
0.034382816 0.06058926 -0.017222548 -0.0076010693 0.036207043 0.020601397 -0.036305387 -0.08613533
-0.026091339 -0.068683766 0.01982603 -0.020322181 0.04927516 0.004922028 -0.053742867 0.028180638
-0.039187014 0.02795553 0.026223678 0.011022419 -0.031229286 0.015314879 0.030913116 0.019796629
-0.098950535 0.0016911167 -0.031611558 0.04446422 0.015804542 -0.061215863 -0.09296633 -0.011675502
-0.0032151095 -0.015898952 0.035144754 0.022091413 -0.0039626504 -0.037494767 -0.002888621 -0.018094353
0.028835628 0.010482443 0.046573326 0.030659113 -0.018316064 -0.040407863 0.043458544 0.033441402
0.04245016 0.02783011 -0.069817096 -0.006037703 -0.008307251 -0.049775593 -0.007156907 -0.029815564
0.0080151595 0.009881739 0.0130488565 0.053432878 -0.0070996736 -0.02697776 0.025530808 0.0020421648
0.0326253 0.031965576 0.030768786 -0.009232895 -0.021297015 -0.024540922 -0.05308467 0.054591946
-0.0032600805 -0.055786826 -0.02073062 -0.049697183 -0.039722692 0.017919846 0.020406594 0.036752198
-0.05001858 -0.018951783 0.07477925 -0.11229775 0.038873058 -0.01246861 -0.017753331 -0.031321276
0.005516115 -0.0015513592 0.024406735 -0.0076864953 -0.061519388 -0.012433017 -0.044298165 -0.04875911
0.07711025 -0.00672845 0.013511535 -0.044402618 0.022517784 -0.04097561 -0.018801799 0.012183908
0.023821115 -0.051181965 -0.013522617 -0.031742077 -0.04464079 0.0044911215 0.09565475 -0.010983663
0.073429585 0.02423644 -0.0011976821 -0.07345882 -0.0085808495 -0.036917 -0.034977075 -0.03638815
0.05645603 0.029893726 -0.028395312 -0.02531946 0.0052057146 -0.041547105 -0.022132212 -0.02476187
-0.061294448 -0.016296742 -0.009401773 0.043946374 -0.052978467 0.024345478 0.046981562 0.04630286
0.017038004 -0.031443734 0.08186794 0.02102337 -0.009117011 -0.026836557 0.021085061 -0.050127104
0.022270288 0.03820458 -0.013559593 0.053851947 -0.0092918025 -0.08972325 0.008284803 -0.018424636
-0.011975488 -0.06999037 -0.028093895 -0.067164086 0.05488533 0.02223175 0.0070154765 -0.0018643128
-0.05067659 0.03211751 0.014834736 -0.038780432 0.049286157 0.029073864 -0.08163358 0.02519778
-0.027770458 -0.025664749 -0.030432332 0.009878752 0.00076143484 0.012921543 -0.038083415 -0.015339311
-0.055600483 -0.031343676 -0.031557813 0.012614128 0.042558134 0.0040549594 -0.048044443 -0.029233389
0.00743127 0.018810831 -0.014642658 -0.01376115 0.05721035 0.019136015 0.09921274 -0.11163675
-0.02078741 0.04209146 0.03697548 0.02197235 0.049153723 -0.013101953 -0.05359346 0.031948823
-0.02339827 0.0024759986 0.0005918834 -0.08179678 0.016657736 0.010352421 0.01926328 -0.0061354274
-0.029899033 0.016566422 0.013435797 0.032866474 -0.06882999 -0.029831931 -0.0186335 -0.0010978545
0.040869355 0.010395354 -0.08503089 -0.044723164 0.009366066 -0.03246135 0.042218212 0.015759839
-0.037190598 0.040219855 0.030021304 0.05439558 -0.07478861 0.0689044 0.016801033 -0.016478539
-0.024593635 -0.009393198 0.013630855 0.032775898 -0.023091469 -0.09008348 -0.023570793 0.07952743
-0.012856906 -0.04712785 -0.03975777 -0.009217657 0.004472881 0.065601215 -0.02753704 0.017540062
0.021228343 -0.031995524 0.0855624 -0.017210647 0.0073250383 -0.0058587277 0.014334531 -0.061691448
00000000: ffd4 0c3d 722c 783d 4d16 8dbc 6412 f9bb
00000010: d64d 143d 43c4 a83c f5b4 14bd b867 b0bd
00000020: 81bd d5bc 13aa 8cbd 336a a23c b47a a6bc
00000030: c0d4 493d f748 a13b 7b21 5cbd 15db e63c
00000040: 9082 20bd ff02 e53c 0ad3 d63c 6097 343c
00000050: 8fd4 ffbc 42eb 7a3c 813d fd3c 8a2c a23c
00000060: 94a6 cabd 76a8 dd3a 1f7b 01bd 1d20 363d
00000070: 8778 813c 7cbd 7abd 2265 bebd 9b4a 3fbc
00000080: 96b4 52bb 853e 82bc f2f3 0f3d 0df9 b43c
00000090: 1fd9 81bb 1d94 19bd 054f 3dbb 9c3a 94bc
000000a0: b238 ec3c 8dbe 2b3c acc3 3e3d d228 fb3c
000000b0: 920b 96bc b782 25bd 9601 323d daf9 083d
000000c0: 38e0 2d3d f9fb e33c 44fc 8ebd ecd7 c5bb
000000d0: 231b 08bc 7ee1 4bbd 7d84 eabb c53f f4bc
000000e0: 0452 033c 04e7 213c dfca 553c 6fdc 5a3d
000000f0: 61a4 e8bb 7700 ddbc fc25 d13c d7d5 053b
00000100: 1ba2 053d 56ee 023d d20e fc3c 9245 17bc
00000110: 1477 aebc 0b0a c9bc 506f 59bd ce9b 5f3d
00000120: 13a7 55bb ba80 64bd 43d3 a9bc 468f 4bbd
00000130: 43b4 22bd a4cc 923c bb2b a73c 7989 163d
00000140: 48e0 4cbd c540 9bbc dd25 993d 5dfc e5bd
00000150: 5b39 1f3d 2449 4cbc 6f6f 91bc bd4a 00bd
00000160: 87c0 b43b fa56 cbba a2f0 c73c ffde fbbb
00000170: c1fb 7bbd dab3 4bbc fe71 35bd a2b7 47bd
00000180: fbeb 9d3d 547a dcbb 7c5f 5d3c 85df 35bd
00000190: 3777 b83c 0bd6 27bd 3b06 9abc 049f 473c
000001a0: 8024 c33c 2ea4 51bd f78d 5dbc fb03 02bd
000001b0: 43d9 36bd 422a 933b a3e6 c33d d2f4 33bc
000001c0: 4062 963d 808b c63c 8bfb 9cba 9471 96bd
000001d0: b196 0cbc 4836 17bd 1f44 0fbd be0b 15bd
000001e0: 703e 673d b0e3 f43c 499d e8bc c26a cfbc
000001f0: b394 aa3b 4c2d 2abd 9d4e b5bc 68d9 cabc
00000200: e30f 7bbd bf80 85bc e509 1abc 1d01 343d
00000210: f3ff 58bd 2b70 c73c bd6f 403d 11a8 3d3d
00000220: 4993 8b3c 25cb 00bd 61aa a73d 3439 ac3c
00000230: 845f 15bc 57d8 dbbc 94ba ac3c 1452 4dbd
00000240: 2e70 b63c 687c 1c3d 0e29 5ebc dc93 5c3d
00000250: a53c 18bc d3c0 b7bd fbbc 073c 43ef 96bc
00000260: d634 44bc 1c57 8fbd 2b25 e6bc 538d 89bd
00000270: 71cf 603d 5c1f b63c 15e2 e53b f55b f4ba
00000280: 4292 4fbd a68d 033d 640d 733c 3bd8 1ebd
00000290: 48e0 493d 502c ee3c 822f a7bd 936b ce3c
000002a0: df7e e3bc e13e d2bc 3a4d f9bc 7dda 213c
000002b0: 079b 473a e1b4 533c 5bfd 1bbd bc51 7bbc
000002c0: 55bd 63bd 3a62 00bd c442 01bd 7dab 4e3c
000002d0: 7051 2e3d 77df 843b 40ca 44bd dc7a efbc
000002e0: 0382 f33b 2c19 9a3c c2e7 6fbc 7276 61bc
000002f0: 6655 6a3d 22c3 9c3c 0d30 cb3d cfa1 e4bd
00000300: 5c4a aabc 1868 2c3d 9a73 173d 5cff b33c
00000310: 6a55 493d 93a9 56bc d184 5bbd c5dc 023d
00000320: bbad bfbc 5d44 223b 9f28 1b3a 1285 a7bd
00000330: ce75 883c 339d 293c 07ce 9d3c b20b c9bb
00000340: d1ee f4bc 4eb6 873c d121 5c3c ff9e 063d
00000350: bdf6 8cbd 1862 f4bc 48a5 98bc e2e5 8fba
00000360: a066 273d 4651 2a3c ad24 aebd a32f 37bd
00000370: 2174 193c 31f6 04bd 01ed 2c3d c71a 813c
00000380: 2b55 18bd 93bd 243d 3def f53c e6cd 5e3d
00000390: c52a 99bd c01d 8d3d 52a2 893c 00fe 86bc
000003a0: 9778 c9bc eee5 19bc f353 5f3c 0540 063d
000003b0: 522a bdbc b07d b8bd 8917 c1bc 47df a23d
000003c0: c6a5 52bc 2209 41bd 0bd9 22bd a805 17bc
000003d0: 3f91 923b ee59 863d 5c95 e1bc 2db0 8f3c
000003e0: 10e7 ad3c bd0d 03bd 573b af3d 58fd 8cbc
000003f0: e006 f03b 92fa bfbb 61db 6a3c 2cb0 7cbd

fc1.bias f4 [100]
0.024909833 0.01963473 -0.004333999 -0.020775182 0.0067989663 0.024402222 0.0042640367 -0.011756413
0.004264251 0.002238029 0.038607676 0.026756333 0.01219586 -0.011437026 -0.016461119 -0.007680607
-0.018553548 -0.00015498005 -0.02764886 -0.017436655 0.02894426 -0.016997293 0.04468797 0.015326475
-0.011285485 0.036236595 -0.023994934 0.01601875 0.013759213 0.01429126 -0.016021598 0.035471834
0.032685116 0.017643724 -0.024602925 -0.028671622 0.009261075 0.009459104 -0.029855974 0.017414607
0.01402198 0.018817822 -0.025845142 0.006248288 0.024015618 -0.015019356 0.0028290525 0.029471822
-0.012635324 0.05863395 -0.017560255 -0.015745759 0.032720134 -0.022382801 0.0018418063 0.02638849
0.013595252 0.0026929914 0.03109368 -0.003915627 -0.026278052 0.029700538 -0.0025212318 -0.015405502
-0.0039085355 -0.009111016 -0.015647726 0.029359873 -0.0117211025 -0.006521029 0.0043587526 0.026296534
-0.005964201 0.026734384 -0.033438608 -0.021212146 0.022638032 0.023220826 0.002643707 0.014252627
0.024728164 -0.018278185 0.02718734 -0.021902462 0.022280622 0.0472117 0.020141726 -0.017123954
0.032029364 0.021394184 -0.019691572 -0.014977169 0.0025529042 -0.013104093 0.015082832 0.0070216046
-0.0009302571 -0.0014729465 -0.021079592 -0.008366741
00000000: b50f cc3c 03d9 a03c 3804 8ebb b730 aabc
00000010: ddc9 de3b 2be7 c73c 55b9 8b3b f89d 40bc
00000020: 21bb 8b3b e5ab 123b 1523 1e3d 1930 db3c
00000030: 25d1 473c 5d62 3bbc 78d9 86bc 9aad fbbb
00000040: 9cfd 97bc 2482 22b9 dd7f e2bc 51d7 8ebc
00000050: 831c ed3c e83d 8bbc bc0a 373d e51b 7b3c
00000060: c1e6 38bc d36c 143d 0691 c4bc c139 833c
00000070: 526e 613c e425 6a3c ba3f 83bc ea4a 113d
00000080: d4e0 053d 9289 903c 138c c9bc c0e0 eabc
00000090: c4bb 173c 5cfa 1a3c 8494 f4bc 14a9 8e3c
000000a0: 72bc 653c d527 9a3c 31b9 d3bc 70be cc3b
000000b0: 67bc c43c bf13 76bc a067 393b e46e f13c
000000c0: 6404 4fbc 272a 703d 86da 8fbc 40fd 80bc
000000d0: 8c05 063d 235c b7bc c468 f13a ad2c d83c
000000e0: 9fbe 5e3c e67c 303b 2cb8 fe3c a94e 80bb
000000f0: 1245 d7bc 8b4e f33c 403b 25bb 5c67 7cbc
00000100: 2c13 80bb 5f46 15bc a92f 80bc 1e84 f03c
00000110: de09 40bc 5bae d5bb ded3 8e3b d46b d73c
00000120: 586f c3bb 1102 db3c ecf6 08bd 18c5 adbc
00000130: 6573 b93c 9a39 be3c 0b42 2d3b da83 693c
00000140: b892 ca3c 22bc 95bc fcb7 de3c cb6c b3bc
00000150: da85 b63c 0e61 413d 4300 a53c 8947 8cbc
00000160: 3931 033d db42 af3c 3850 a1bc cd62 75bc
00000170: a04e 273b 8db2 56bc fc1d 773c 7d15 e63b
00000180: 7fdc 73ba e20f c1ba 1caf acbc a814 09bc

fc2.weight f4 [64, 100]
0.11782698 -0.008760901 -0.17586614 0.13801585 0.040351834 0.25039098 0.15547693 -0.09051305
0.20082614 -0.016988454 0.09445545 0.15422924 -0.06451742 0.08020458 0.051532056 -0.029580105
0.24062875 -0.15837231 -0.004744271 -0.055928662 0.28271472 0.19124998 0.12160565 -0.0009559672
0.06574314 0.20408586 0.09717786 0.11579173 0.19000883 -0.034374513 -0.23253326 0.20984787
0.14286874 0.061801195 -0.20864794 0.3211893 0.3617752 -0.24006747 -0.24026598 0.2817718
0.1892072 0.2913913 -0.20215333 -0.021488734 0.016949022 0.31539893 -0.12264498 -0.045351695
0.37221032 0.094018236 0.006339995 0.30718845 -0.09211297 0.31669372 -0.23391128 0.18904647
0.05493006 0.017400503 0.15962939 0.3287417 0.10479527 0.18210582 -0.026435435 0.08282558
-0.28334808 -0.039566863 0.29495046 0.11091886 0.20591174 0.13864039 0.28183332 -0.17195503
0.061257984 0.16647261 -0.10120563 -0.042574346 0.19604608 -0.18810561 -0.019443564 0.17242312
0.23549595 0.20955315 0.07863038 -0.15612823 -0.042627946 -0.05385801 0.2730082 -0.04877915
0.18573444 0.29538223 0.31541917 0.22867937 -0.0036768795 0.15300675 0.038798966 0.07580339
0.23368178 0.23713413 0.13109447 -0.025764083 0.0032833987 0.07914002 -0.0067054317 0.13804393
0.0219212 0.24087116 0.058549162 0.04105549 0.19405116 -0.01379335 0.091693856 0.27383843
0.016095484 -0.0858846 -0.097820215 -0.023284495 0.27821255 -0.10238171 0.04628137 -0.010249536
0.30857527 0.17263854 -0.055639677 -0.059550595 -0.024537278 0.16468447 -0.037048053 0.10033117
0.22338879 -0.084603146 -0.19778664 0.33399183 0.21753137 0.08937813 -0.1003884 0.20366186
0.34966785 -0.0796186 -0.20188983 0.22482944 0.17022571 0.17047872 -0.11176315 0.027952826
0.07243554 0.49400386 -0.026316972 0.037581783 0.34293458 0.021915156 -0.07927548 0.11739221
-0.12040987 0.17309122 -0.086050265 0.21744819 0.031899247 -0.013929171 0.1674813 0.15194103
0.29328713 0.12479511 -0.0930661 0.05251342 -0.24753875 0.09892174 0.22645082 -0.055587072
0.15000357 0.08068497 0.26092437 -0.03424324 -0.020946944 0.23000358 -0.040276006 0.08172595
0.10542724 -0.1866556 -0.0028155022 0.15799388 0.21358933 0.21886417 0.16143185 -0.21073583
0.13340192 0.00034669464 0.1694955 0.090117134 0.21753734 0.1694289 0.23215072 0.1821408
0.0631903 0.13980612 0.0069699935 0.015132631 0.09985956 0.25882614 0.22169933 0.026292596
0.106367394 0.038980845 -0.07032971 0.26643345 0.040350713 0.27510792 -0.020433553 0.060415722
0.21192975 -0.15458094 0.025412858 0.2214494 0.06808291 -0.011230842 0.09669735 -0.06779242
0.19186504 -0.14823449 -0.15276104 -0.14241011 0.28791597 0.15100643 -0.03568105 0.09569014
-0.0677617 0.22540717 -0.07521432 0.20268704 0.2603429 -0.1433166 -0.18768522 0.33488104
0.27569944 -0.05736554 -0.1643005 0.2613081 0.32704097 -0.15922071 -0.2434417 0.16317178
0.16733009 0.2694817 -0.11599287 0.095319234 0.15512449 0.28379244 -0.02747879 0.006811536
0.256278 0.010486388 -0.027256345 0.20992433 -0.12449709 0.2569047 -0.3133967 0.072422005
00000000: 464f f13d e289 0fbc 4116 34be 0754 0d3e
00000010: f747 253d 3f33 803e 5835 1f3e e85e b9bd
00000020: 5ea5 4d3e 5f2b 8bbc dc71 c13d 45ee 1d3e
00000030: b621 84bd 4d42 a43d 4713 533d fa51 f2bc
00000040: 6267 763e 5a2c 22be d475 9bbb 7415 65bd
00000050: fcbf 903e 09d7 433e 620c f93d df99 7aba
00000060: 57a4 863d e2fb 503e 3005 c73d 3724 ed3d
00000070: ad91 423e 4acc 0cbd 331d 6ebe 5ce2 563e
00000080: 2f4c 123e 4023 7d3d cea7 55be ed72 a43e
00000090: 993a b93e 3fd4 75be 4908 76be 6544 903e
000000a0: 88bf 413e 3e31 953e 4801 4fbe 2409 b0bc
000000b0: add8 8a3c f87b a13e 4b2d fbbd b3c2 39bd
000000c0: 5a92 be3e a28c c03d bcbf cf3b ce47 9d3e
000000d0: baa5 bcbd ae25 a23e 7086 6fbe 6695 413e
000000e0: 58fe 603d 808b 8e3c e375 233e d550 a83e
000000f0: e79e d63d f379 3a3e 208f d8bc 75a0 a93d
00000100: 0013 91be dd10 22bd bf03 973e 6d29 e33d
00000110: 87da 523e bff7 0d3e 754c 903e fb14 30be
00000120: a7e9 7a3d cc77 2a3e e644 cfbd 7062 2ebd
00000130: 4ec0 483e c29e 40be 1c48 9fbc b08f 303e
00000140: da25 713e 1a95 563e f708 a13d 14e0 1fbe
00000150: a49a 2ebd 379a 5cbd bbc7 8b3e a5cc 47bd
00000160: 2b31 3e3e 573c 973e 9f7e a13e ed2a 6a3e
00000170: cdf7 70bb cdad 1c3e aaeb 1e3d cf3e 9b3d
00000180: 474a 6f3e 4ad3 723e a13d 063e 330f d3bc
00000190: 4a2e 573b 2a14 a23d 3db9 dbbb 635b 0d3e
000001a0: 1794 b33c eea6 763e 3fd1 6f3d cd29 283d
000001b0: 59b5 463e 81fd 61bc fdc9 bb3d 8d34 8c3e
000001c0: adda 833c 44e4 afbd f755 c8bd 20bf bebc
000001d0: e071 8e3e 81ad d1bd 8991 3d3d abed 27bc
000001e0: 94fd 9d3e 28c8 303e 6ee6 63bd 53eb 73bd
000001f0: 6702 c9bc 0ca3 283e b3bf 17bd 6e7a cd3d
00000200: 08c0 643e 6a44 adbd 9588 4abe fa00 ab3e
00000210: 8bc0 5e3e e20b b73d 6f98 cdbd bc8c 503e
00000220: aa07 b33e 140f a3bd 35bc 4ebe b039 663e
00000230: a64f 2e3e f991 2e3e 14e4 e4bd 53fd e43c
00000240: 1659 943d 13ee fc3e b196 d7bc 5bef 193d
00000250: 1f95 af3e 6a87 b33c 2f5b a2bd 546b f03d
00000260: 7399 f6bd d33e 313e 1f3b b0bd bdaa 5e3e
00000270: c9a8 023d 2d37 64bc 3880 2b3e 6e96 1b3e
00000280: bb29 963e 9494 ff3d 7099 bebd 5018 573d
00000290: cc7a 7dbe 7b97 ca3d b9e2 673e 45af 63bd
000002a0: 899a 193e 293e a53d e197 853e a442 0cbd
000002b0: ed98 abbc 0f86 6b3e 74f8 24bd ef5f a73d
000002c0: 3dea d73d a522 3fbe 4a84 38bb 26c9 213e
000002d0: 29b7 5a3e ee1d 603e 644e 253e 22cb 57be
000002e0: 839a 083e 91c4 b539 3a90 2d3e 558f b83d
000002f0: 1cc2 5e3e c57e 2d3e ebb8 6d3e 1e83 3a3e
00000300: ea69 813d 5629 0f3e 8b64 e43b dbee 773c
00000310: 2b83 cc3d dc84 843e 2605 633e 9263 d73c
00000320: 26d7 d93d 61aa 1f3d 0609 90bd f769 883e
00000330: ca46 253d f2da 8c3e 4464 a7bc 7a76 773d
00000340: 1d04 593e 774a 1ebe a02e d03c a2c3 623e
00000350: 0d6f 8b3d 9101 38bc 4309 c63d c1d6 8abd
00000360: 4578 443e c8ca 17be 646d 1cbe f5d3 11be
00000370: b969 933e 6ea1 1a3e 4b26 12bd 31f9 c33d
00000380: a5c6 8abd 23d1 663e f709 9abd 318d 4f3e
00000390: aa4b 853e 96c1 12be 8e30 40be 8775 ab3e
000003a0: 7a28 8d3e 21f8 6abd 643e 28be 2dca 853e
000003b0: ea71 a73e c10a 23be c848 79be 8116 273e
000003c0: 9458 2b3e 81f9 893e ab8d edbd bb36 c33d
000003d0: f4d8 1e3e 3e4d 913e 331b e1bc 4e33 df3b
000003e0: df36 833e 19cf 2b3c b348 dfbc 67f6 563e
000003f0: 55f8 febd 0389 833e 8875 a0be fd51 943d

fc2.bias f4 [64]
-0.01482732 -0.0048508854 0.07125863 -0.11015726 0.03504059 0.08460292 0.13232885 0.043925315
-0.064244084 -0.002970982 -0.0036980924 0.10189736 -0.05147102 -0.020645676 -0.05851502 -0.028947117
-0.059586298 -0.009709966 0.08210655 -0.06397089 -0.057393897 0.049731415 -0.07986043 0.1036056
-0.04826893 0.07988579 0.082961306 -0.0029795854 0.14319113 -0.0059338314 -0.04665877 0.00038372
0.06722429 0.08667651 0.07623324 0.06778456 0.047437813 -0.04018747 0.03543023 0.0607011
0.1015806 0.121765874 -0.0838705 0.0051520574 -0.014381655 0.0086646555 0.02269217 0.08370657
-0.04828378 0.1508162 -0.021425823 -0.02049191 -0.06450517 -0.014048744 0.02788561 0.003933801
-0.028807277 0.046228707 0.057990335 0.08367464 0.05415405 -0.004703037 0.11241926 0.08762867
00000000: 4aee 72bc 2df4 9ebb 0bf0 913d 219a e1bd
00000010: b986 0f3d 4c44 ad3d 3781 073e 08eb 333d
00000020: 6792 83bd cfb4 42bb b25b 72bb 90af d03d
00000030: 47d3 52bd 1f21 a9bc 72ad 6fbd 8122 edbc
00000040: c310 74bd 8d16 1fbc 7b27 a83d 2c03 83bd
00000050: dd15 6bbd 2bb3 4b3d dd8d a3bd 2c2f d43d
00000060: a4b5 45bd 299b a33d 9ee7 a93d 2645 43bb
00000070: b2a0 123e 9670 c2bb 441d 3fbd 072e c939
00000080: e3ac 893d 7483 b13d 2c20 9c3d a2d2 8a3d
00000090: 274e 423d 9e9b 24bd 4a1f 113d b7a1 783d
000000a0: 7d09 d03d 6360 f93d 4cc4 abbd 97d2 a83b
000000b0: 08a1 6bbc 33f6 0d3c eee4 b93c 5a6e ab3d
000000c0: 37c5 45bd 906f 1a3e 3585 afbc a6de a7bc
000000d0: 491b 84bd b42c 66bc 5d70 e43c 1de7 803b
000000e0: 3dfd ebbc 505a 3d3d 4687 6d3d 9c5d ab3d
000000f0: a3d0 5d3d ef1b 9abb 123c e63d a976 b33d

fc3.weight f4 [32, 64]
-0.02535697 0.016011389 0.035942316 0.06700661 -0.14094403 0.15918034 0.10401382 0.054712906
0.1575053 -0.0602326 -0.025685186 -0.09215837 0.016027372 -0.19731556 -0.111840166 0.06420951
-0.1598871 0.1459632 0.13920277 -0.020969301 0.05874217 -0.06994489 0.08968009 -0.031845186
-0.12618019 -0.18104018 0.047696296 -0.027430592 0.16396464 -0.050857652 0.1966565 -0.11581597
0.19082817 0.17145808 0.069835484 0.17481586 0.050436594 -0.14772223 -0.012584203 0.04499311
0.047596056 0.059834413 -0.021236002 -0.060590092 -0.12961914 0.22932349 0.08196835 0.17651972
0.07161206 -0.10206242 0.008633586 -0.09333383 0.10805764 0.24417005 0.09287586 0.08279311
-0.030481176 -0.17996256 0.15817557 0.030852767 0.0043600667 0.1740608 0.2273706 0.11769395
0.101720884 -0.030667037 0.010404572 -0.08293025 -0.124427915 0.119132504 -0.10358295 -0.06523523
0.089205965 -0.01890622 -0.08820668 -0.07683177 0.045088038 0.016598508 0.06278396 0.068775445
-0.044317797 -0.022287488 0.007274866 0.09514111 -0.013441071 -0.0051898807 -0.114523545 0.012294605
-0.12142101 0.08134213 0.0056457967 0.11365484 -0.0562993 -0.073908284 0.0037301034 0.030508205
-0.1198055 -0.05218561 0.094372675 -0.09290272 0.109202325 0.11289959 0.097229674 -0.0026154518
0.061585188 -0.08273138 -0.101873145 0.0056125373 -0.05499661 -0.11176954 0.0209869 0.025382727
-0.089626074 -0.051132217 -0.04127513 -0.021131843 -0.08328487 -0.013730183 -0.08449805 -0.097521976
0.079491705 0.046715066 0.022852361 -0.05320236 -0.08348927 -0.109463215 0.06672169 0.089574665
-0.008777685 -0.15390357 -0.1079536 -0.023150843 -0.013815027 0.18492511 0.11923774 0.1660491
0.03396392 0.1577154 -0.014401346 -0.08108585 0.1934369 -0.20951554 -0.1513881 0.27936497
-0.22975542 0.18583106 0.17558293 0.10678327 -0.14001445 -0.05846329 -0.06053115 0.03614564
-0.017132731 -0.19103731 -0.06033708 -0.07597311 -0.060485408 0.01773377 0.01316118 -0.013060487
0.17825665 0.19083525 0.089154124 0.08213124 0.094317645 -0.09026499 -0.0903066 0.1919798
-0.19705868 0.24698915 -0.144578 -0.09139974 -0.11839579 0.13519254 0.048331857 0.10716091
0.13857481 -0.045487642 -0.08805357 0.045583703 0.10329548 0.15173975 0.13278757 0.2268395
0.036640145 -0.10701117 0.07121268 -0.027220448 0.22655994 0.11888158 0.10211908 0.051331438
-0.1204279 -0.01004413 -0.036113635 -0.046332743 0.03460427 0.09942744 -0.053802293 0.19182418
0.21398672 0.061797384 -0.09425321 0.0501403 0.2647807 -0.19465119 -0.009095014 0.08491004
-0.050581265 0.23855388 0.05723216 0.028783083 -0.11548974 -0.061954863 -0.04402566 0.13282336
0.040611 -0.19521818 -0.12800445 -0.07211144 0.06723406 -0.11881317 0.04826196 -0.024020564
0.26614597 0.26155558 0.20007046 0.0952185 0.008578174 -0.026043145 -0.07237504 0.095878445
-0.09710589 0.19826084 0.0034347156 -0.21383102 -0.09277912 0.050969057 -0.03843441 -0.004901675
0.16399363 -0.05413528 -0.16038214 0.09268098 0.059914146 0.2369018 0.05359773 0.17233755
0.08949118 -0.081117295 0.21242921 -0.13503443 0.19824046 0.060936302 0.12648652 0.10758091
00000000: 6cb9 cfbc 512a 833c 4038 133d c33a 893d
00000010: a253 10be 2c00 233e 3305 d53d a41a 603d
00000020: 1249 213e 75b6 76bd bd69 d2bc 87bd bcbd
00000030: d64b 833c 170d 4abe 750c e5bd 4780 833d
00000040: 72b9 23be 6177 153e 2c8b 0e3e d0c7 abbc
00000050: a19b 703d 443f 8fbd 32aa b73d 1970 02bd
00000060: 6135 01be 9962 39be 315d 433d 1fb6 e0bc
00000070: 59e6 273e 1d50 50bd 5260 493e ec30 edbd
00000080: 7668 433e b592 2f3e e805 8f3d ee02 333e
00000090: 9a96 4e3d 7f44 17be f92d 4ebc b24a 383d
000000a0: 15f4 423d ee14 753d 20f7 adbc 512d 78bd
000000b0: e1ba 04be c7d3 6a3e 06df a73d 96c1 343e
000000c0: 58a9 923d 1a06 d1bd e273 0d3c cf25 bfbd
000000d0: 534d dd3d b707 7a3e b335 be3d 6f8f a93d
000000e0: a9b3 f9bc 1b48 38be c7f8 213e f1be fc3c
000000f0: e4de 8e3b ff3c 323e d7d3 683e 8709 f13d
00000100: 0a53 d03d 7039 fbbc f077 2a3c 56d7 a9bd
00000110: 10d4 febd befb f33d 4c23 d4bd 0c9a 85bd
00000120: 9eb1 b63d 38e1 9abc b4a5 b4bd fa59 9dbd
00000130: 3cae 383d 98f9 873c e094 803d 24da 8c3d
00000140: 9486 35bd 4094 b6bc 0062 ee3b 58d9 c23d
00000150: f037 5cbc e00f aabb 528b eabd 506f 493c
00000160: 94ab f8bd b496 a63d 6000 b93b dec3 e83d
00000170: 189a 66bd 3a5d 97bd c074 743b 58ec f93c
00000180: 965c f5bd 94c0 55bd 7646 c13d c843 bebd
00000190: 78a5 df3d e637 e73d 5a20 c73d 0068 2bbb
000001a0: c040 7c3d 126f a9bd dea2 d0bd 60e9 b73b
000001b0: 2044 61bd 6ee7 e4bd b8ec ab3c 70ef cf3c
000001c0: e08d b7bd 0470 51bd 1c10 29bd b01c adbc
000001d0: 4291 aabd 90f4 60bc 500d adbd 9ab9 c7bd
000001e0: 8ccc a23d 4c58 3f3d e034 bb3c b8ea 59bd
000001f0: 6cfc aabd 402e e0bd 62a5 883d ec72 b73d
00000200: 48d0 0fbc e698 1dbe c716 ddbd d6a6 bdbc
00000210: 6c58 62bc 025d 3d3e eb32 f43d c608 2a3e
00000220: c01d 0b3d 2580 213e a0f3 6bbc 5710 a6bd
00000230: 5314 463e 3e8b 56be 7b05 1bbe ed08 8f3e
00000240: 0145 6bbe 7f4a 3e3e 03cc 333e 30b1 da3d
00000250: f35f 0fbe 3477 6fbd 83ef 77bd 730d 143d
00000260: f159 8cbc 499f 43be 0424 77bd ca97 9bbd
00000270: 8cbf 77bd 6946 913c fda1 573c a7fb 55bc
00000280: e988 363e 516a 433e 7096 b63d 6c34 a83d
00000290: 9c29 c13d dadc b8bd abf2 b8bd 5a96 443e
000002a0: c0c9 49be b9ea 7c3e 410c 14be c92f bbbd
000002b0: 7e79 f2bd ea6f 0a3e a0f7 453d 2e77 db3d
000002c0: 8ee6 0d3e 4051 3abd 6e55 b4bd fab5 3a3d
000002d0: 958c d33d aa61 1b3e 77f9 073e 9d48 683e
000002e0: fa13 163d ac28 dbbd f4d7 913d 6bfd debc
000002f0: 54ff 673e 3078 f33d cf23 d13d ea40 523d
00000300: e7a2 f6bd 2290 24bc e4eb 13bd 67c7 3dbd
00000310: 35bd 0d3d 9da0 cb3d cb5f 5cbd 8f6d 443e
00000320: 561f 5b3e 411f 7d3d d407 c1bd ea5f 4d3d
00000330: 5691 873e a452 47be 4103 15bc 51e5 ad3d
00000340: 4d2e 4fbd 7847 743e 456c 6a3d 80ca eb3c
00000350: e385 ecbd 62c4 7dbd 4054 34bd d902 083e
00000360: b857 263d 46e7 47be 9913 03be 2aaf 93bd
00000370: 03b2 893d 5254 f3bd 55ae 453d c6c6 c4bc
00000380: 4944 883e 9dea 853e 45df 4c3e eb01 c33d
00000390: 788b 0c3c 6f58 d5bc 5d39 94bd eb5b c43d
000003a0: 74df c6bd e404 4b3e f718 613b 85f6 5abe
000003b0: fb02 bebd eec4 503d 666d 1dbd 3b9e a0bb
000003c0: f2ed 273e f5bc 5dbd 373b 24be 87cf bd3d
000003d0: 8968 753d 6396 723e 4b89 5b3d 4179 303e
000003e0: 2747 b73d d320 a6bd 0b87 593e 7746 0abe
000003f0: 8cff 4a3e 5898 793d af85 013e 6153 dc3d

fc3.bias f4 [32]
-0.038762987 -0.064289615 0.050183844 -0.024512287 0.023950396 -0.0932215 0.03803694 0.058922417
0.13755347 0.08521387 0.09126503 -0.07286677 0.109971665 -0.03374078 0.05176992 0.042668458
0.0018990664 0.012854075 -0.033852603 0.013996357 -0.05607406 -0.04663026 0.12408849 -0.09377108
-0.042788282 0.043640163 -0.03431775 0.07710572 0.07539097 -0.089417495 -0.0058293794 0.038600646
00000000: f0c5 1ebd 46aa 83bd 938d 4d3d fecd c8bc
00000010: 9f33 c43c eaea bebd 9fcc 1b3d a258 713d
00000020: d1da 0c3e 9c84 ae3d 29e9 ba3d 2c3b 95bd
00000030: d338 e13d c633 0abd b20c 543d 1fc5 2e3d
00000040: 18ea f83a e699 523c 07a9 0abd fa50 653c
00000050: eaad 65bd 5fff 3ebd 1b22 fe3d 0d0b c0bd
00000060: c442 2fbd 07c0 323d c590 0cbd 9be9 9d3d
00000070: 9566 9a3d 8520 b7bd 6104 bfbb b61b 1e3d

fc4.weight f4 [2, 32]
-0.41299698 -0.11608578 -0.1982789 -0.2416421 -0.34515232 0.041533276 0.46096033 0.27828485
-0.4182596 0.5002024 0.25529838 0.469477 0.33233175 0.23485455 -0.4020289 -0.45160908
-0.45030388 -0.4955818 -0.5415219 -0.48038286 -0.0498404 0.118977286 -0.30217737 -0.15048142
0.11427256 0.47726417 -0.42931706 -0.40117654 -0.29141194 0.3477589 -0.3505309 -0.4120718
0.29673654 -0.10331619 0.47933635 0.43504256 0.46635023 0.037204117 -0.30052894 -0.39993045
0.29647177 -0.38882837 -0.5005215 -0.4270889 -0.40029803 -0.49422884 0.28261036 0.38966826
0.4490292 0.38273805 0.5332851 0.30252692 -0.09092607 -0.14835197 0.35353053 0.2704451
-0.08161166 -0.26756376 0.38169035 0.49868116 0.32378814 -0.20538116 0.08264599 0.44477186
00000000: 5774 d3be 62be edbd a009 4bbe 0771 77be
00000010: ceb7 b0be cc1e 2a3d fe02 ec3e 5a7b 8e3e
00000020: 1f26 d6be 440d 003f 78b6 823e 4a5f f03e
00000030: 6327 aa3e b67d 703e bbd6 cdbe 4e39 e7be
00000040: 3b8e e6be e6bc fdbe 2ea1 0abf bef4 f5be
00000050: 7325 4cbd 5daa f33d feb6 9abe cd17 1abe
00000060: bb07 ea3d f85b f43e 72cf dbbe 0367 cdbe
00000070: f233 95be 740d b23e c978 b3be 13fb d2be
00000080: daed 973e 7097 d3bd 936b f53e e6bd de3e
00000090: 75c5 ee3e 5863 183d eede 99be afc3 ccbe
000000a0: 26cb 973e 8314 c7be 2d22 00bf 65ab dabe
000000b0: ddf3 ccbe 900b fdbe 4eb2 903e 9982 c73e
000000c0: 28e7 e53e 3ef6 c33e 5f85 083f cfe4 9a3e
000000d0: 7337 babd 94e9 17be f401 b53e c877 8a3e
000000e0: 0424 a7bd 1efe 88be eb6c c33e 2353 ff3e
000000f0: 8fc7 a53e 704f 52be 4d42 a93d 23b9 e33e

fc4.bias f4 [2]
0.079072535 0.04083187
00000000: c8f0 a13d 523f 273d
