checkpoint/model-fold-2.pt (torch, 446799 bytes, 8 tensors)

fc1.weight f4 [100, 1024]
00000000: efe6 443d 18c3 a33d 44b9 3bb9 85fc 8dbc
00000010: f803 4e3d 6fdf 823c 3979 3abd e4c0 13bd
00000020: e0e7 09bd d649 a7bd ff1c f73c 0773 1abc
00000030: b115 643d 5123 a13c 9665 05bd 74ac c33c
00000040: 552f 2abd 44ba 293d be22 043d cb3c 5fb9
00000050: 36ee 5ebc 503c 903c 761d b83c 7eb0 833b
00000060: 9c65 bcbd c846 4b3a 9fce 87bc 2004 233d
00000070: ce36 103d b046 93bd b409 a7bd 39cc 55bb
00000080: 994a 52bc bf9d 193a e640 493d 5e71 633b
00000090: bd2e 4f3c e21b 1fbd 15e2 66bc ed00 05bd
000000a0: 105c 3f3d 17ea e43c d4c3 583d bc99 c33a
000000b0: e1d6 52bc 1022 44bd e41a 683d 63f0 a83b
000000c0: 5dfe 5c3d 7b20 933c b503 b7bd 855f c3bc
000000d0: 2ba6 e9bc 18be 85bd 6051 12bc 9aab e7bc
000000e0: 5c95 c3bb 3833 5fbc bbf9 6bbb 072b 8f3c
000000f0: 8509 92bc 117d 16bd 44c0 243d 2327 d33c
00000100: 7f1a a93c e7f7 a63c a35c 253d 1e54 033c
00000110: baa1 15bc 379e fcbc 98ed 6bbd 5e75 4d3c
00000120: 925c 81bc 6e0e 92bd d19e 07bc 7f69 75bd
00000130: e073 6bbd 9e26 afb8 1e1e 0b3d dafe 253d
00000140: ab19 44bd 8435 7abc c6ff 853d c26d bfbd
00000150: 9f40 bb3c 5234 f9bc f3fc 12bd c484 31bd
00000160: f0f0 8d3c 97c2 8dbb 52ff 523d c26e 8fbc
00000170: 3057 69bd 10ff bbbc 5dc4 65bd 5028 c3bc
00000180: d1f7 aa3d 5c82 acbc 846c dc3c e144 92bc
00000190: bd2d 1b3d 0511 58bd 9871 bdbc 12b5 b73c
000001a0: d2bc dd3c a7b7 75bd 3541 00bd 9111 36bd
000001b0: db2b 67bd 49c0 783c 0c35 c23d 64ce 0d3b
000001c0: 47e5 323d ce19 0e3d 3650 5abc ce24 aabd
000001d0: 3426 043c 13cb bdbc 0b21 43bd 4d25 34bd
000001e0: 0bc5 203d 57b2 263d fbda 18bd 79c6 00bc
000001f0: 50ce 78bc 7665 e6bc 367d 25bc c9e5 04bc
00000200: 08d3 86bd 2b10 b6bc 4571 9fbc d877 693d
00000210: 00ef 1ebd e510 1f3d b79b 543d b656 fe3c
00000220: 7317 c63b df2e a5bc ee00 883d dc8a 733c
00000230: 2564 a9bc c10a a4bc 2ba6 003d c62c 8fbd
00000240: 75ec 063d 2024 553d bf18 c7bc 9a0f 8a3d
00000250: d9d5 543c b241 d7bd b9a6 8e3c 5973 00bd
00000260: 4415 0c3b b830 9cbd b538 29bb 4296 88bd
00000270: 5b6d 6c3d 977d 553c 538f d9ba 7be0 123c
00000280: 06c7 65bd 6ad0 493d 348c c83c 1da7 25bd
00000290: d297 723c f809 3c3d be97 b2bd 907f 473d
000002a0: 594c bdbc 13cf 2abd 0450 22bd a649 29b9
000002b0: f9a1 3bbc 987a 93ba ecef 79bd 1ae8 eebb
000002c0: ccb7 68bd 6e7e 20bd 3f09 99bc d567 5c3c
000002d0: e847 563d 3f24 cfbb 75d7 8dbd f47f 3ebd
000002e0: 3c78 e93c 827e ee3c d4fe c2bc 5935 b43a
000002f0: ede7 703d 6744 023d e94a 573d 55dd dcbd
00000300: f05b b1bb 1a61 533d 15fa 433d 86ab 1f3d
00000310: fdf8 743d 6d14 4c3b af0a 9cbd 55ed 033d
00000320: 11fa 1ebd 5071 a9bc 92af 84bc 4b53 70bd
00000330: 4696 073d 463e 9e3c 3d57 ae3b 3d56 e23b
00000340: ae35 2cbd 273c f63c 66d0 0bbb 436f 203d
00000350: f82b a0bd 44c8 21bd bd49 fabc dd9e 863c
00000360: 777c 723d fa67 b43c 8677 59bd b2c1 74bd
00000370: 7fae af3c 17a8 3abd 7775 203d 623d 133c
00000380: 2fe3 32bd 37b7 633d 2181 3b3d f942 8c3d
00000390: 8c84 94bd ada1 b13d 9a1d a63c da77 07bd
000003a0: b9be 5fbc 684a bbbc dd1a cdb9 4e12 c63c
000003b0: 8e33 24bd 2ccd 95bd 57e8 babc ffc0 c43d
000003c0: 128b f7bb 9c54 f1bc ea4b f3bc 621f b2ba
000003d0: 3d2d 953c 15de d23c ad34 30bd 8d5f 043d
000003e0: 1bf2 123d 7153 09bd 491a 6f3d ee0a cbbc
000003f0: 4b7e b43c d7f0 92bb 9352 203c 3cd1 3abd
0.048071798 0.079961956 -0.00017902727 -0.017332325 0.050296754 0.015975682 -0.045525763 -0.036072627
-0.0336684 -0.0816838 0.030165194 -0.009426839 0.05568475 0.01967016 -0.032567583 0.023885943
-0.041549046 0.041437402 0.032259695 -0.00021289584 -0.013606599 0.017606884 0.022474986 0.0040188422
-0.09199068 0.00077543827 -0.016578017 0.039798856 0.035208516 -0.07191217 -0.081561476 -0.0032622947
-0.012835168 0.0005859993 0.049134158 0.0034705023 0.012645421 -0.03884495 -0.014091988 -0.032471586
0.046718657 0.027943654 0.05292113 0.0014923136 -0.012868614 -0.047884047 0.05666627 0.0051556095
0.053953517 0.017959824 -0.08936254 -0.023849258 -0.028521618 -0.06530398 -0.008930534 -0.028280068
-0.0059687328 -0.013623051 -0.0036007005 0.017476572 -0.017826805 -0.036740366 0.04022242 0.025775498
0.020642517 0.02038188 0.04037155 0.008015661 -0.009132797 -0.030837161 -0.057599634 0.01254019
-0.015791211 -0.071316585 -0.008277611 -0.059915062 -0.057483554 -8.351843e-05 0.03396427 0.04052625
-0.04787604 -0.015271548 0.065429255 -0.093471065 0.022857962 -0.030420456 -0.035885762 -0.043339506
0.017326802 -0.0043261754 0.051513024 -0.017508868 -0.056967914 -0.022948772 -0.05609547 -0.023822933
0.083480485 -0.021058254 0.026907213 -0.01785511 0.037885416 -0.052750606 -0.023125455 0.022425208
0.027067576 -0.059989598 -0.031312186 -0.044450346 -0.05643831 0.015182563 0.09482774 0.002163791
0.043675687 0.034692578 -0.013324788 -0.08307801 0.008065749 -0.023168122 -0.047638934 -0.043980885
0.039250415 0.040697422 -0.03731821 -0.00785982 -0.0151859075 -0.028124552 -0.010100653 -0.008111426
-0.0658322 -0.022224506 -0.01946319 0.056999058 -0.038802147 0.03883447 0.051906314 0.031047206
0.006045276 -0.020163951 0.06640802 0.01486465 -0.020677635 -0.02002466 0.03140847 -0.06990962
0.032940347 0.052036405 -0.024303792 0.06741257 0.012990438 -0.10510577 0.017413484 -0.031360004
0.002137498 -0.0762648 -0.0025821154 -0.066692844 0.057721477 0.013030431 -0.00165985 0.008964653
-0.056098007 0.049271025 0.024480917 -0.040442575 0.014806705 0.045907944 -0.08720349 0.048705637
-0.023107694 -0.041701388 -0.03962709 -0.00016144532 -0.0114521915 -0.0011251746 -0.061019823 -0.0072908523
-0.056815907 -0.039183073 -0.018681167 0.01345249 0.05231467 -0.0063214595 -0.06925861 -0.046508744
0.028499715 0.029113058 -0.023803152 0.0013748809 0.05881493 0.031803515 0.052561674 -0.10784403
-0.005412571 0.051606275 0.04784592 0.038981937 0.059807766 0.0031140104 -0.07619225 0.03220876
-0.0388127 -0.020683914 -0.016197 -0.058673184 0.033102296 0.019316804 0.005320458 0.006907253
-0.04204338 0.03005798 -0.0021333932 0.039168607 -0.078208864 -0.03949763 -0.03055274 0.016433174
0.05920073 0.022022236 -0.053092502 -0.059755035 0.02144551 -0.04557046 0.039174523 0.008986803
-0.04367369 0.05559465 0.045777444 0.068487115 -0.07251844 0.08673415 0.020277787 -0.033073284
-0.013656312 -0.022862628 -0.00039120662 0.02417865 -0.04008823 -0.07314524 -0.022815866 0.096071236
-0.0075544203 -0.02945929 -0.029699285 -0.0013589675 0.018210048 0.025740663 -0.043018986 0.032317687
0.03587542 -0.03352684 0.058374677 -0.024785485 0.022032877 -0.0044842768 0.009785312 -0.045609698

fc1.bias f4 [100]
00000000: 01a6 173d 0cbe b33c 0c1b 8fbb 800a a3bc
00000010: 1db4 173c c129 d43c 9bc6 cc3b f89d 40bc
00000020: 5509 cd3b 6167 723b a322 463d 4a8e df3c
00000030: 25d1 473c 5d62 3bbc 78d9 86bc 9aad fbbb
00000040: 8d95 51bc be82 843a 74fe e6bc cdc9 8bbc
00000050: 9653 fc3c 6757 80bc 88e0 3f3d e51b 7b3c
00000060: c1e6 38bc c784 223d 0691 c4bc 7c26 963c
00000070: 7440 853c fa16 893c 29af 7cbc 959e 153d
00000080: a6be 0e3d edf8 bb3c 9317 c1bc 5e07 e5bc
00000090: be55 2c3c 84eb 1a3c d848 e0bc 7010 9c3c
000000a0: eadf 823c f813 ad3c afa3 d2bc 70be cc3b
000000b0: b5af d03c 620c 47bc 8df4 523b ac50 0d3d
000000c0: 3669 3fbc e675 863d 86da 8fbc 2c64 6dbc
000000d0: 8e09 053d f80f afbc cf93 333b 35d5 e43c
000000e0: 7364 9d3c 1f45 9a3b f5e0 fb3c d576 22bb
000000f0: 36a7 cdbc c292 f53c 403b 25bb 5c67 7cbc
00000100: c796 8cbb 970e 6ebb 4f1a 68bc 4522 0a3d
00000110: e72b 16bc 3417 a1bb 8fdc cd3b 4cc8 d63c
00000120: 586f c3bb 632d ec3c 7da8 f6bc 18c5 adbc
00000130: 2723 c13c 5d1f d03c bc07 063c df5d 6a3c
00000140: e098 d63c 59b1 80bc a899 f33c 0376 b1bc
00000150: 1581 e73c c7ec 553d 762b a53c 81c3 6abc
00000160: eb2d 0b3d d590 cd3c aa9b 96bc d140 66bc
00000170: a04e 273b 834a 34bc fc1d 773c a96b 193c
00000180: d232 0e3b 3132 45ba 4537 a0bc 6e8d edbb
0.037023548 0.021941207 -0.004367238 -0.019902468 0.009259251 0.025898816 0.0062492616 -0.011756413
0.006257216 0.0036987888 0.048372876 0.027289528 0.01219586 -0.011437026 -0.016461119 -0.007680607
-0.012792003 0.0010109765 -0.028197505 -0.017064 0.030801576 -0.015666677 0.04684499 0.015326475
-0.011285485 0.039677408 -0.023994934 0.018328898 0.016266085 0.016734589 -0.015422621 0.03652819
0.034849785 0.022945845 -0.023570811 -0.027957615 0.010518489 0.009455565 -0.027378485 0.019050807
0.015975911 0.021127686 -0.025712816 0.006248288 0.025474409 -0.012148948 0.003218922 0.034500763
-0.011682799 0.06565456 -0.017560255 -0.014489215 0.032479815 -0.02136992 0.0027401333 0.027933696
0.019212937 0.004707947 0.030746916 -0.0024790068 -0.025104146 0.029977206 -0.0025212318 -0.015405502
-0.004290435 -0.0036324614 -0.014166429 0.03372409 -0.009165741 -0.004916096 0.006282396 0.026218556
-0.005964201 0.028830236 -0.030109638 -0.021212146 0.023576332 0.02540558 0.008180555 0.014304607
0.026195943 -0.015709566 0.029736355 -0.021662718 0.028259793 0.05222776 0.020162325 -0.014328838
0.033979338 0.025093475 -0.018384773 -0.014053539 0.0025529042 -0.011004093 0.015082832 0.009364047
0.0021697772 -0.0007522433 -0.019557605 -0.0072495257

fc2.weight f4 [64, 100]
00000000: f74a f03d 351f 93b9 b592 1bbe 4846 a33d
00000010: 1e0a 293d ad99 463e b9e3 0b3e e85e b9bd
00000020: b4c0 393e d883 723c ea1e c43d 68e8 dc3d
00000030: b621 84bd 4d42 a43d 4713 533d fa51 f2bc
00000040: d47f 803e 884a 03be 34b5 443c 03b4 18bd
00000050: fdad 7c3e fe4a fc3d dd61 ff3d df99 7aba
00000060: 57a4 863d 5386 3c3e 3005 c73d 75be a63d
00000070: af3b 323e 5bd8 e63b 7673 37be e3a5 213e
00000080: e9ec e83d c76c 793d ddee 31be fb1a 853e
00000090: 3883 8d3e 559d 46be 14f5 24be 25cc 793e
000000a0: ade5 143e 7799 823e 03e1 3dbe 2409 b0bc
000000b0: f20d 323c aba2 4e3e 6cfb c3bd a017 49bd
000000c0: dbc1 813e 23bd c03d bcbf cf3b 763b 8d3e
000000d0: 58f0 2ebd 0682 873e 33f0 2bbe dbe5 283e
000000e0: 2e77 523d c2bf f73c 28d0 af3d a381 883e
000000f0: 9a61 7b3d bed2 253e 208f d8bc 75a0 a93d
00000100: c67f 5abe 2b56 30bd 11e7 793e 8423 e43d
00000110: eb5c 223e aa39 f63d 8598 2b3e a400 ecbd
00000120: a7e9 7a3d d5a5 f63d 5e13 84bd 7062 2ebd
00000130: 8a95 ff3d e105 e8bd 17b3 aebc 36f1 bc3d
00000140: 5331 243e 4f15 3c3e 776e 233d d199 fabd
00000150: 33c2 38bd d72e 66bd 4905 5b3e 0e02 29bd
00000160: b7d4 273e 3a30 8b3e d51b 873e bb45 423e
00000170: cdf7 70bb c9e9 0f3e aaeb 1e3d 0de3 a13d
00000180: c8d7 513e 51ec 2c3e 16c5 e43d 8ab0 22bc
00000190: c3ce 203b 12ae b33d 0fce 923c b54a a13d
000001a0: eafa bc3c 325c 3b3e 60fc 1b3d cd29 283d
000001b0: 9945 313e 3d16 963c 5c50 be3d 6306 683e
000001c0: adda 833c 44e4 afbd f755 c8bd 20bf bebc
000001d0: d6b8 923e b533 94bd 87fc 823d 7000 1e3c
000001e0: b1eb 8a3e bbe3 d13d 23b5 59bd 53eb 73bd
000001f0: 6702 c9bc a475 133e b3bf 17bd f129 843d
00000200: 22b5 523e 5687 2bbd 16f6 13be 0f4f 8f3e
00000210: b036 3f3e dc4c b43d 25ca 85bd fedb 0f3e
00000220: 5f92 863e e55d 07bd b8db f7bd d8c5 3f3e
00000230: dd88 ff3d 283f 073e 48bf c0bd 53fd e43c
00000240: 3d32 893d 5872 c13e 33dc eb3a d4c1 0a3d
00000250: 3abc 623e 3367 b13c 2f5b a2bd 0e31 ad3d
00000260: 75df 93bd 1485 f83d 4a75 a3bc 97b8 443e
00000270: 00d0 e53c 0375 1eba b5ea bf3d ba95 b33d
00000280: 63c6 7e3e 2ec5 d73d 7099 bebd 5018 573d
00000290: 9d72 35be 651b c33d 20e2 313e df09 63bd
000002a0: 810a ce3d aaba 793d cc88 163e ca76 b63c
000002b0: ed98 abbc 5a2f 3a3e e6f8 60bb ef5f a73d
000002c0: 9cf3 053d b71d e5bd c5a4 9ebb 4ae4 9b3d
000002d0: 5e13 0c3e eecd 433e 4fbf f63d c06a 35be
000002e0: 81a5 053e fc4e 11bb 735f df3d 13ff c83d
000002f0: b710 473e 22f7 133e b655 373e 17e3 103e
00000300: ea69 813d e4a5 003e 8b64 e43b 0b87 9a3c
00000310: 678f 8c3d 1924 413e 367c 4d3e 2ef1 303d
00000320: 37dc d73d 400d 423d 5cb1 3ebd 0af2 553e
00000330: 492b 293d 8028 613e 6082 1cbd 7a76 773d
00000340: 9c3b 463e c1a5 fabd ae98 d73c 98ed 333e
00000350: 0d6f 8b3d 9101 38bc 4309 c63d c1d6 8abd
00000360: 8780 4f3e b027 f1bd aab2 0bbe 1e88 fdbd
00000370: 92a3 813e d99c ad3d 2d95 05bd 31f9 c33d
00000380: a5c6 8abd d45d 523e f709 9abd ffda 2c3e
00000390: f038 7a3e ef0c d0bd 91f7 09be 2e3c 913e
000003a0: 5efd 7d3e 769f 6fbd 6cc4 04be 8d00 4e3e
000003b0: 312d 793e e528 e8bd f17d 27be c791 003e
000003c0: aa84 ff3d 6aed 6f3e 33fc cabd bb36 c33d
000003d0: 6feb 183e df31 313e f3a5 bbb9 9f2a 4d3b
000003e0: 214b 0e3e a566 263c b348 dfbc f4f7 373e
000003f0: ebd8 99bd 042d 523e 49d1 7dbe ba6a 493d
0.117330484 -0.00028061276 -0.15192683 0.079723895 0.041269414 0.1939456 0.13661088 -0.09051305
0.18139917 0.014801942 0.09576209 0.107865155 -0.06451742 0.08020458 0.051532056 -0.029580105
0.25097525 -0.128214 0.012006093 -0.037281048 0.24675746 0.12318991 0.12469838 -0.0009559672
0.06574314 0.18410616 0.09717786 0.081417955 0.1740558 0.0070448346 -0.17915139 0.15785937
0.11373312 0.060894754 -0.17376275 0.25997147 0.27639174 -0.19395955 -0.16109115 0.24394281
0.1454074 0.2550771 -0.18542866 -0.021488734 0.010867583 0.2017924 -0.09569439 -0.049094796
0.25343212 0.09411075 0.006339995 0.27584428 -0.04270968 0.26466388 -0.16790847 0.16493933
0.05138319 0.030242804 0.085846245 0.26661405 0.061372377 0.16193673 -0.026435435 0.08282558
-0.21337804 -0.043050926 0.24404551 0.111395866 0.15855758 0.12022717 0.167574 -0.1152356
0.061257984 0.12043349 -0.064490065 -0.042574346 0.12479694 -0.11329246 -0.021325631 0.09225695
0.1603444 0.18367504 0.03990027 -0.122363694 -0.045107078 -0.056197014 0.21388735 -0.041261725
0.16389738 0.2718523 0.26388422 0.18971913 -0.0036768795 0.14054026 0.038798966 0.079046346
0.2049247 0.16887023 0.11170404 -0.0099297855 0.0024537302 0.08773436 0.017920522 0.07875577
0.023068864 0.18296888 0.03808248 0.04105549 0.17311706 0.01832115 0.09292671 0.22658686
0.016095484 -0.0858846 -0.097820215 -0.023284495 0.28656644 -0.07236425 0.06395822 0.009643659
0.27132943 0.10248514 -0.05315126 -0.059550595 -0.024537278 0.14400345 -0.037048053 0.06453312
0.20576909 -0.041877113 -0.14449343 0.27990004 0.18673205 0.08803722 -0.06532697 0.14048764
0.26283547 -0.03304853 -0.12102455 0.18727815 0.124772765 0.13207686 -0.09411484 0.027952826
0.06699035 0.3778255 0.0017994702 0.033876255 0.22142115 0.021655655 -0.07927548 0.08456622
-0.072203554 0.12134758 -0.019953389 0.1921104 0.028053284 -0.0006044658 0.09370939 0.087687925
0.24880366 0.10535656 -0.0930661 0.05251342 -0.17719503 0.095267095 0.17371416 -0.055429336
0.10060597 0.060969032 0.14700621 0.02227344 -0.020946944 0.18182126 -0.0034328043 0.08172595
0.032703027 -0.11187308 -0.0048414194 0.07611902 0.13679263 0.19121525 0.12048208 -0.17716503
0.13051416 -0.0022172322 0.10906877 0.098142765 0.1943997 0.14449742 0.1790379 0.14149128
0.0631903 0.12563282 0.0069699935 0.018863222 0.06863289 0.18861426 0.20066914 0.043198757
0.105400495 0.047375917 -0.04655586 0.20893112 0.041301046 0.21988106 -0.038210273 0.060415722
0.19358677 -0.12238646 0.02631792 0.17571104 0.06808291 -0.011230842 0.09669735 -0.06779242
0.20263873 -0.11775148 -0.13642374 -0.12379478 0.25320107 0.08477182 -0.03261297 0.09569014
-0.0677617 0.20543605 -0.07521432 0.16880415 0.24435782 -0.10158717 -0.13473345 0.28366226
0.24803683 -0.058501683 -0.12965554 0.20117398 0.24333645 -0.11335925 -0.16356637 0.1255561
0.124764755 0.2343041 -0.099113844 0.095319234 0.14933561 0.1730418 -0.0003579106 0.0031305922
0.13895847 0.010156308 -0.027256345 0.1796568 -0.07512077 0.20524985 -0.24786867 0.049174048

fc2.bias f4 [64]
00000000: 4fa2 19bc c121 f339 2c17 9d3d 57c8 d7bd
00000010: 2936 243d 2b33 a03d b1ce fc3d a45d 1b3d
00000020: af45 96bd 2ec8 2ebc 6854 173b ae13 cf3d
00000030: 74cb 71bd 3c9f 9abc 02a6 60bd 78b6 11bd
00000040: 2477 5bbd 3036 9cbc 6c8f 9c3d 0903 83bd
00000050: e1d0 55bd 30ae 623d 5330 a0bd 0874 c63d
00000060: c8d8 34bd ff77 ac3d c2e9 b43d 3f88 1a3b
00000070: b536 0c3e fb8d 4bb8 9636 5abd a3ab af3b
00000080: 00a8 743d 71f8 a43d c7b1 8f3d e4f3 7b3d
00000090: 8810 293d de4d 15bd 5753 273d 2a14 633d
000000a0: 54c4 db3d 27f6 eb3d 141b a3bd ee28 063c
000000b0: 0b37 0dbc 04fb 983a ad0f c43c 2f7b 9f3d
000000c0: 1520 62bd 27f5 1f3e 36ef 9dbc f373 abbc
000000d0: 8e16 92bd a995 bbbc 2423 743c 4d24 1dbb
000000e0: ca6f 0ebd 6647 553d 48ba 473d d68e b53d
000000f0: d683 443d d90c 53bc b898 d73d fe6e a63d
-0.009377076 0.0004637372 0.07670435 -0.10536259 0.040090714 0.078222595 0.12344111 0.0379311
-0.0733751 -0.010667844 0.0023091082 0.101111755 -0.05903192 -0.018874757 -0.054845817 -0.035574406
-0.05358042 -0.019068807 0.07644543 -0.06397063 -0.052201156 0.0553419 -0.07821717 0.096901
-0.04415205 0.08421325 0.08833648 0.0023579744 0.13692744 -4.85312e-05 -0.053274713 0.005361037
0.05973053 0.08055199 0.0701633 0.06151189 0.04127553 -0.036451213 0.040850963 0.05543915
0.10730806 0.11521559 -0.07964149 0.008188469 -0.00861908 0.0011671488 0.023933256 0.07787167
-0.055206377 0.15620862 -0.019279104 -0.020929312 -0.07133208 -0.022898512 0.014900956 -0.0023977936
-0.03477458 0.052070044 0.048761636 0.088651344 0.04797729 -0.012881481 0.10527176 0.08126639

fc3.weight f4 [32, 64]
00000000: 8738 4dbc 656d 0b3d adcd 6e3d 07c4 6e3d
00000010: 7cef f0bd 3ad1 e93d 2d21 c03d 4cf8 193d
00000020: b5bf e83d 80f6 9cbd 749d 8dbb 6f0a c1bd
00000030: a321 bdbc 36e1 1fbe 116b 8dbd 3c57 e83c
00000040: 629d fdbd 7f04 bc3d ff11 f03d d0c7 abbc
00000050: 45d1 8c3d 255b 43bd c984 b53d e36b 3fbd
00000060: c381 c1bd cdcf 19be c701 813d a553 54bb
00000070: 8c7e 1b3e eded c6bc e5a6 273e 3cb2 d9bd
00000080: 80a8 123e 4700 0f3e 22b0 293d 3c98 133e
00000090: 1ea5 813c 6a27 e3bd ec5b c33b 0cb6 ba3c
000000a0: 3c12 853d 330b d13c 38a9 273c 9ac4 f3bc
000000b0: b7e6 d7bd 48c5 423e 0279 a73d 74f9 1c3e
000000c0: 2eaf 313d e8ac c7bd ffc8 3a3d cf25 bfbd
000000d0: 84b1 8a3d cfce 453e f737 463d 4837 6e3d
000000e0: c468 48bd c32a 21be 0f6d d53d 549d 5d3d
000000f0: a95b e9bc 96d8 013e 30b8 353e 7148 a53d
00000100: 0a53 d03d 7039 fbbc f077 2a3c 56d7 a9bd
00000110: 10d4 febd befb f33d 4c23 d4bd 0c9a 85bd
00000120: 9eb1 b63d 38e1 9abc b4a5 b4bd fa59 9dbd
00000130: 3cae 383d 98f9 873c e094 803d 24da 8c3d
00000140: 9486 35bd 4094 b6bc 0062 ee3b 58d9 c23d
00000150: f037 5cbc e00f aabb 528b eabd 506f 493c
00000160: 94ab f8bd b496 a63d 6000 b93b dec3 e83d
00000170: 189a 66bd 3a5d 97bd c074 743b 58ec f93c
00000180: 965c f5bd 94c0 55bd 7646 c13d c843 bebd
00000190: 78a5 df3d e637 e73d 5a20 c73d 0068 2bbb
000001a0: c040 7c3d 126f a9bd dea2 d0bd 60e9 b73b
000001b0: 2044 61bd 6ee7 e4bd b8ec ab3c 70ef cf3c
000001c0: e08d b7bd 0470 51bd 1c10 29bd b01c adbc
000001d0: 4291 aabd 90f4 60bc 500d adbd 9ab9 c7bd
000001e0: 8ccc a23d 4c58 3f3d e034 bb3c b8ea 59bd
000001f0: 6cfc aabd 402e e0bd 62a5 883d ec72 b73d
00000200: fead cd3b 53b2 08be 5d06 abbd 3968 01bd
00000210: 83c3 423c acce 133e cb7c e53d 6aa9 1b3e
00000220: 1635 d9bb 2133 143e ad6b 223c daa0 a4bd
00000230: d00b 223e 0fcd 28be faf7 d9bd fe0b 7d3e
00000240: 22af 43be 178e 0a3e 5123 213e 30b1 da3d
00000250: 53e4 02be bdda 0dbd f893 7ebd efc4 c73c
00000260: f5b2 8b3c 0ded 21be 3d85 30bd 587a 4dbd
00000270: 8971 8fbd 8554 3e3d 98b5 86bc ee4b 31ba
00000280: 232f 083e e9bc 263e 73de 823d 0628 613d
00000290: a956 803d 5e4b 56bd cfe2 8dbd a15f 313e
000002a0: 72c4 35be 46c5 5c3e 0f7b e5bd 79ae 6abd
000002b0: a3c2 bbbd 3d2f cb3d 5231 453d 1a87 b23d
000002c0: 027a e83d 800b 1cbd 7a1e 4cbd fab5 3a3d
000002d0: 3006 823d 264d d23d f0f0 bc3d 6600 523e
000002e0: 4396 b23c 8afe a8bd 2cbf a43c a1ae 58bb
000002f0: 4d1b 4a3e d22d 973d a89a 653d 435a 873c
00000300: 882c dbbd 52fd 1c3c ffba 5bbc fe0c 5fbd
00000310: 019f 733d 7da6 653d f25e 81bd c8fe 333e
00000320: 0334 2e3e ce46 403d c4e8 92bd c658 483d
00000330: 220a 683e 8b9d 19be 9dfe 0e3d 2d8e 4d3d
00000340: b0e0 52bc 66df 3c3e 0ea6 163d 80ca eb3c
00000350: a2f2 d6bd ea50 21bd 83eb 39bd 3dc4 f23d
00000360: 4c47 973d 53a5 27be 7513 e6bd 6157 41bd
00000370: 278f 643d e9e7 b9bd a921 823c 3e5c 5cbc
00000380: b926 603e e08e 6c3e f0a1 303e e296 863d
00000390: 65ec d3bc ffe2 3b3c 91ce 59bd dc1a 993d
000003a0: 72d9 a1bd 2555 283e 4f00 0e3d e4f1 38be
000003b0: 4b3e 89bd 2ecc 493c 3e33 1ebd ed67 e3bc
000003c0: 46b0 0b3e 7fce 46bd a7f5 f9bd 87cf bd3d
000003d0: a4db 8e3c 1ddf 3c3e 5262 4d3c 1dca 173e
000003e0: 0125 943d 05ef 6ebd 8598 223e 4781 e6bd
000003f0: 341b 2b3e e4ce 5c3c f8ce 9e3d 2c88 903d
-0.012525684 0.034039874 0.058301616 0.058292415 -0.11764428 0.1141686 0.09381328 0.03759031
0.1136469 -0.07664204 -0.0043217484 -0.09425818 -0.023087328 -0.15613255 -0.06905187 0.02836191
-0.12383534 0.09180545 0.117221825 -0.020969301 0.068758525 -0.047694344 0.088632174 -0.04673375
-0.09448578 -0.15020676 0.06299167 -0.003239849 0.15184993 -0.024283374 0.16372259 -0.10629699
0.1432209 0.1396495 0.04142774 0.14413542 0.015825804 -0.11091502 0.0059618857 0.022791885
0.064976186 0.025518036 0.010233216 -0.029756833 -0.10542052 0.1902057 0.08177377 0.15329534
0.043379955 -0.09749776 0.04560184 -0.09333383 0.0677214 0.19317172 0.048393216 0.05815819
-0.048928037 -0.15738969 0.10421192 0.054105118 -0.02848609 0.12680277 0.17746043 0.08070458
0.101720884 -0.030667037 0.010404572 -0.08293025 -0.124427915 0.119132504 -0.10358295 -0.06523523
0.089205965 -0.01890622 -0.08820668 -0.07683177 0.045088038 0.016598508 0.06278396 0.068775445
-0.044317797 -0.022287488 0.007274866 0.09514111 -0.013441071 -0.0051898807 -0.114523545 0.012294605
-0.12142101 0.08134213 0.0056457967 0.11365484 -0.0562993 -0.073908284 0.0037301034 0.030508205
-0.1198055 -0.05218561 0.094372675 -0.09290272 0.109202325 0.11289959 0.097229674 -0.0026154518
0.061585188 -0.08273138 -0.101873145 0.0056125373 -0.05499661 -0.11176954 0.0209869 0.025382727
-0.089626074 -0.051132217 -0.04127513 -0.021131843 -0.08328487 -0.013730183 -0.08449805 -0.097521976
0.079491705 0.046715066 0.022852361 -0.05320236 -0.08348927 -0.109463215 0.06672169 0.089574665
0.006276845 -0.13349275 -0.08350823 -0.031593535 0.011887434 0.14434308 0.11205443 0.15201345
-0.006628643 0.14472629 0.009913367 -0.080384925 0.15824819 -0.16484474 -0.10643001 0.24711606
-0.19109777 0.13530765 0.15736128 0.10678327 -0.12782411 -0.034632433 -0.062152833 0.024385897
0.017053107 -0.15813084 -0.043095816 -0.050165504 -0.07004077 0.046467323 -0.016444013 -0.00067633286
0.13299231 0.16283001 0.06390085 0.05496981 0.06266529 -0.05231797 -0.06928026 0.17321636
-0.17750719 0.21559629 -0.11205112 -0.057295296 -0.091679834 0.09921119 0.04814274 0.08717175
0.11351396 -0.038096905 -0.049833752 0.045583703 0.063488364 0.10268621 0.09225643 0.20507964
0.021800166 -0.082516745 0.02011069 -0.0033063071 0.19736977 0.073817864 0.056055695 0.016522532
-0.10701853 0.009581881 -0.013411283 -0.05445575 0.05947781 0.05606698 -0.063169375 0.1757766
0.17012028 0.046942525 -0.07173303 0.048912786 0.22660115 -0.15001504 0.034910787 0.050184418
-0.0128709525 0.18444595 0.036779456 0.028783083 -0.10495497 -0.039383806 -0.045390617 0.11853836
0.07386646 -0.1637166 -0.1123418 -0.04720247 0.055800583 -0.090774365 0.015885191 -0.013449727
0.21889772 0.23101377 0.17249274 0.06571747 -0.025869558 0.011467694 -0.053175513 0.07475826
-0.079028025 0.1643873 0.034668263 -0.18061024 -0.067013346 0.012316747 -0.038623087 -0.027759517
0.13641462 -0.048536774 -0.122050576 0.09268098 0.017438717 0.18444486 0.012535648 0.14823194
0.072336204 -0.058333416 0.15878494 -0.112551264 0.16709596 0.013477061 0.0775432 0.07057223

fc3.bias f4 [32]
00000000: ae81 46bd 46aa 83bd f440 303d 608d 09bd
00000010: 3760 863c a5db bcbd d72b 353d e4c0 883d
00000020: 502c 073e c670 b83d 8582 c13d bc27 8fbd
00000030: eaa4 e53d c047 00bd bfa4 393d c6b2 173d
00000040: 8b38 80bb 9773 b43b 62c5 22bd bc49 fd3b
00000050: eaad 65bd 5fff 3ebd cb3a f43d 8326 d8bd
00000060: c442 2fbd e7e5 473d e62e 2fbd 7c27 953d
00000070: 326b 8d3d 8bc4 babd f464 8bbc 1dd4 093d
-0.048463516 -0.064289615 0.043030694 -0.03358209 0.0164033 -0.09221581 0.044231262 0.06677416
0.13200498 0.09005885 0.09448723 -0.069900006 0.112130955 -0.031318426 0.04532313 0.037035726
-0.0039129904 0.0055069434 -0.03973902 0.007729737 -0.05607406 -0.04663026 0.11925276 -0.105542205
-0.042788282 0.048803236 -0.042769335 0.07282922 0.069052115 -0.09119519 -0.017015912 0.033649553

fc4.weight f4 [2, 32]
00000000: 84e9 93be 62be edbd 50d6 8cbd 1c81 ebbd
00000010: d0b8 61be a370 333d 3b1e bc3e cc95 3b3e
00000020: cafa 9bbe f9c3 c93e 3829 133e 59e6 b83e
00000030: ee73 693e 5e5e fe3d ab0c 90be 4381 a5be
00000040: 474f a2be b8c4 bbbe 109c cbbe 6dd5 b3be
00000050: 7325 4cbd 5daa f33d 45f2 3cbe fc59 17bd
00000060: bb07 ea3d 5110 c13e 42db 96be 1bad 8dbe
00000070: 358f 39be 6613 7d3e a47b 7abe 1d26 8fbe
00000080: e916 323e 7097 d3bd 5af1 b73e bf75 a13e
00000090: a901 b23e d038 0f3d 1e75 49be 6f7d 9dbe
000000a0: eba4 3a3e 361d 8cbe b534 cabe 17a2 a0be
000000b0: 4017 97be cfd9 c7be 0757 253e 116d 863e
000000c0: c231 a33e 50d4 813e 76b7 c83e 8ec0 2f3e
000000d0: 7337 babd 94e9 17be e917 763e ac07 253e
000000e0: 0424 a7bd be4a 1ebe d2d6 7e3e c995 c23e
000000f0: 2829 5f3e 0652 cabd 6ea1 bfbc cb14 a23e
-0.28889096 -0.11608578 -0.06876814 -0.11499235 -0.22043157 0.04380859 0.36741814 0.18318862
-0.30464774 0.39407328 0.14371192 0.3611324 0.2279813 0.12420343 -0.28134665 -0.3232518
-0.3170111 -0.36673522 -0.39767504 -0.35123768 -0.0498404 0.118977286 -0.18451793 -0.03695105
0.11427256 0.3770776 -0.29464155 -0.27671131 -0.18121035 0.24714431 -0.24461228 -0.27958766
0.17391552 -0.10331619 0.35926324 0.31535146 0.34766892 0.03496629 -0.19673583 -0.3075976
0.18226974 -0.27366036 -0.39493337 -0.31373665 -0.29509926 -0.39033362 0.1614648 0.26255086
0.318739 0.25357294 0.3920247 0.17163298 -0.09092607 -0.14835197 0.24032559 0.16116208
-0.08161166 -0.154582 0.24886635 0.38004902 0.21793044 -0.09878926 -0.023392405 0.3165649

fc4.bias f4 [2]
00000000: 3700 9b3d 3817 473d
0.075684 0.048606128
