checkpoint/model-fold-0.pt (torch, 446799 bytes, 8 tensors)

fc1.weight f4 [100, 1024]
0.06263044 0.092089035 0.009954283 -0.023175787 0.056173254 0.010382858 -0.06226012 -0.019462794
-0.035592925 -0.08416643 0.00917658 -0.005541355 0.055364255 0.035196796 -0.008266513 0.016273333
-0.03606006 0.048243713 0.026200721 -0.010173294 0.009711471 0.025861282 0.00335427 -0.010494199
-0.0842008 -0.013492993 -0.0034860838 0.015317372 0.051467665 -0.07928974 -0.07573362 0.008997119
-0.022354804 0.018382978 0.05484735 -0.0070363306 0.026750928 -0.028285034 -0.032316882 -0.047378242
0.05937782 0.039276738 0.06347812 -0.013235366 0.0028013063 -0.05681888 0.06670274 -0.014217283
0.0593933 -0.0047182767 -0.102166064 -0.049111117 -0.062154006 -0.0510478 -0.01773302 -0.04340814
-0.013762903 -0.037141524 -0.0051279343 0.008594402 -0.021543568 -0.04482118 0.055155307 0.036389664
0.015566387 0.022579605 0.060907796 0.01700209 -0.002417051 -0.042031143 -0.03806487 -0.009917621
-0.023791539 -0.051676795 0.0069560143 -0.07114634 -0.06858576 -0.014388979 0.045371 0.033769123
-0.03529899 -0.015163709 0.062121257 -0.061147656 0.0063010682 -0.042806555 -0.04757688 -0.05290238
0.028336126 -0.017624239 0.0715521 -0.017876878 -0.036683574 -0.02801691 -0.07201781 -0.002396203
0.085547805 -0.035399377 0.039147276 -0.0038637677 0.04536497 -0.057656594 -0.023976766 0.028873233
0.029176284 -0.06486748 -0.048434146 -0.04713096 -0.055034947 0.02187492 0.080791906 0.011722932
0.023151934 0.039935812 -0.027826628 -0.08019985 0.021721542 -0.007583467 -0.05448794 -0.05239822
0.0279017 0.04427243 -0.04353567 0.014482064 -0.02439894 -0.016062941 0.017618211 0.002278284
-0.052933123 -0.0324994 -0.025843296 0.06159113 -0.025674462 0.052365456 0.048954677 0.022722498
-0.012981514 -0.012101714 0.05052615 -0.009600435 -0.031021468 -0.010325542 0.04341082 -0.08271451
0.041411936 0.06338084 -0.031090003 0.07182481 0.016644549 -0.10136945 0.03600763 -0.025610087
0.014936944 -0.08840709 0.006560551 -0.083370246 0.0633482 0.008163163 -0.011679763 0.019020692
-0.046111945 0.07141009 0.03496687 -0.039794333 -0.013884088 0.06339935 -0.09479313 0.05110705
-0.009823575 -0.054218266 -0.040289257 -0.009827816 -0.020732392 -0.006049797 -0.06891925 0.0033859424
-0.0536319 -0.042815898 -0.029207442 0.01309251 0.05272907 -0.023729188 -0.07320141 -0.054682784
0.044864684 0.033811547 -0.0325115 0.020279905 0.057705533 0.034005616 0.019716348 -0.075841606
0.0089784255 0.057612415 0.04813649 0.04045225 0.06586375 0.010919256 -0.078446366 0.033478227
-0.053370543 -0.04056704 -0.02649441 -0.07032388 0.04886898 0.020875022 -0.022207946 0.014758188
-0.047693804 0.04032013 -0.011941082 0.044182412 -0.08275541 -0.046163373 -0.043015882 0.018400686
0.06664577 0.026901579 -0.019812332 -0.069828175 0.032360528 -0.033076417 0.025560921 -0.0019689435
-0.049005482 0.06519605 0.057520475 0.0786364 -0.06777224 0.06894897 0.01744986 -0.030517453
0.0028291156 -0.033154953 0.007541842 0.022258867 -0.055375278 -0.057463687 -0.008619115 0.06233686
0.013944939 -0.015016041 -0.018346235 0.008035372 0.03503654 -0.0034998097 -0.053682752 0.047440752
0.044898804 -0.032009095 0.034260258 -0.03642874 0.033117816 -0.0025985716 0.0010295499 -0.026710715
00000000: 6344 803d 2d99 bc3d 4a17 233c 26db bdbc
00000010: ed15 663d dd1c 2a3c 7804 7fbd 7070 9fbc
00000020: e3c9 11bd 735f acbd 5e59 163c 4194 b5bb
00000030: a1c5 623d 842a 103d 4570 07bc a74f 853c
00000040: b7b3 13bd 339b 453d e5a2 d63c e3ad 26bc
00000050: dd1c 1f3c 0adb d33c 50d3 5b3b dcef 2bbc
00000060: 7871 acbd b711 5dbc c876 64bb b7f5 7a3c
00000070: c2cf 523d a962 a2bd 3a1a 9bbd a768 133c
00000080: 6c21 b7bc e697 963c 9da7 603d 0591 e6bb
00000090: c324 db3c 04b6 e7bc b55e 04bd b00f 42bd
000000a0: 2836 733d a5e0 203d d100 823d 26d9 58bc
000000b0: 1f96 373b eaba 68bd 729b 883d 9bef 68bc
000000c0: 6446 733d c69b 9abb 713c d1bd bd28 49bd
000000d0: 3395 7ebd 7f17 51bd d744 91bc bccc 31bd
000000e0: cd7d 61bc b621 18bd 3b08 a8bb 89cf 0c3c
000000f0: 237c b0bc 6a96 37bd 88ea 613d 540d 153d
00000100: 290a 7f3c ddf8 b83c 747a 793d f847 8b3c
00000110: 6367 1ebb d928 2cbd e9e9 1bbd 847d 22bc
00000120: 79e6 c2bc 0cab 53bd 47ef e33b 2cb5 91bd
00000130: b176 8cbd c1bf 6bbc f1d6 393d 7e51 0a3d
00000140: ac95 10bd 3571 78bc dc72 7e3d f775 7abd
00000150: 3179 ce3b ed55 2fbd f9df 42bd 2ab0 58bd
00000160: 2a21 e83c b560 90bc e889 923d 8872 92bc
00000170: 8441 16bd b883 e5bc 137e 93bd 9e09 1dbb
00000180: b033 af3d f0fe 10bd e558 203d 4437 7dbb
00000190: 9ed0 393d 5229 6cbd ec6a c4bc 8f87 ec3c
000001a0: 1a03 ef3c 3ed9 84bd e262 46bd 650c 41bd
000001b0: 536c 61bd 0833 b33c 3a76 a53d 8a11 403c
000001c0: 20a9 bd3c bc93 233d abf4 e3bc d23f a4bd
000001d0: 60f1 b13c bb7e f8bb bf2e 5fbd 849f 56bd
000001e0: 1b92 e43c 0257 353d 7552 32bd 2e46 6d3c
000001f0: 49e0 c7bc 6e96 83bc 1154 903c 434f 153b
00000200: 67d0 58bd 171e 05bd 52b5 d3bc fb46 7c3d
00000210: 4053 d2bc 297d 563d b384 483d 8824 ba3c
00000220: 6bb0 54bc 4446 46bc 82f4 4e3d 254b 1dbc
00000230: bc20 febc 762c 29bc 8bcf 313d 3a66 a9bd
00000240: 909f 293d d0cd 813d 76b0 febc e318 933d
00000250: 265a 883c c99a cfbd bd7c 133d 3fcc d1bc
00000260: 15ba 743c c70e b5bd e4f9 d63b 05be aabd
00000270: b3bc 813d cabe 053c 7a5c 3fbc 48d1 9b3c
00000280: e1df 3cbd 743f 923d 6c39 0f3d 62ff 22bd
00000290: 167a 63bc 85d7 813d e722 c2bd a055 513d
000002a0: 0ff3 20bc f913 5ebd 5906 25bd d904 21bc
000002b0: fad6 a9bc 603d c6bb 8925 8dbd b0e6 5d3b
000002c0: 20ad 5bbd b95f 2fbd 7244 efbc f881 563c
000002d0: 70fa 573d b763 c2bc 9fea 95bd 0efb 5fbd
000002e0: 08c4 373d fa7d 0a3d c72a 05bd 0b22 a63c
000002f0: a35c 6c3d 7949 0b3d 2e84 a13c d852 9bbd
00000300: 3f1a 133c fffa 6b3d c52a 453d 42b1 253d
00000310: 93e3 863d aee6 323c 7da8 a0bd 7720 093d
00000320: 129b 5abd a029 26bd ce0a d9bc f705 90bd
00000330: d72a 483d 1802 ab3c 70ed b5bc 54cc 713c
00000340: 945a 43bd b826 253d 87a4 43bc 9ef8 343d
00000350: ab7b a9bd ce15 3dbd 6c31 30bd 09bd 963c
00000360: 947d 883d b360 dc3c 794d a2bc 1302 8fbd
00000370: 798c 043d 237b 07bd 2365 d13c 6409 01bb
00000380: f9b9 48bd 8285 853d 979a 6b3d 1f0c a13d
00000390: 2ccc 8abd 1e35 8d3d 02f3 8e3c bdff f9bc
000003a0: af68 393b 7dcd 07bd 8e21 f73b 3a58 b63c
000003b0: 30d1 62bd 0b5f 6bbd 3037 0dbc ef54 7f3d
000003c0: 5079 643c d705 76bc d84a 96bc cba6 033c
000003d0: 7a82 0f3d 105d 65bb 72e2 5bbd 3c51 423d
000003e0: cfe7 373d f81b 03bd 7c54 0c3d 4d36 15bd
000003f0: 8ca6 073d cc4c 2abb f6f1 863a 6ed0 dabc

fc1.bias f4 [100]
0.045034137 0.026810516 -0.00344863 -0.017616583 0.013468734 0.02707512 0.013255857 -0.011756413
0.008748777 0.005693412 0.056901865 0.028573468 0.01219586 -0.010978526 -0.016461119 -0.007680607
-0.011025217 0.0031036742 -0.025927696 -0.014757169 0.03271074 -0.014053845 0.0545573 0.015326475
-0.011285485 0.038571145 -0.023994934 0.020847572 0.014746407 0.019805081 -0.014898481 0.037911233
0.036747813 0.029791832 -0.022253528 -0.025998104 0.012696046 0.010593244 -0.02600444 0.01998409
0.018330693 0.023042457 -0.024616798 0.006248288 0.02892102 -0.011434609 0.0047445144 0.038897913
-0.009718834 0.07229099 -0.017305244 -0.012848113 0.033941947 -0.020091124 0.0028487935 0.029861387
0.024993336 0.009778827 0.03423569 -0.0004140093 -0.0228191 0.032945164 -0.0025212318 -0.015405502
-0.0034581523 0.0012749212 -0.012196102 0.038565364 -0.0057504047 -0.0007588847 0.007454108 0.027416103
-0.005964201 0.030532159 -0.028482215 -0.021212146 0.02653573 0.026718527 0.009824533 0.01618076
0.027697785 -0.014216365 0.031456016 -0.02092601 0.033692352 0.054350372 0.022515785 -0.011394394
0.035645884 0.022770768 -0.016687958 -0.012271545 0.0025529042 -0.00689297 0.015082832 0.013725926
0.003995984 0.0012585551 -0.018873703 -0.0016137656
00000000: b775 383d baa1 db3c 6902 62bb a750 90bc
00000010: f7ab 5c3c a4cc dd3c 182f 593c f89d 40bc
00000020: 0857 0f3c cd8f ba3b ee11 693d e812 ea3c
00000030: 25d1 473c 47df 33bc 78d9 86bc 9aad fbbb
00000040: 1da3 34bc 0367 4b3b 5266 d4bc 0ec8 71bc
00000050: b2fb 053d 1942 66bc 7a77 5f3d e51b 7b3c
00000060: c1e6 38bc c7fc 1d3d 0691 c4bc 87c8 aa3c
00000070: ea9a 713c 443e a23c c218 74bc cf48 1b3d
00000080: e084 163d 000e f43c 084d b6bc faf9 d4bc
00000090: 1403 503c 498f 2d3c 4307 d5bc adb5 a33c
000000a0: 402a 963c 89c3 bc3c 2ba9 c9bc 70be cc3b
000000b0: c6eb ec3c 3a58 3bbc df77 9b3b 6b53 1f3d
000000c0: bf3b 1fbc 4c0d 943d bac3 8dbc e480 52bc
000000d0: b606 0b3d 2496 a4bc d3b2 3a3b de9f f43c
000000e0: d3be cc3c 6037 203c b93a 0c3d 630f d9b9
000000f0: 1fef babc 82f1 063d 403b 25bb 5c67 7cbc
00000100: 2ba2 62bb 421b a73a 29d2 47bc b7f6 1d3d
00000110: e46d bcbb e4ef 46ba 9741 f43b bc97 e03c
00000120: 586f c3bb 941e fa3c 8953 e9bc 18c5 adbc
00000130: 7661 d93c d0e0 da3c 14f7 203c 838d 843c
00000140: 77e6 e23c c2eb 68bc 06d8 003d 066d abbc
00000150: fe00 0a3d 7f9e 5e3d 0673 b83c 8daf 3abc
00000160: 6b01 123d c389 ba3c 2fb5 88bc 970e 49bc
00000170: a04e 273b 6cde e1bb fc1d 773c b5e2 603c
00000180: bef0 823b 1af6 a43a 069d 9abc fd84 d3ba

fc2.weight f4 [64, 100]
0.11680917 0.0007008316 -0.12456424 0.038931504 0.04142265 0.14044888 0.12829648 -0.09051305
0.15163778 0.040929716 0.09595694 0.0669719 -0.06451742 0.08009305 0.051532056 -0.029580105
0.20072828 -0.101079576 0.028464511 -0.02114179 0.19845213 0.07107114 0.1254792 -0.0009559672
0.06574314 0.1221197 0.09717786 0.04881348 0.11472356 0.017031934 -0.11987442 0.084763475
0.078661986 0.06301166 -0.14599258 0.21163638 0.20414095 -0.16554819 -0.12058414 0.18932095
0.09248599 0.20884524 -0.15545128 -0.021488734 0.00715934 0.107110925 -0.071236305 -0.05283851
0.17555335 0.09669521 0.006330399 0.23553555 -0.009861961 0.22401081 -0.107321225 0.12661035
0.048161663 0.032146968 0.043430954 0.21879478 0.021796705 0.1470624 -0.026435435 0.08282558
-0.17544593 -0.046546776 0.17740226 0.10474292 0.13184218 0.107651494 0.12582974 -0.07905217
0.061257984 0.06709527 -0.042112265 -0.042574346 0.08229508 -0.08113609 -0.024688521 0.054442436
0.09656842 0.14716868 -0.0011192099 -0.07316075 -0.04964893 -0.057902806 0.18273821 -0.036363173
0.12430994 0.20466776 0.20193781 0.15325773 -0.0036768795 0.124221556 0.038798966 0.079024985
0.16199654 0.117782995 0.07914115 -0.0032869463 0.00045979506 0.087754436 0.045132052 0.035223294
0.022040281 0.12609167 0.027585814 0.04105549 0.14017802 0.0443595 0.09200801 0.18284
0.016095484 -0.08592635 -0.097820215 -0.023284495 0.22880174 -0.044966888 0.080071434 0.025583686
0.21928032 0.04709207 -0.054086056 -0.059550595 -0.024537278 0.07879527 -0.037048053 0.028495401
0.14337322 -0.032149576 -0.08549794 0.20295069 0.1488156 0.088479035 -0.03743742 0.0890545
0.18571466 -0.004447224 -0.08030023 0.13104874 0.06795141 0.08168782 -0.0637378 0.027952826
0.061861124 0.27714592 0.026372993 0.029019855 0.13856079 0.022844333 -0.079283565 0.040483195
-0.040780317 0.07955195 0.040933326 0.15065275 0.023298603 0.00037501255 0.049255256 0.03633704
0.20637533 0.08958181 -0.0930661 0.05251342 -0.13899055 0.09053485 0.10244489 -0.06347698
0.07088184 0.045161165 0.1039858 0.05883407 -0.020946944 0.12380101 0.018774873 0.08172595
-0.012790525 -0.080110006 -0.009229055 0.035470285 0.068955675 0.1512844 0.07579539 -0.12848513
0.124757506 -0.0054141143 0.076069795 0.10201096 0.15067051 0.069765724 0.11336413 0.10213589
0.0631903 0.106866986 0.0069699935 0.017646302 0.021441719 0.1336559 0.1644766 0.049321
0.10439849 0.04774011 -0.020347033 0.16868041 0.040787816 0.16814686 -0.04605567 0.060415722
0.16486017 -0.09738606 0.025875771 0.13548519 0.06808291 -0.011411831 0.09669735 -0.06779242
0.1576437 -0.0913242 -0.12106316 -0.10869088 0.20660013 0.034138072 -0.0323235 0.09569014
-0.0677617 0.14518386 -0.07521432 0.13756922 0.18653429 -0.092370324 -0.07643926 0.21195415
0.21412978 -0.056803193 -0.10304366 0.15430745 0.17339559 -0.08636375 -0.124314785 0.07086377
0.07361948 0.19028395 -0.07016204 0.095319234 0.14510734 0.08268164 0.022861676 -0.0009329389
0.06416194 0.012167447 -0.027268404 0.14123245 -0.04189352 0.16432406 -0.18859935 0.012221518
00000000: a539 ef3d 03b8 373a 891b ffbd a476 1f3d
00000010: ccaa 293d d5d1 0f3e 2760 033e e85e b9bd
00000020: ef46 1b3e eba5 273d 1285 c43d 9028 893d
00000030: b621 84bd d307 a43d 4713 533d fa51 f2bc
00000040: b78b 4d3e cf02 cfbd 682e e93c 8c31 adbc
00000050: 0937 4b3e bf8d 913d 9f7d 003e df99 7aba
00000060: 57a4 863d e519 fa3d 3005 c73d a5f0 473d
00000070: 30f4 ea3d 8e86 8b3c b880 f5bd 7998 ad3d
00000080: 8919 a13d 420c 813d 147f 15be 35b7 583e
00000090: 530a 513e 7785 29be d1f4 f6bd 5add 413e
000000a0: 4b69 bd3d 87db 553e 9f2e 1fbe 2409 b0bc
000000b0: e698 ea3b f95c db3d 57e4 91bd 326d 58bd
000000c0: 42c4 333e 2308 c63d 3c6f cf3b 3b30 713e
000000d0: 1094 21bc 1763 653e 3bcb dbbd 25a6 013e
000000e0: 2a45 453d 8aac 033d a8e4 313d bd0b 603e
000000f0: 018f b23c 8797 163e 208f d8bc 75a0 a93d
00000100: 19a8 33be d5a7 3ebd f0a8 353e 7583 d63d
00000110: a301 073e 6378 dc3d 83d9 003e 1be6 a1bd
00000120: a7e9 7a3d 3f69 893d e97d 2cbd 7062 2ebd
00000130: 538a a83d ae2a a6bd 953f cabc 08ff 5e3d
00000140: aac5 c53d 63b3 163e 74b2 92ba 4ed5 95bd
00000150: ad5c 4bbd 7e2b 6dbd ba1f 3b3e 8df1 14bd
00000160: 3696 fe3d 6d94 513e c9c8 4e3e 98ef 1c3e
00000170: cdf7 70bb df67 fe3d aaeb 1e3d dad7 a13d
00000180: 6ce2 253e 3638 f13d c114 a23d cf69 57bb
00000190: a610 f139 99b8 b33d 63dc 383d 4d46 103d
000001a0: d28d b43c 2d1e 013e a5fb e13c cd29 283d
000001b0: d48a 0f3e 4fb2 353d b26e bc3d 693a 3b3e
000001c0: adda 833c 27fa afbd f755 c8bd 20bf bebc
000001d0: 014b 6a3e 332f 38bd 7efc a33d e194 d13c
000001e0: 058b 603e 9de3 403d 5789 5dbd 53eb 73bd
000001f0: 6702 c9bc 6a5f a13d b3bf 17bd 306f e93c
00000200: 6ed0 123e 46af 03bd 8b19 afbd 4ed2 4f3e
00000210: 1e63 183e 7f34 b53d fb57 19bd 3562 b63d
00000220: fc2b 3e3e 05ba 91bb 7274 a4bd a431 063e
00000230: 1c2a 8b3d f24b a73d f788 82bd 53fd e43c
00000240: 1762 7d3d 12e6 8d3e 2d0c d83c 0cbb ed3c
00000250: e1e2 0d3e 0a24 bb3c 6c5f a2bd b5d1 253d
00000260: 4309 27bd 22ec a23d b4a9 273d b744 1a3e
00000270: b6dc be3c 559d c439 e1bf 493d 26d6 143d
00000280: 0e54 533e ab76 b73d 7099 bebd 5018 573d
00000290: 8a53 0ebe 566a b93d a0ce d13d 3800 82bd
000002a0: 802a 913d eafa 383d 82f6 d43d fefb 703d
000002b0: ed98 abbc 628b fd3d c3cd 993c ef5f a73d
000002c0: 5a8f 51bc b710 a4bd 7635 17bc 4a49 113d
000002d0: a238 8d3d 4cea 1a3e 9d3a 9b3d 9b91 03be
000002e0: dd80 ff3d e268 b1bb 7bca 9b3d 1feb d03d
000002f0: 5f49 1a3e 55e1 8e3d 742b e83d 9f2c d13d
00000300: ea69 813d 14dd da3d 8b64 e43b fa8e 903c
00000310: 8ba6 af3c 18dd 083e 8e6c 283e d104 4a3d
00000320: e0ce d53d 228b 433d d2ae a6bc 8fba 2c3e
00000330: 2011 273d b12e 2c3e dfa4 3cbd 7a76 773d
00000340: 1bd1 283e 5872 c7bd 6df9 d33c a1bc 0a3e
00000350: 0d6f 8b3d b0f8 3abc 4309 c63d c1d6 8abd
00000360: 5a6d 213e 2f08 bbbd f6ef f7bd 5399 debd
00000370: fc8e 533e 5dd4 0b3d a565 04bd 31f9 c33d
00000380: a5c6 8abd 14ab 143e f709 9abd f2de 0c3e
00000390: d802 3f3e a72c bdbd 308c 9cbd 820a 593e
000003a0: d644 5b3e 77aa 68bd 8e08 d3bd c602 1e3e
000003b0: 9d8e 313e 7adf b0bd c098 febd 0621 913d
000003c0: cfc5 963d ccd9 423e 1eb1 8fbd bb36 c33d
000003d0: 0597 143e fe54 a93d 6948 bb3c 7890 74ba
000003e0: 5667 833d f959 473c fd61 dfbc 3d9f 103e
000003f0: 8a98 2bbd 9144 283e 3020 41be c33c 483c

fc2.bias f4 [64]
-0.0072454093 0.0010627692 0.07853453 -0.10052549 0.04230894 0.07384475 0.11736669 0.034087595
-0.079938054 -0.015922938 0.0053119455 0.1057164 -0.06381251 -0.021532584 -0.05310857 -0.03982131
-0.050619368 -0.02786833 0.073166706 -0.0639586 -0.05180534 0.057375062 -0.0738278 0.092922114
-0.042149626 0.08287968 0.09067059 0.0049492703 0.13234264 0.0028932155 -0.057210807 0.0063849026
0.05403493 0.07720736 0.066645816 0.05820211 0.038293183 -0.036130175 0.043114964 0.05222433
0.10920993 0.11128341 -0.07757952 0.007992996 -0.005830852 -0.003657007 0.025414279 0.07499532
-0.060292438 0.158347 -0.022220487 -0.021194434 -0.087878235 -0.029224519 0.006071634 -0.0056875343
-0.037937824 0.05469869 0.042822912 0.09036684 0.044552386 -0.017860634 0.100246705 0.0773239
00000000: e66a edbb 9e4c 8b3a b6d6 a03d 4fe0 cdbd
00000010: 244c 2d3d eb3b 973d f25d f03d 6f9f 0b3d
00000020: 90b6 a3bd d270 82bc d40f ae3b d781 d83d
00000030: 22b0 82bd 1a65 b0bc 5f88 59bd ac1b 23bd
00000040: 4156 4fbd 204c e4bc 6dd8 953d bafc 82bd
00000050: d631 54bd 1d02 6b3d 0833 97bd f34d be3d
00000060: 16a5 2cbd d2bc a93d 81b1 b93d 7d2d a23b
00000070: d484 073e 1a9c 3d3b e155 6abd 7238 d13b
00000080: bb53 5d3d e41e 9e3d 9a7d 883d 5665 6e3d
00000090: 50d9 1c3d 3cfd 13bd 5199 303d 2ee9 553d
000000a0: 75a9 df3d 8ee8 e33d 03e2 9ebd 0ef5 023c
000000b0: bb10 bfbb 65aa 6fbb 9b31 d03c 2597 993d
000000c0: 34f5 76bd b725 223e bd07 b6bc f39f adbc
000000d0: 81f9 b3bd 4268 efbc 8ff4 c63b 7f5e babb
000000e0: b164 1bbd bc0b 603d 1467 2f3d 4012 b93d
000000f0: 907c 363d 7750 92bc 254e cd3d fe5b 9e3d

fc3.weight f4 [32, 64]
-0.0025690151 0.044534136 0.08272262 0.05109441 -0.09837681 0.07290621 0.08507049 0.024473188
0.07897654 -0.08917617 0.014700081 -0.09682784 -0.054755915 -0.123312846 -0.039795645 -0.0023708546
-0.09590561 0.047373366 0.09609411 -0.020969301 0.07596579 -0.029914211 0.085783586 -0.056653745
-0.068786144 -0.11779357 0.077135995 0.017297102 0.14254324 -0.0077431942 0.13507897 -0.09970334
0.103238136 0.10998357 0.01723512 0.11811416 -0.012485978 -0.08315886 0.02460127 0.004686583
0.079070665 -0.0013801677 0.029600611 -0.0048633353 -0.08858848 0.15656126 0.08208285 0.13345061
0.021460919 -0.09436127 0.0839355 -0.09333383 0.04716457 0.16035113 0.026695793 0.03793033
-0.06664612 -0.13711694 0.06663512 0.073805384 -0.056290947 0.092703395 0.1403572 0.050689
0.101720884 -0.030667037 0.010404572 -0.08293025 -0.124427915 0.119132504 -0.10358295 -0.06523523
0.089205965 -0.01890622 -0.08820668 -0.07683177 0.045088038 0.016598508 0.06278396 0.068775445
-0.044317797 -0.022287488 0.007274866 0.09514111 -0.013441071 -0.0051898807 -0.114523545 0.012294605
-0.12142101 0.08134213 0.0056457967 0.11365484 -0.0562993 -0.073908284 0.0037301034 0.030508205
-0.1198055 -0.05218561 0.094372675 -0.09290272 0.109202325 0.11289959 0.097229674 -0.0026154518
0.061585188 -0.08273138 -0.101873145 0.0056125373 -0.05499661 -0.11176954 0.0209869 0.025382727
-0.089626074 -0.051132217 -0.04127513 -0.021131843 -0.08328487 -0.013730183 -0.08449805 -0.097521976
0.079491705 0.046715066 0.022852361 -0.05320236 -0.08348927 -0.109463215 0.06672169 0.089574665
0.019480253 -0.11957019 -0.05578424 -0.035942305 0.03399511 0.10837061 0.10718733 0.14328915
-0.036938068 0.13681197 0.03278783 -0.07910929 0.13049765 -0.1292064 -0.07405476 0.22060326
-0.15998046 0.094053075 0.14058755 0.10678327 -0.11735865 -0.01414825 -0.06464529 0.018261092
0.045962147 -0.12280247 -0.02610508 -0.02653471 -0.07557675 0.06644704 -0.041213058 0.009700407
0.09689965 0.13714921 0.044022266 0.03372472 0.039256427 -0.022795524 -0.047859997 0.15993096
-0.16012682 0.19360904 -0.090431206 -0.029769579 -0.071359344 0.070373416 0.048141815 0.07137248
0.09562578 -0.031187233 -0.007911002 0.045583703 0.04478308 0.072158135 0.072467394 0.18855184
0.008582624 -0.059885092 -0.012331364 0.018288845 0.17412844 0.043669093 0.022436425 -0.0097811455
-0.097449 0.020626415 0.010744405 -0.059443258 0.07871756 0.015299436 -0.07194063 0.1628213
0.13559018 0.03510542 -0.052657858 0.046324775 0.19476137 -0.11600936 0.06397107 0.019767141
0.015140061 0.1400493 0.016196972 0.028783083 -0.098220445 -0.022363307 -0.048003215 0.108371854
0.099365056 -0.1316065 -0.098858215 -0.027135607 0.046356842 -0.074187934 -0.012676811 -0.0067372415
0.17829113 0.20163342 0.14847739 0.04005022 -0.053654384 0.03824417 -0.035332493 0.057158567
-0.064856865 0.13773966 0.053033065 -0.15589094 -0.04980115 -0.020352077 -0.03862403 -0.047931045
0.11462287 -0.04528239 -0.0838062 0.09268098 -0.0030023812 0.15040527 -0.008580904 0.12757143
0.055167817 -0.038782895 0.121654846 -0.09430006 0.13976847 -0.021516701 0.039372295 0.039282575
00000000: ec5c 28bb 6d69 363d 7a6a a93d 5f48 513d
00000010: c879 c9bd da4f 953d 7039 ae3d ff7b c83c
00000020: 74be a13d ffa1 b6bd 9cd8 703c ad4d c6bd
00000030: bd47 60bd 728b fcbd c200 23bd 5760 1bbb
00000040: 296a c4bd 930a 423d fdcc c43d d0c7 abbc
00000050: f493 9b3d a60e f5bc 4eaf af3d c20d 68bd
00000060: c0df 8cbd c13d f1bd 7af9 9d3d a7b2 8d3c
00000070: dbf6 113e 9fba fdbb 2452 0a3e 4431 ccbd
00000080: 846e d33d 113f e13d ab30 8d3c d6e5 f13d
00000090: fd91 4cbc 314f aabd 9a88 c93c e891 993b
000000a0: cdef a13d bee6 b4ba fb7c f23c 9d5c 9fbb
000000b0: e16d b5bd 9851 203e 0e1b a83d 47a7 083e
000000c0: cfce af3c 7b40 c1bd 60e6 ab3d cf25 bfbd
000000d0: a32f 413d 1633 243e 23b1 da3c d55c 1b3d
000000e0: c37d 88bd 6268 0cbe fe77 883d 4727 973d
000000f0: 5691 66bd 47db bd3d ccb9 0f3e 459f 4f3d
00000100: 0a53 d03d 7039 fbbc f077 2a3c 56d7 a9bd
00000110: 10d4 febd befb f33d 4c23 d4bd 0c9a 85bd
00000120: 9eb1 b63d 38e1 9abc b4a5 b4bd fa59 9dbd
00000130: 3cae 383d 98f9 873c e094 803d 24da 8c3d
00000140: 9486 35bd 4094 b6bc 0062 ee3b 58d9 c23d
00000150: f037 5cbc e00f aabb 528b eabd 506f 493c
00000160: 94ab f8bd b496 a63d 6000 b93b dec3 e83d
00000170: 189a 66bd 3a5d 97bd c074 743b 58ec f93c
00000180: 965c f5bd 94c0 55bd 7646 c13d c843 bebd
00000190: 78a5 df3d e637 e73d 5a20 c73d 0068 2bbb
000001a0: c040 7c3d 126f a9bd dea2 d0bd 60e9 b73b
000001b0: 2044 61bd 6ee7 e4bd b8ec ab3c 70ef cf3c
000001c0: e08d b7bd 0470 51bd 1c10 29bd b01c adbc
000001d0: 4291 aabd 90f4 60bc 500d adbd 9ab9 c7bd
000001e0: 8ccc a23d 4c58 3f3d e034 bb3c b8ea 59bd
000001f0: 6cfc aabd 402e e0bd 62a5 883d ec72 b73d
00000200: 0d95 9f3c 37e1 f4bd 047e 64bd 3d38 13bd
00000210: 753e 0b3d 69f1 dd3d 0885 db3d 64ba 123e
00000220: 5f4c 17bd 7018 0c3e 884c 063d 0d04 a2bd
00000230: 2da1 053e af4e 04be 06aa 97bd d2e5 613e
00000240: ebd1 23be e69e c03d 2ff6 0f3e 30b1 da3d
00000250: bb59 f0bd 10ce 67bc c064 84bd 4998 953c
00000260: ce42 3c3d dd7f fbbd 52da d5bc 525f d9bc
00000270: fcc7 9abd 6315 883d 06cf 28bd 75ee 1e3c
00000280: 5373 c63d d870 0c3e b150 343d ef22 0a3d
00000290: 59cb 203d aebd babc d808 44bd f1c4 233e
000002a0: 49f8 23be 7341 463e ff33 b9bd 55df f3bc
000002b0: d924 92bd f01f 903d 5a30 453d bc2b 923d
000002c0: 73d7 c33d 5e7c ffbc 269d 01bc fab5 3a3d
000002d0: 776e 373d a5c7 933d c969 943d bc13 413e
000002e0: 229e 0c3c 124a 75bd 7d09 4abc 7dd2 953c
000002f0: ba4e 323e 5dde 323d 98cc b73c 1941 20bc
00000300: 5793 c7bd baf8 a83c 4d09 303c c67a 73bd
00000310: ac36 a13d 7caa 7a3c 9c55 93bd a0ba 263e
00000320: 27d8 0a3e b3ca 0f3d c4af 57bd 0cbf 3d3d
00000330: 866f 473e 5196 edbd 4403 833d b3ee a13c
00000340: 050e 783c 1569 0f3e 83af 843c 80ca eb3c
00000350: cd27 c9bd 4133 b7bc 059f 44bd 10f2 dd3d
00000360: e87f cb3d dbc3 06be 2d76 cabd 7e4b debc
00000370: ace0 3d3d d8ef 97bd 66b2 4fbc 14c4 dcbb
00000380: f391 363e fe78 4e3e 750a 183e b30b 243d
00000390: b3c4 5bbd eba5 1c3d ceb8 10bd 1a1f 6a3d
000003a0: add3 84bd a00b 0d3e 3339 593d e0a1 1fbe
000003b0: 4afc 4bbd 66b9 a6bc 3b34 1ebd 5853 44bd
000003c0: 65bf ea3d 077a 39bd 96a2 abbd 87cf bd3d
000003d0: 99c3 44bb d703 1a3e ec96 0cbc 16a2 023e
000003e0: a6f7 613d d0da 1ebd 2d26 f93d 6420 c1bd
000003f0: 771f 0f3e cb43 b0bc d844 213d c4e6 203d

fc3.bias f4 [32]
-0.056402724 -0.064289615 0.038955986 -0.04156715 0.009664759 -0.091911055 0.045058873 0.0690751
0.13007495 0.093717985 0.09478733 -0.06759206 0.11091065 -0.033890728 0.04121435 0.03294247
-0.006448381 0.0033608975 -0.04249836 0.0040806565 -0.05607406 -0.04663026 0.11446079 -0.1171439
-0.042788282 0.04981039 -0.04706909 0.067097485 0.066413805 -0.103307545 -0.027695328 0.030834941
00000000: 8b06 67bd 46aa 83bd 5090 1f3d 5142 2abd
00000010: f058 1e3c dd3b bcbd a78f 383d 3f77 8d3d
00000020: 5e32 053e 37ef bf3d dc1f c23d b56d 8abd
00000030: 1f25 e33d 01d1 0abd 61d0 283d afee 063d
00000040: f14c d3bb 8142 5c3b c312 2ebd 07b7 853b
00000050: eaad 65bd 5fff 3ebd 6b6a ea3d 24e9 efbd
00000060: c442 2fbd fb05 4c3d 85cb 40bd 686a 893d
00000070: f603 883d e892 d3bd 50e1 e2bc 8f99 fc3c

fc4.weight f4 [2, 32]
-0.20823033 -0.11608578 0.015369792 -0.029788926 -0.1357547 0.045076787 0.29286832 0.10717307
-0.23121437 0.31857216 0.05156136 0.28183538 0.1440808 0.029228026 -0.20701542 -0.24433804
-0.23671325 -0.29225776 -0.31671292 -0.273513 -0.0498404 0.118977286 -0.10584565 0.014919757
0.11427256 0.29975313 -0.21474135 -0.19243614 -0.111759536 0.14373647 -0.17372124 -0.20032054
0.09424069 -0.10331619 0.28250384 0.23522069 0.26739293 0.033637416 -0.11423805 -0.23873119
0.10760842 -0.19001184 -0.31390497 -0.23191692 -0.21493186 -0.3068387 0.08609099 0.18379612
0.2404491 0.17778447 0.31278026 0.091783606 -0.09092607 -0.14835197 0.16487354 0.11139708
-0.08161166 -0.06612853 0.169885 0.30002552 0.15123035 0.004728295 -0.09440683 0.24027048
00000000: 553a 55be 62be edbd 94d1 7b3c e807 f4bc
00000010: 4803 0bbe 70a2 383d d6f2 953e 8e7d db3d
00000020: 76c3 6cbe e41b a33e 0132 533d ba4c 903e
00000030: eb89 133e 9d6f ef3c dafb 53be c033 7abe
00000040: f564 72be cfa2 95be 3228 a2be e509 8cbe
00000050: 7325 4cbd 5daa f33d 9bc5 d8bd ff71 743c
00000060: bb07 ea3d 3e79 993e 28e5 5bbe fb0d 45be
00000070: 2fe2 e4bd a72f 133e fbe3 31be d420 4dbe
00000080: 4301 c13d 7097 d3bd 58a4 903e b1dd 703e
00000090: bae7 883e 63c7 093d a4f5 e9bd f375 74be
000000a0: ce61 dc3d 7792 42be 27b8 a0be a17b 6dbe
000000b0: 1917 5cbe f619 9dbe 7950 b03d 0d35 3c3e
000000c0: 4a38 763e 220d 363e bc24 a03e 0bf9 bb3d
000000d0: 7337 babd 94e9 17be 9cd4 283e 2724 e43d
000000e0: 0424 a7bd 656e 87bd 55f6 2d3e f29c 993e
000000f0: 21dc 1a3e d0ef 9a3b 5e58 c1bd 7709 763e

fc4.bias f4 [2]
0.06613277 0.059311
00000000: 9e70 873d 17f0 723d
