checkpoint/model-fold-7.pt (torch, 446799 bytes, 8 tensors)

fc1.weight f4 [100, 1024]
000000 41 bc ff 3c bd 9c 6a 3d 37 f9 a2 bc d0 5c a4 bb
       0.031217696 0.057278384 -0.019894226 -0.005015947
000010 b0 d3 07 3d ef 42 a4 3c 83 13 12 bd 1d 5f bd bd
       0.033160865 0.020051448 -0.03566314 -0.09246657
000020 c2 42 b8 bc 5b 18 86 bd ba 4e 84 3c 9c 34 b9 bc
       -0.02249277 -0.06547614 0.016150821 -0.022608094
000030 3f 17 44 3d 58 cd 6f 3a 2b f3 7b bd c1 3f 0a 3d
       0.04787373 0.0009147725 -0.0615112 0.033752207
000040 3c 9d 1c bd eb be ce 3c 86 bc 10 3d 1f 4b 42 3c
       -0.038235888 0.025237521 0.03533604 0.011858731
000050 af a5 12 bd ce 5b 3b 3c 5a 93 14 3d 84 08 bb 3c
       -0.03580254 0.011435462 0.036273338 0.022831209
000060 73 e9 df bd 9e 35 f4 3b 19 72 15 bd 31 9a 23 3d
       -0.10933199 0.0074526807 -0.036485765 0.03994197
000070 f2 0f 5d 3c 1d 5c 70 bd aa 13 cb bd aa 0a 85 bc
       0.013492571 -0.058681596 -0.0991586 -0.016240437
000080 08 e5 23 ba af ab 8f bc 5a a5 07 3d f7 02 ca 3c
       -0.0006252085 -0.01753792 0.033116676 0.024659617
000090 47 01 e6 bb e0 19 28 bd 4d 5f af 39 3f 53 65 bc
       -0.0070191952 -0.0410403 0.00033449606 -0.013996898
0000a0 b0 52 cd 3c 94 c2 d5 3b f8 ec 2e 3d 32 6b 17 3d
       0.025063843 0.0065234397 0.04270646 0.036967464
0000b0 d9 e2 b4 bc e5 40 19 bd 0a e6 24 3d 97 a2 19 3d
       -0.022080826 -0.037415404 0.040258445 0.037508573
0000c0 72 1a 20 3d ee 2d 02 3d 3d 6c 7f bd 3d 61 05 bb
       0.03908772 0.031782083 -0.062359083 -0.0020352148
0000d0 9d 75 4b bc 46 03 3a bd 36 d0 d3 bb 9d 0b fc bc
       -0.012418178 -0.045413278 -0.0064640297 -0.030767256
0000e0 cd 19 e1 3b 7f db 73 3c 89 bd 99 3c 04 4e 82 3d
       0.006869531 0.014883875 0.018767135 0.063625365
0000f0 37 3f 6b bb 07 f9 c4 bc 32 43 b6 3c d0 45 06 3b
       -0.0035895833 -0.024044527 0.022248838 0.002048839
000100 05 88 1d 3d 23 9f 1f 3d c4 b5 e2 3c ff 75 b8 bb
       0.038459796 0.038970124 0.027674563 -0.0056293006
000110 b5 cc cd bc 1c 8a c6 bc 97 94 53 bd d1 1a 7b 3d
       -0.025122026 -0.024235778 -0.05165538 0.06130487
000120 f3 53 d2 ba 91 e4 54 bd d6 bb bf bc 87 d9 42 bd
       -0.0016046747 -0.05197579 -0.023404997 -0.04757073
000130 6b 10 12 bd 14 b1 b0 3c e4 5e 90 3c 98 8b fb 3c
       -0.03566019 0.021568812 0.017623372 0.030706212
000140 db 26 56 bd 60 b1 c1 bc e3 07 9d 3d 28 ad f5 bd
       -0.05228315 -0.02364415 0.0766752 -0.119959176
000150 f9 77 31 3d 44 8b 12 bc ff 9f 5b bc fa 1f d5 bc
       0.043327305 -0.008944336 -0.013404845 -0.026016224
000160 48 3d 47 3b de 36 56 bb d9 9c 9c 3c ab 07 73 ba
       0.0030401517 -0.0032686512 0.01911776 -0.0009270857
000170 36 f6 66 bd 3b 4a 07 bc 02 a9 28 bd 97 6c 5c bd
       -0.05638715 -0.008257444 -0.041176803 -0.053814497
000180 5a b4 93 3d 89 e0 b8 bb 0b 5f 2f 3c a5 9e 4e bd
       0.07212134 -0.005642001 0.010703812 -0.050444264
000190 7c fc ae 3c 7f 0a 1e bd 47 a3 6e bc 8f 31 23 3c
       0.021360628 -0.03858423 -0.014565296 0.009960546
0001a0 d0 e6 c7 3c 21 c4 3d bd 30 b3 17 bc 75 22 ea bc
       0.024402052 -0.04632962 -0.00925903 -0.028580884
0001b0 48 26 5a bd 9f 8d 62 3b 09 84 d4 3d b5 7c 7d bc
       -0.053259164 0.0034569276 0.10376746 -0.015471627
0001c0 3f a5 9c 3d db 42 a9 3c 46 40 42 3b c4 e5 90 bd
       0.07648706 0.020661762 0.002964036 -0.07075074
0001d0 1e ca 3f bc b7 dd 26 bd 1a e5 09 bd 59 59 06 bd
       -0.011705903 -0.040738788 -0.033665754 -0.032800052
0001e0 6a 17 64 3d 02 9d e0 3c 4d 72 cd bc 40 7b f2 bc
       0.055686392 0.027418617 -0.025078917 -0.029599786
0001f0 a9 b8 e4 3b a8 01 1d bd ec 77 c4 bc f9 d2 ed bc
       0.006980021 -0.038331658 -0.023982964 -0.029031264
000200 4d 05 79 bd 44 65 74 bc a2 66 e4 bb c6 18 23 3d
       -0.06079607 -0.014916722 -0.0069702426 0.039818548
000210 48 63 6a bd 48 14 a2 3c f3 2f 31 3d 76 90 4a 3d
       -0.05722359 0.019785061 0.04325862 0.049454175
000220 96 77 8c 3c c8 af 17 bd 35 41 b2 3d 2b 40 a6 3c
       0.017146867 -0.037032872 0.087038435 0.02029427
000230 13 86 ed bb 1b c9 ef bc b1 e9 9d 3c 92 75 3a bd
       -0.007248649 -0.0292707 0.019276472 -0.04552228
000240 0f f2 a0 3c 60 13 0f 3d bd 61 35 bc e3 13 4f 3d
       0.019646673 0.034930587 -0.011070666 0.050556075
000250 7b 57 9e bc c3 24 b0 bd b9 64 09 3c 8e 0e 24 bc
       -0.019328823 -0.08600762 0.008385831 -0.010013236
000260 2a f9 68 bc 9c 2e 8e bd e3 ff 09 bd 2f 72 8a bd
       -0.014219562 -0.06942484 -0.0336913 -0.0676006
000270 02 55 64 3d 81 60 cb 3c 30 0d 1c 3c e1 fc bc bb
       0.055745132 0.02482629 0.0095246285 -0.00576745
000280 81 7d 36 bd 59 05 ee 3c 4b ce 46 3c 36 3b 14 bd
       -0.044553284 0.029055284 0.012134145 -0.03618928
000290 89 26 4a 3d dd 07 da 3c b6 5b a5 bd 33 e6 c5 3c
       0.049353156 0.026615078 -0.08074133 0.02415762
0002a0 17 fb dc bc 0b 10 af bc df a2 d8 bc 82 de 72 3c
       -0.026975198 -0.021369955 -0.02644485 0.014823558
0002b0 43 1a 38 3b a0 de 81 3c 27 18 05 bd 51 b2 97 bc
       0.0028091825 0.015853226 -0.032493737 -0.018517645
0002c0 76 86 58 bd 4f 57 f1 bc 3a ad 26 bd f2 0f ee 3b
       -0.052862607 -0.029460577 -0.040692545 0.0072650844
0002d0 ae 5a 2c 3d be 60 ca 3b 38 a4 3a bd 9f 11 d2 bc
       0.042078666 0.0061760833 -0.045566767 -0.025643168
0002e0 40 a3 08 3b fc fa 54 3c 40 4a 32 bc ee ec 73 bc
       0.0020849258 0.012999292 -0.01088196 -0.014888031
0002f0 e1 71 7d 3d cf bd 72 3c e3 8c db 3d 69 be d3 bd
       0.06187618 0.014815762 0.107202314 -0.10339052
000300 05 d1 bb bc f2 ea 1a 3d 59 50 07 3d 73 5a 86 3c
       -0.022926817 0.037821718 0.03303561 0.016400551
000310 33 89 40 3d 36 40 90 bc 4f e5 49 bd 2f 9a d3 3c
       0.047005843 -0.017608743 -0.04929095 0.025830356
000320 f6 0e a0 bc 0c 38 c9 3b 15 80 de 3b 22 12 b8 bd
       -0.019538384 0.0061407145 0.006790171 -0.089878336
000330 d6 d8 61 3c 8a b0 94 3b 64 31 89 3c 59 c8 24 bc
       0.013784608 0.0045376467 0.016747184 -0.010057532
000340 93 e8 d9 bc b4 c6 87 3c 4c 13 95 3c 40 23 d2 3c
       -0.026600158 0.016574241 0.018197678 0.025651574
000350 86 24 84 bd 4d e8 dd bc 6c 44 81 bc 9c 25 97 ba
       -0.06452279 -0.027088309 -0.015779696 -0.0011531594
000360 5a 90 18 3d 00 e6 e8 3b 73 8c ba bd 02 10 36 bd
       0.03724704 0.0071074963 -0.0910882 -0.04444886
000370 fd f5 e4 3b 92 af 01 bd 92 b4 15 3d c3 6e 4f 3c
       0.006987332 -0.031661578 0.03654916 0.012660685
000380 94 d7 08 bd 4c 5f 17 3d 51 3e e8 3c 51 24 51 3d
       -0.033408716 0.036956117 0.028350027 0.051060025
000390 19 27 93 bd ad 98 96 3d c8 7f aa 3c e4 f4 69 bc
       -0.07185192 0.07353339 0.020812884 -0.014279578
0003a0 5b 1f ff bc bc 0e bd bb f0 75 95 3c 15 0d fd 3c
       -0.031142881 -0.0057695787 0.018244714 0.030890027
0003b0 e4 0a 9d bc 53 da ca bd 43 3c a3 bc ad 10 91 3d
       -0.019170232 -0.09904923 -0.019926196 0.07083259
0003c0 f9 e5 81 bc 96 b1 54 bd ee a8 24 bd a1 93 2f bc
       -0.01585673 -0.05192717 -0.040200166 -0.01071635
0003d0 6d cd 0d 3b 57 d2 93 3d 08 fc c9 bc 8d 32 6b 3c
       0.0021637336 0.072178535 -0.02465631 0.014355314
0003e0 e4 31 8b 3c cb 39 e9 bc 7e 99 bc 3d b3 bb 64 bc
       0.016991563 -0.02846994 0.09208964 -0.013960767
0003f0 52 61 8e 3b 6e 9d 02 bc 42 a2 78 3c c7 3e 83 bd
       0.0043450976 -0.0079721045 0.015175404 -0.06408458

fc1.bias f4 [100]
000000 71 34 b8 3c f7 56 9e 3c 7a 9c 9c bb 32 48 a9 bc
       0.022485944 0.019328577 -0.0047793956 -0.020664308
000010 81 27 c4 3b cd 10 c9 3c 39 71 89 3b f8 9d 40 bc
       0.0059861545 0.024544144 0.0041944054 -0.011756413
000020 6c d8 96 3b 5d 4c 02 3b b1 3e 1b 3d 3c c0 d9 3c
       0.004603436 0.0019881942 0.037901584 0.026580922
000030 25 d1 47 3c 5d 62 3b bc 78 d9 86 bc 9a ad fb bb
       0.01219586 -0.011437026 -0.016461119 -0.007680607
000040 42 ea 98 bc 4c db fe b9 e9 bf e9 bc 00 60 90 bc
       -0.01866639 -0.00048610044 -0.028533893 -0.017623901
000050 53 92 ea 3c 09 a9 8d bc 30 94 32 3d e5 1b 7b 3c
       0.028634226 -0.017292516 0.043598354 0.015326475
000060 c1 e6 38 bc 69 e8 13 3d 06 91 c4 bc 93 1f 84 3c
       -0.011285485 0.036110315 -0.023994934 0.016128337
000070 94 d0 59 3c b4 11 5d 3c b4 ac 85 bc ae 56 11 3d
       0.013294358 0.01349299 -0.016317703 0.035483055
000080 be 6d 05 3d 2f 3b 82 3c 13 d3 c9 bc fe d6 e7 bc
       0.03257536 0.015897362 -0.02463678 -0.028300758
000090 34 67 15 3c 0b 52 17 3c 1b 8f f6 bc 4c 86 8e 3c
       0.009118844 0.009235869 -0.030097535 0.017398022
0000a0 95 bc 68 3c 0e 62 99 3c de 59 da bc 70 be cc 3b
       0.014205118 0.018723514 -0.02665418 0.006248288
0000b0 83 46 c2 3c b3 53 62 bc 67 9b 1f 3b 0f 6b e9 3c
       0.023715263 -0.013813901 0.0024354102 0.028493432
0000c0 df d3 4c bc 57 57 6e 3d 86 da 8f bc 6f 25 80 bc
       -0.012501686 0.058188763 -0.017560255 -0.01564285
0000d0 93 e8 04 3d a6 83 b9 bc 52 87 d4 3a 2d fa dc 3c
       0.032448363 -0.022645783 0.0016214645 0.026974762
0000e0 cc fb 49 3c 2b 33 19 3b 8a 20 f9 3c f8 7f 7c bb
       0.012328099 0.0023376446 0.030411024 -0.0038528424
0000f0 5a 05 d4 bc 27 dc f0 3c 40 3b 25 bb 5c 67 7c bc
       -0.025881458 0.029401852 -0.0025212318 -0.015405502
000100 16 d3 81 bb 78 53 12 bc 82 cd 84 bc fb 0d e2 3c
       -0.003961931 -0.008931033 -0.016211275 0.027594557
000110 cd a8 3d bc ae 64 c3 bb 56 65 86 3b ec 46 d9 3c
       -0.01157589 -0.0059629297 0.0041014357 0.026523076
000120 58 6f c3 bb 25 80 da 3c 8c ea 0d bd 18 c5 ad bc
       -0.005964201 0.026672432 -0.03464751 -0.021212146
000130 24 35 bb 3c dd 6e bc 3c 57 46 b2 3a 8b d1 6c 3c
       0.022852488 0.023002082 0.0013601285 0.014454256
000140 81 eb ca 3c c2 05 97 bc b4 9e de 3c d6 e0 b5 bc
       0.0247705 -0.018435363 0.027175285 -0.022201937
000150 77 ab b2 3c 6a 4e 44 3d d8 da a3 3c f8 6b 8b bc
       0.021810276 0.047926344 0.020001814 -0.017019257
000160 fb 12 00 3d 70 f8 a4 3c 80 a8 a0 bc c1 0a 78 bc
       0.0312681 0.020137995 -0.019611597 -0.015139283
000170 a0 4e 27 3b 31 26 56 bc fc 1d 77 3c 80 c1 ce 3b
       0.0025529042 -0.013070629 0.015082832 0.006309688
000180 f0 93 96 b9 33 69 44 ba c9 2c aa bc 28 c7 09 bc
       -0.00028720452 -0.00074924825 -0.020773308 -0.008409299

fc2.weight f4 [64, 100]
000000 2d 4c f4 3d 51 01 fb bb 26 97 35 be a6 59 19 3e
       0.11928592 -0.007660069 -0.1773344 0.14975604
000010 51 04 26 3d 20 29 83 3e 78 53 20 3e e8 5e b9 bd
       0.04053146 0.25617313 0.15656841 -0.09051305
000020 e8 24 51 3e 1c c8 9a bc 4a 1f c1 3d 75 62 22 3e
       0.20424235 -0.018894248 0.09429796 0.15857871
000030 b6 21 84 bd 4d 42 a4 3d 47 13 53 3d fa 51 f2 bc
       -0.06451742 0.08020458 0.051532056 -0.029580105
000040 40 4b 78 3e 10 88 26 be 76 89 9f bb bf 0c 6a bd
       0.24247456 -0.16262841 -0.0048686815 -0.057141062
000050 b3 95 90 3e 9e 86 57 3e 9b 40 fa 3d df 99 7a ba
       0.2823921 0.21047446 0.12219354 -0.0009559672
000060 57 a4 86 3d d7 ad 54 3e 30 05 c7 3d be 7d 04 3e
       0.06574314 0.2076944 0.09717786 0.12938592
000070 30 69 42 3e 0b 20 18 bd 8d 54 76 be 49 5e 5d 3e
       0.18985438 -0.037139934 -0.24055691 0.21617998
000080 cd 10 12 3e 8a 68 7e 3d 8b 86 5d be 49 6a a7 3e
       0.14264221 0.062111415 -0.21633355 0.32698277
000090 3d 01 bf 3e 87 e1 7b be 95 52 7e be 4d 29 91 3e
       0.37305632 -0.2459775 -0.2483619 0.28351822
0000a0 8c 86 45 3e 13 a8 97 3e ce e1 4b be 24 09 b0 bc
       0.19289607 0.29620418 -0.19910356 -0.021488734
0000b0 5d fe 92 3c 8e 07 af 3e 50 0e ff bd ca 2d 35 bd
       0.017943555 0.3418545 -0.12453902 -0.04423312
0000c0 7c 0e ca 3e 35 94 c0 3d bc bf cf 3b 02 8b 9e 3e
       0.39464176 0.09403268 0.006339995 0.3096543
0000d0 86 8b bf bd 39 ad a7 3e 00 3e 80 be c3 e9 3f 3e
       -0.09352784 0.32749346 -0.25047302 0.18741517
0000e0 01 85 6a 3d a4 a3 87 3c 22 23 32 3e 17 86 af 3e
       0.05725575 0.016557522 0.17396215 0.3428199
0000f0 ca 62 e4 3d 3e b3 3e 3e 20 8f d8 bc 75 a0 a9 3d
       0.11151655 0.18623063 -0.026435435 0.08282558
000100 90 e4 96 be b3 c6 1b bd 29 39 9a 3e 47 44 e5 3d
       -0.29471254 -0.03803129 0.30121735 0.111946635
000110 77 59 5e 3e 36 a0 16 3e ea 1b 99 3e 92 2b 38 be
       0.21713816 0.14709553 0.2990411 -0.17985371
000120 a7 e9 7a 3d 22 73 2e 3e a0 ca e6 bd 70 62 2e bd
       0.061257984 0.17036107 -0.112691164 -0.042574346
000130 77 a4 54 3e 13 1c 4c be ad d0 98 bc fa fe 4e 3e
       0.20765863 -0.19932584 -0.018654192 0.20214453
000140 57 af 7e 3e 5a 47 57 3e 7f dd b5 3d 5a b9 24 be
       0.24871574 0.21023312 0.08880138 -0.16086331
000150 d2 09 2f bd 59 43 5f bd a4 af 93 3e 24 20 46 bd
       -0.042733975 -0.054507587 0.2884494 -0.048370495
000160 87 a8 3d 3e 66 b0 9b 3e c9 81 a5 3e b5 31 6d 3e
       0.1852132 0.3040802 0.3232558 0.23163493
000170 cd f7 70 bb 76 ac 1e 3e aa eb 1e 3d f9 4a 9a 3d
       -0.0036768795 0.15495476 0.038798966 0.07533831
000180 83 e8 7e 3e cb 7c 83 3e 5c 06 05 3e 5e 89 db bc
       0.24893384 0.25681147 0.12990707 -0.0267989
000190 51 fc 9e 3b 9e 80 a4 3d 58 00 07 bc 04 77 19 3e
       0.004851856 0.08032344 -0.008239828 0.14986807
0001a0 52 c1 b4 3c 45 7c 7c 3e 81 32 76 3d cd 29 28 3d
       0.022064839 0.2465678 0.060106758 0.04105549
0001b0 eb d1 4a 3e c7 43 82 bc c3 92 bb 3d e1 a0 8e 3e
       0.1980664 -0.01590146 0.09158852 0.27857116
0001c0 ad da 83 3c 44 e4 af bd f7 55 c8 bd 20 bf be bc
       0.016095484 -0.0858846 -0.097820215 -0.023284495
0001d0 9d 5b 8f 3e 97 cb da bd 63 f5 3c 3d 9c 3a 39 bc
       0.27999583 -0.10683363 0.046132457 -0.0113054775
0001e0 04 00 9e 3e f8 a0 44 3e b7 53 61 bd 53 eb 73 bd
       0.30859387 0.1920203 -0.055011477 -0.059550595
0001f0 67 02 c9 bc fd 43 2c 3e b3 bf 17 bd e6 fb e9 3d
       -0.024537278 0.1682281 -0.037048053 0.11424999
000200 57 7c 64 3e 38 15 b3 bd 84 d3 52 be c6 31 ae 3e
       0.22313057 -0.087442815 -0.205885 0.3402235
000210 17 96 5e 3e b6 0b b8 3d 36 1c de bd 64 99 56 3e
       0.21736942 0.08986609 -0.108452246 0.20956951
000220 66 f0 b8 3e c1 a4 af bd f6 09 57 be 9d 4a 68 3e
       0.3612091 -0.08576346 -0.20999894 0.22684713
000230 df 5c 32 3e b9 66 33 3e fd d8 de bd 53 fd e4 3c
       0.1741824 0.17519654 -0.10881231 0.027952826
000240 27 1c 97 3d 1e 45 05 3f 6f 70 e8 bc 7d 05 1f 3d
       0.073784165 0.5205859 -0.028373925 0.038823593
000250 57 01 bb 3e 44 51 b4 3c 2f 5b a2 bd d8 6d f5 3d
       0.3652446 0.022011407 -0.07927548 0.11983842
000260 33 75 f9 bd ce 9a 3c 3e 32 7d d2 bd e5 59 5d 3e
       -0.12180557 0.18418428 -0.10277785 0.21616323
000270 94 22 0d 3d 45 f0 72 bc 1a 5f 3a 3e ad 03 2a 3e
       0.034456804 -0.0148277925 0.18200341 0.16602965
000280 24 ac 99 3e e8 11 04 3e 70 99 be bd 50 18 57 3d
       0.30014145 0.12897456 -0.0930661 0.05251342
000290 71 ae 84 be de 07 ce 3d 7c 4c 6e 3e c2 e8 5e bd
       -0.25914338 0.10060094 0.23271364 -0.054421194
0002a0 5b 1e 25 3e f3 49 b7 3d f0 7a 8e 3e f3 78 2d bd
       0.16124861 0.089496516 0.2782817 -0.042351674
0002b0 ed 98 ab bc a5 72 6f 3e 25 9f 52 bd ef 5f a7 3d
       -0.020946944 0.23383577 -0.051421303 0.08172595
0002c0 cc 58 f0 3d 18 24 4a be 82 b9 05 bb 2b b3 40 3e
       0.11735687 -0.19740331 -0.002040476 0.18818347
0002d0 a5 58 68 3e f3 15 61 3e 39 a0 2f 3e 49 c2 5c be
       0.22690065 0.21981029 0.17150964 -0.21558489
0002e0 90 61 08 3e 70 ac 12 b9 7b 68 3d 3e 66 ac b9 3d
       0.13318467 -0.00013987883 0.18496887 0.090660855
0002f0 75 d3 5e 3e a8 8c 36 3e b3 ce 75 3e 9a 19 3e 3e
       0.21760352 0.17827094 0.2400463 0.18564454
000300 ea 69 81 3d 5a 63 11 3e 8b 64 e4 3b 94 a3 6e 3c
       0.0631903 0.14198056 0.0069699935 0.014565367
000310 ef 11 ed 3d 68 b3 8e 3e 4c 11 62 3e 8b 76 cd 3c
       0.11575686 0.2787125 0.2207691 0.02508094
000320 16 4e dc 3d fe 3f 23 3d 3f 2f 93 bd fe 58 8e 3e
       0.10757081 0.03985595 -0.07186746 0.2780227
000330 4a 2b 25 3d de bd 8f 3e bd d2 a0 bc 7a 76 77 3d
       0.040324487 0.28074545 -0.019631738 0.060415722
000340 42 2e 5c 3e e5 5c 20 be 44 65 cd 3c 6f c4 66 3e
       0.21502021 -0.15660436 0.025072701 0.22535871
000350 0d 6f 8b 3d 91 01 38 bc 43 09 c6 3d c1 d6 8a bd
       0.06808291 -0.011230842 0.09669735 -0.06779242
000360 6f 69 46 3e af 6d 1c be 1e ce 1c be 8e 6c 13 be
       0.19376157 -0.15276216 -0.15313002 -0.14396879
000370 ea 07 93 3e ee 27 2e 3e 0f a1 10 bd 31 f9 c3 3d
       0.28716975 0.1700742 -0.035309847 0.09569014
000380 a5 c6 8a bd 94 67 6a 3e f7 09 9a bd 37 f0 5c 3e
       -0.0677617 0.22891074 -0.07521432 0.2157601
000390 47 33 85 3e ae d7 15 be b4 82 48 be f5 78 ae 3e
       0.26015684 -0.14633057 -0.1958111 0.34076658
0003a0 b5 dd 8c 3e d1 be 6a bd fe 6b 30 be 80 a1 88 3e
       0.275129 -0.057310883 -0.17228696 0.26685715
0003b0 32 29 ad 3e 30 3b 29 be cb e4 80 be 38 9b 28 3e
       0.33820492 -0.16526484 -0.25174555 0.16465461
0003c0 a7 b1 2e 3e 01 47 8c 3e 8d e5 e7 bd bb 36 c3 3d
       0.17059956 0.27397922 -0.1132308 0.095319234
0003d0 2c 96 1f 3e 96 b0 9e 3e a6 1a f3 bc f0 7a ff 3b
       0.1558463 0.309941 -0.029675793 0.0077966377
0003e0 4f 99 8e 3e 7b dc 29 3c b3 48 df bc f5 24 59 3e
       0.2785134 0.010367508 -0.027256345 0.21205504
0003f0 6e ce 00 be 2b f2 88 3e 2f f5 a8 be fe d7 8f 3d
       -0.12578747 0.2674726 -0.3299956 0.07023619

fc2.bias f4 [64]
000000 33 d0 76 bc f0 c3 a2 bb e2 ed 90 3d c9 50 e3 bd
       -0.015064287 -0.004967205 0.070766225 -0.11099393
000010 b3 1b 0e 3d 2d 8c ae 3d 76 bb 08 3e af ad 38 3d
       0.034694385 0.0852283 0.1335276 0.045087513
000020 6c 2e 81 bd f9 da 01 bb 9d 56 90 bb a0 61 d3 3d
       -0.063076824 -0.0019814356 -0.0044048564 0.10321355
000030 77 cd 4e bd d7 a6 a9 bc 80 49 70 bd 47 21 e6 bc
       -0.050488915 -0.020709438 -0.058663845 -0.02809204
000040 4b 3c 76 bd ce 32 10 bc 9a 41 a9 3d 2c 03 83 bd
       -0.060116094 -0.008801175 0.08264466 -0.06397089
000050 84 bc 6c bd 20 f8 49 3d 80 8e a3 bd 81 d1 d5 3d
       -0.05779697 0.049308896 -0.07986164 0.1044035
000060 99 29 46 bd 13 4c a2 3d 69 a7 a8 3d 94 ac 5b bb
       -0.048379514 0.07924666 0.08235056 -0.0033519613
000070 71 84 14 3e 31 46 ce bb de 41 3c bd ee 2d 1d 39
       0.14503647 -0.0062949886 -0.045961253 0.00014989797
000080 c4 6b 8b 3d 53 e1 b2 3d c6 71 9d 3d 73 33 8c 3d
       0.06807664 0.087343834 0.07687716 0.06845751
000090 d2 53 44 3d 2a de 25 bd 41 c5 0e 3d ba 25 7c 3d
       0.0479315 -0.040495075 0.034856085 0.061559416
0000a0 ac 01 cf 3d aa e4 fa 3d fb b1 ab bd 51 d5 af 3b
       0.10107741 0.122506455 -0.083835565 0.0053660055
0000b0 b4 83 73 bc 8f 23 22 3c 9c de b9 3c 98 8f ac 3d
       -0.014862943 0.009896173 0.022689156 0.08425826
0000c0 7e 77 42 bd 68 3b 1a 3e 07 ca b2 bc fa dd a7 bc
       -0.047477238 0.15061724 -0.02182485 -0.020491589
0000d0 26 d3 7c bd 36 5f 5c bc c7 19 f4 3c 02 ff 94 3b
       -0.061724804 -0.013450434 0.029797448 0.004547001
0000e0 ae c2 e4 bc d2 0e 3b 3d 5e d5 75 3d 3e 86 aa 3d
       -0.027924862 0.04566843 0.060017936 0.08326386
0000f0 76 8d 60 3d a1 b1 82 bb 79 b1 e7 3d 63 d7 b4 3d
       0.054822408 -0.00398846 0.11313147 0.08830144

fc3.weight f4 [32, 64]
000000 d9 f0 ee bc f5 7e 3f 3c 91 fb fe 3c ec 31 8a 3d
       -0.02916758 0.011687984 0.031125816 0.06747803
000010 e2 0d 16 be 8b 53 2b 3e fe 3d d7 3d 70 09 6b 3d
       -0.14653733 0.16731088 0.10509871 0.057382047
000020 e0 d0 2b 3e 64 ef 6a bd b2 13 fa bc 61 fc bd bd
       0.16778898 -0.057357207 -0.03052697 -0.09276653
000030 c6 b5 c9 3c 3b a1 53 be 8d 9c fa bd a8 02 93 3d
       0.02462281 -0.20666973 -0.12236891 0.07178241
000040 d5 05 2c be 36 d1 1f 3e e7 7f 12 3e d0 c7 ab bc
       -0.167991 0.15607151 0.14306603 -0.020969301
000050 41 fc 63 3d 63 ef 98 bd 32 aa b7 3d c7 d8 f4 bc
       0.05566049 -0.074675344 0.08968009 -0.029888524
000060 d4 b9 09 be 14 70 3f be c2 12 34 3d 4d 2e 09 bd
       -0.13449794 -0.18695098 0.0439632 -0.03349142
000070 ff 5d 29 3e c0 a6 6a bd c7 2e 4f 3e 31 bd f2 bd
       0.16539763 -0.05728793 0.20232688 -0.11852492
000080 c2 bb 4b 3e 4c 97 34 3e ed f9 98 3d 4f 32 38 3e
       0.19895843 0.1763584 0.074695446 0.17987941
000090 ff 33 66 3d 6a 11 1f be f2 ba 8b bc 50 15 47 3d
       0.05620193 -0.15533987 -0.017056916 0.04860431
0000a0 96 d5 32 3d ec 45 86 3d c5 5e ea bc 30 42 8c bd
       0.043660723 0.06556305 -0.028609643 -0.06848562
0000b0 c7 33 0a be 15 43 72 3e 06 df a7 3d fe a7 38 3e
       -0.13496314 0.23658402 0.08196835 0.18032834
0000c0 29 d2 9d 3d 2a 7e d4 bd 41 96 be 3a cf 25 bf bd
       0.077061005 -0.103756264 0.0014540629 -0.09333383
0000d0 18 d4 ef 3d 1d d1 81 3e 99 db d2 3d 94 fb b1 3d
       0.117103755 0.25354853 0.10295791 0.08690563
0000e0 9c 93 de bc 48 3b 3d be ac 32 2c 3e 2e 82 d8 3c
       -0.027169995 -0.18479645 0.16816205 0.026429262
0000f0 6d d8 24 3c 7f c9 3a 3e 7f 64 71 3e 67 36 fe 3d
       0.010061366 0.18240927 0.23573492 0.1241272
000100 0a 53 d0 3d 70 39 fb bc f0 77 2a 3c 56 d7 a9 bd
       0.101720884 -0.030667037 0.010404572 -0.08293025
000110 10 d4 fe bd be fb f3 3d 4c 23 d4 bd 0c 9a 85 bd
       -0.124427915 0.119132504 -0.10358295 -0.06523523
000120 9e b1 b6 3d 38 e1 9a bc b4 a5 b4 bd fa 59 9d bd
       0.089205965 -0.01890622 -0.08820668 -0.07683177
000130 3c ae 38 3d 98 f9 87 3c e0 94 80 3d 24 da 8c 3d
       0.045088038 0.016598508 0.06278396 0.068775445
000140 94 86 35 bd 40 94 b6 bc 00 62 ee 3b 58 d9 c2 3d
       -0.044317797 -0.022287488 0.007274866 0.09514111
000150 f0 37 5c bc e0 0f aa bb 52 8b ea bd 50 6f 49 3c
       -0.013441071 -0.0051898807 -0.114523545 0.012294605
000160 94 ab f8 bd b4 96 a6 3d 60 00 b9 3b de c3 e8 3d
       -0.12142101 0.08134213 0.0056457967 0.11365484
000170 18 9a 66 bd 3a 5d 97 bd c0 74 74 3b 58 ec f9 3c
       -0.0562993 -0.073908284 0.0037301034 0.030508205
000180 96 5c f5 bd 94 c0 55 bd 76 46 c1 3d c8 43 be bd
       -0.1198055 -0.05218561 0.094372675 -0.09290272
000190 78 a5 df 3d e6 37 e7 3d 5a 20 c7 3d 00 68 2b bb
       0.109202325 0.11289959 0.097229674 -0.0026154518
0001a0 c0 40 7c 3d 12 6f a9 bd de a2 d0 bd 60 e9 b7 3b
       0.061585188 -0.08273138 -0.101873145 0.0056125373
0001b0 20 44 61 bd 6e e7 e4 bd b8 ec ab 3c 70 ef cf 3c
       -0.05499661 -0.11176954 0.0209869 0.025382727
0001c0 e0 8d b7 bd 04 70 51 bd 1c 10 29 bd b0 1c ad bc
       -0.089626074 -0.051132217 -0.04127513 -0.021131843
0001d0 42 91 aa bd 90 f4 60 bc 50 0d ad bd 9a b9 c7 bd
       -0.08328487 -0.013730183 -0.08449805 -0.097521976
0001e0 8c cc a2 3d 4c 58 3f 3d e0 34 bb 3c b8 ea 59 bd
       0.079491705 0.046715066 0.022852361 -0.05320236
0001f0 6c fc aa bd 40 2e e0 bd 62 a5 88 3d ec 72 b7 3d
       -0.08348927 -0.109463215 0.06672169 0.089574665
000200 37 58 4d bc 5e ea 21 be 59 1a e7 bd 19 91 b1 bc
       -0.012533239 -0.1581206 -0.11284322 -0.021675633
000210 63 26 9f bc 90 7d 45 3e 8f 3e f6 3d 98 a0 2c 3e
       -0.019427484 0.1928618 0.12023651 0.16858137
000220 96 49 33 3d 95 40 24 3e 5e 1f 9c bc 1e 4a a7 bd
       0.04377135 0.16040261 -0.019057926 -0.081684336
000230 fe 3f 4e 3e 73 d5 5f be 27 a4 25 be d7 b8 92 3e
       0.20141599 -0.21858768 -0.161759 0.28656647
000240 e2 4e 73 be 80 34 48 3e 73 80 37 3e 30 b1 da 3d
       -0.2376056 0.19551277 0.17920093 0.10678327
000250 34 81 12 be ba 1c 81 bd 83 ef 77 bd b0 1d 1c 3d
       -0.143071 -0.06304307 -0.06053115 0.03811425
000260 c0 bb cf bc 84 9b 49 be 69 04 83 bd 28 68 a8 bd
       -0.02535808 -0.19688231 -0.063973255 -0.08222991
000270 0f 6e 72 bd 0b 69 38 3c b3 16 9a 3c aa c2 81 bc
       -0.05918699 0.011255513 0.018809652 -0.015839893
000280 9b a2 3e 3e e2 4c 48 3e 0c ec bf 3d 27 ba b1 3d
       0.18616717 0.19560578 0.09371194 0.08678084
000290 d2 59 cc 3d 7d 1e c8 bd 57 cf c1 bd eb 60 48 3e
       0.09978069 -0.0977144 -0.09463375 0.19568221
0002a0 6d a7 4d be 93 2d 81 3e ee 4d 1b be c0 97 cb bd
       -0.20083399 0.25230083 -0.15166447 -0.099410534
0002b0 87 54 fd bd cb b4 11 3e a0 f7 45 3d 8f e2 e2 3d
       -0.12369638 0.14229123 0.048331857 0.11078369
0002c0 f3 97 13 3e 6a 58 41 bd bc ad c2 bd fa b5 3a 3d
       0.14413433 -0.04720346 -0.095057935 0.045583703
0002d0 55 05 e5 3d 5a ca 24 3e 17 eb 11 3e 0e 11 6c 3e
       0.11182658 0.16092816 0.14249836 0.23053381
0002e0 e5 0b 23 3d b8 c5 e4 bd 24 94 a6 3d a1 f6 00 bd
       0.039806265 -0.11170524 0.08133724 -0.031485204
0002f0 14 b4 6d 3e a8 d4 01 3e 6f 7c e2 3d 10 98 6b 3d
       0.23213226 0.12678778 0.1105889 0.057518065
000300 39 ee fb bd 55 de 55 bc 3f cd 23 bd 3c 9d 39 bd
       -0.12301297 -0.013053496 -0.03999066 -0.045315966
000310 db 84 fa 3c 37 12 de 3d 1e 45 53 bd 0f 0f 48 3e
       0.030580929 0.10843318 -0.051579587 0.19536994
000320 c1 2b 66 3e a0 42 86 3d dc 68 c8 bd b4 f8 4f 3d
       0.22477628 0.065556765 -0.09785625 0.05077429
000330 1a 06 8c 3e 6c 11 4f be 06 9c 98 bc e5 51 bf 3d
       0.27348405 -0.2022149 -0.018629085 0.09341792
000340 88 2e 6a bd 6e a5 7e 3e 66 d3 7d 3d 80 ca eb 3c
       -0.057173282 0.24867794 0.061969183 0.028783083
000350 b6 70 f0 bd 01 7a 85 bd 40 54 34 bd d9 0d 0b 3e
       -0.11740248 -0.06517411 -0.04402566 0.13579501
000360 c4 82 09 3d 91 4c 4c be f0 a1 05 be a9 92 9d bd
       0.033571973 -0.19951083 -0.13050056 -0.07693989
000370 84 ca 8e 3d d4 0b fe bd d2 ba 61 3d 56 a5 d2 bc
       0.069722205 -0.124046 0.055109806 -0.025713604
000380 ca 29 8d 3e 90 fd 88 3e c5 c1 52 3e 68 f0 ce 3d
       0.27570945 0.26755953 0.2058173 0.101044476
000390 dc c3 74 3c e2 29 01 bd 99 f8 9a bd 22 4f ce 3d
       0.014939275 -0.031534083 -0.075669475 0.10073687
0003a0 47 26 cc bd 4c 67 51 3e 2d 12 26 bb 10 01 62 be
       -0.09968238 0.20449561 -0.0025340423 -0.22070718
0003b0 bb d2 c5 bd 4a 8a 72 3d 66 6d 1d bd fa 61 b3 b9
       -0.09659334 0.059213914 -0.03843441 -0.0003421454
0003c0 84 40 2f 3e ee f3 5f bd 28 fd 29 be 87 cf bd 3d
       0.17114455 -0.05467599 -0.16600478 0.09268098
0003d0 fa e3 8a 3d c2 00 7c 3e d9 fb 84 3d 0c 7f 35 3e
       0.06781764 0.24609664 0.06493349 0.17724246
0003e0 2e 1a c0 3d 48 20 ad bd a7 bf 64 3e 0d 42 0d be
       0.093799934 -0.08453423 0.22338735 -0.13794728
0003f0 b5 f8 51 3e 18 9c 8e 3d 71 72 0b 3e 4e 9f eb 3d
       0.2050503 0.06963366 0.13617875 0.11504994

fc3.bias f4 [32]
000000 8b 3d 1b bd 46 aa 83 bd 75 82 50 3d 32 02 b8 bc
       -0.03790049 -0.064289615 0.050905664 -0.022461984
000010 76 5d cb 3c ea ea be bd 2f 37 16 3d e1 66 73 3d
       0.02482484 -0.0932215 0.03667372 0.059424285
000020 20 0d 0d 3e eb 61 ae 3d 91 cf bb 3d 47 eb 96 bd
       0.13774538 0.0851477 0.091704495 -0.07369094
000030 ae b0 e0 3d 10 b0 02 bd b3 47 57 3d bc dc 31 3d
       0.10971199 -0.031906188 0.052558612 0.0434234
000040 d2 06 62 3b 72 3b 69 3c 24 00 06 bd d9 6d 82 3c
       0.0034488929 0.014235364 -0.032714978 0.01592152
000050 ea ad 65 bd 5f ff 3e bd 00 a0 fe 3d 8e 7b be bd
       -0.05607406 -0.04663026 0.12432861 -0.0930091
000060 c4 42 2f bd 2f 90 39 3d ab c7 07 bd 32 3f a0 3d
       -0.042788282 0.04530352 -0.033149403 0.078245535
000070 02 e0 99 3d 81 f0 b6 bd 64 03 a4 bb 63 ca 21 3d
       0.07513429 -0.08932591 -0.005005287 0.03949965

fc4.weight f4 [2, 32]
000000 01 7c e0 be 62 be ed bd 6d e2 67 be 2c a5 8a be
       -0.43844607 -0.11608578 -0.22644968 -0.2707914
000010 0b a8 be be cc 1e 2a 3d c0 01 f6 3e 23 84 99 3e
       -0.37237582 0.041533276 0.4804821 0.29983625
000020 aa 64 e3 be 55 d0 05 3f c2 d9 8e 3e e4 f9 fb 3e
       -0.44412738 0.52271014 0.2790051 0.4921409
000030 cd e2 b4 3e 74 d0 84 3e 70 da da be 29 12 f6 be
       0.35329285 0.25940287 -0.4274478 -0.4806073
000040 d6 57 f6 be d8 3a 06 bf d5 66 12 bf 33 87 02 bf
       -0.48113889 -0.5243354 -0.5718816 -0.5098755
000050 73 25 4c bd 5d aa f3 3d 8f 7a a8 be 67 7b 31 be
       -0.0498404 0.118977286 -0.32906005 -0.1733223
000060 bb 07 ea 3d 43 37 00 3f 65 cd ea be 98 28 dd be
       0.11427256 0.5008432 -0.4585983 -0.43195033
000070 0f fe a0 be ad 27 bc 3e f1 80 bf be 32 24 e2 be
       -0.3144383 0.3674902 -0.37403062 -0.4416824
000080 3f 2b a5 3e 70 97 d3 bd 4c aa 01 3f 7a 69 ed 3e
       0.32259557 -0.10331619 0.5065048 0.46369535
000090 b2 94 fc 3e 58 63 18 3d f5 7e a4 be a1 56 d7 be
       0.49332196 0.037204117 -0.3212811 -0.4205828
0000a0 a5 5c a5 3e ed 11 d3 be b4 c6 05 bf 8e 75 e6 be
       0.32297245 -0.41224614 -0.5225632 -0.45011562
0000b0 a8 71 d7 be 7e 64 04 bf 0f 12 9e 3e ce 88 d6 3e
       -0.420789 -0.5171584 0.30873153 0.4190125
0000c0 01 cb f5 3e 0e 10 d3 3e 21 54 10 3f f2 82 aa 3e
       0.48006442 0.41223186 0.5637837 0.33303028
0000d0 73 37 ba bd 94 e9 17 be a6 bf c2 3e 7c 1c 96 3e
       -0.09092607 -0.14835197 0.3803684 0.29318607
0000e0 04 24 a7 bd 3f eb 95 be d0 97 d2 3e 0c 7a 07 3f
       -0.08161166 -0.2928104 0.4113145 0.52920604
0000f0 73 95 b1 3e d6 27 67 be b0 c1 da 3d 75 e0 f2 3e
       0.34684333 -0.2257379 0.10681474 0.47436872

fc4.bias f4 [2]
000000 1e 36 a5 3d ac 73 20 3d
       0.08066963 0.039172813
