checkpoint/model-fold-3.pt (torch, 446799 bytes, 8 tensors)

fc1.weight f4 [100, 1024]
00000000: dede 2d3d 5be0 993d c9fb aabb 6222 68bc
00000010: a8d8 393d a971 873c 400d 25bd 8a60 58bd
00000020: d553 03bd 9c0a 9ebd 8433 f93c 085a 45bc
00000030: 1222 5b3d 1992 6c3c 90f3 21bd a114 dc3c
00000040: d419 27bd 57e8 1c3d cd88 ee3c b996 5e3b
00000050: 66d6 acbc ff4f 7e3c a90b da3c d852 2d3c
00000060: 5634 c0bd 3646 43bb 784e b1bc a688 253d
00000070: 72e1 f63c b29b 8cbd 4654 aabd 5261 dcbb
00000080: 0d9d 0dbc 5cad afbb 6239 363d be1a 283c
00000090: 567a c43b 7d97 29bd 6132 05bc e512 dcbc
000000a0: f3a2 253d fc5a b23c 5c69 4c3d 7c23 543c
000000b0: 7c40 8dbc 0d2f 36bd 35aa 563d d514 863c
000000c0: 3f50 4e3d 4d61 af3c d226 aabd 1675 8ebc
000000d0: e650 8ebc 53e2 7bbd f1ae ebbb d65b f4bc
000000e0: 153b 1a3a 4ef0 9bbb de2a 933b 94db b83c
000000f0: a30e 5dbc 9ea5 09bd 31a1 0d3d 7e7b a33c
00000100: 8672 c83c f9d1 d63c 54a3 163d 1181 a43b
00000110: aef9 5bbc c52b d5bc af60 6cbd 17f3 d03c
00000120: 2566 2dbc 2684 8abd bd3c 4fbc 9455 63bd
00000130: 4b99 53bd fa23 af3b db88 ef3c d4d5 1c3d
00000140: b40e 51bd ec26 95bc dfa2 8b3d 3f3d c8bd
00000150: 3d5c c33c c905 c5bc 4b34 fabc 61d9 21bd
00000160: 4dfe 553c cec3 c2ba cac5 203d 8b9b 6fbc
00000170: eb64 7abd a7a0 9ebc 738f 50bd 596e 07bd
00000180: ad91 a73d 7f93 73bc bb80 b33c 9d02 d6bc
00000190: 8b18 0a3d 35fb 41bd 6115 adbc 74f0 973c
000001a0: 4a31 c63c 37d4 69bd e5ab c8bc b11d 26bd
000001b0: 2c68 59bd 6c37 273c 4402 c33d 5f6b 1bbb
000001c0: d348 4f3d e069 fe3c 09e3 0dbc 8b8b a4bd
000001d0: 812f 1f3b 08a8 e7bc 488f 2dbd 41f1 29bd
000001e0: 0c48 433d 1bdc 183d 03f8 08bd 38cb 57bc
000001f0: abb6 06bc 0b4a 0dbd 6295 91bc 20e6 54bc
00000200: 7550 80bd c9b4 9fbc 8572 6fbc 8494 583d
00000210: 895b 31bd 1d4b 063d 8f18 433d bb4a 113d
00000220: 6c4a 423c d47e bebc c00f 933d b934 bf3c
00000230: 47e8 86bc e409 c3bc 6dc0 e33c 54ac 7ebd
00000240: 98ef eb3c 4e75 3b3d 95d1 a3bc e07a 813d
00000250: 463e c83b 6f6e d2bd a36f 543c 0cfa d6bc
00000260: 3594 44bb 2c69 94bd 9ee5 25bb c98c 82bd
00000270: f418 713d 86dc 2c3c 47ef ec3a a649 903b
00000280: 6852 63bd 0446 2b3d 61a4 a73c 238f 21bd
00000290: af71 c33c 3090 273d 301a afbd c5a6 203d
000002a0: 040f d3bc 2cc4 15bd f2d7 16bd 94a6 8e3b
000002b0: 1432 efbb 2bdf 893b 7d10 5dbd b084 32bc
000002c0: ea1f 6bbd 8d15 13bd 66b7 a4bc b23c 633c
000002d0: df84 453d bae1 c137 7ce3 72bd 7467 28bd
000002e0: 3335 b33c 1231 db3c a34e a9bc 9c98 d9bb
000002f0: 73da 823d 456d dc3c b40e 8e3d 5200 efbd
00000300: 9824 1abc b950 433d 94b4 333d cf67 0a3d
00000310: f292 643d 033e bbba 6335 8dbd 2199 fb3c
00000320: a0a2 08bd bc6e 4cbc 1399 13bc 9e40 77bd
00000330: e8c4 d83c e106 923c 8591 593c 1953 203b
00000340: d72c 1cbd 8120 cd3c eaaa 623b 9a16 1b3d
00000350: 8d7a 99bd 2f50 0ebd 0f8a d2bc a829 643c
00000360: 6a7e 523d 64e7 8d3c 11c4 85bd 2280 54bd
00000370: 6fe1 8b3c 7aaf 2abd 6947 283d 5287 5a3c
00000380: 481b 27bd 3114 4e3d bd04 233d 1818 833d
00000390: 1e00 94bd 18cf a43d 69d6 a73c ce9d efbc
000003a0: 87b8 8cbc 52d6 94bc 3261 8e3b 051f d23c
000003b0: d7e1 08bd 7760 9dbd 0402 d4bc f1ad c13d
000003c0: 869d 0abc 96a5 0ebd 88bc 0dbd f221 d0bb
000003d0: e783 443c 8243 113d 51e4 19bd 8ee6 e43c
000003e0: dd53 f73c 69b6 07bd 131d 873d 7730 b4bc
000003f0: 5196 863c 2066 d2bb c832 533c 7e83 58bd
0.04244887 0.075134955 -0.0052180034 -0.014168354 0.045372635 0.01653369 -0.04029584 -0.05282644
-0.03206237 -0.07716867 0.030420072 -0.012045391 0.05349929 0.014439129 -0.03953892 0.026865305
-0.040796116 0.038307514 0.029117966 0.003396435 -0.021098327 0.015522002 0.026616888 0.0105788335
-0.09384982 -0.0029796488 -0.021643862 0.04041352 0.030136798 -0.06865634 -0.08316855 -0.0067254687
-0.008643401 -0.005361242 0.04448832 0.010260282 0.005996029 -0.041404236 -0.008129687 -0.026864478
0.040438604 0.0217719 0.049905166 0.012947913 -0.017242663 -0.044478465 0.052408416 0.016367355
0.050369497 0.021408701 -0.08308186 -0.017389815 -0.01737256 -0.061495136 -0.0071924855 -0.029828947
0.00058834377 -0.004758871 0.004491194 0.02256564 -0.013492259 -0.03360521 0.034577552 0.019956347
0.024468672 0.02622317 0.036776856 0.0050202687 -0.0134262275 -0.026021848 -0.057709392 0.02550654
-0.010583435 -0.067634866 -0.0126487585 -0.055501536 -0.051659863 0.005344865 0.029240062 0.03828986
-0.051039413 -0.018207036 0.068181746 -0.09777307 0.023847694 -0.02405061 -0.030542513 -0.03951395
0.013061118 -0.001485938 0.039251126 -0.014624487 -0.0611314 -0.019363714 -0.050918054 -0.03306422
0.08182082 -0.014866709 0.02191197 -0.026124293 0.033714812 -0.04735871 -0.021128358 0.018547274
0.024193425 -0.05708715 -0.024496028 -0.04055566 -0.05307786 0.010206085 0.095219165 -0.0023715121
0.05060656 0.031056345 -0.008660086 -0.08034428 0.002428979 -0.028278366 -0.04237297 -0.041489843
0.04767613 0.037319284 -0.033439647 -0.01317101 -0.008222262 -0.03449444 -0.017771427 -0.012994319
-0.06265346 -0.019495385 -0.014614706 0.05287601 -0.043300185 0.032786477 0.047630843 0.03547166
0.011858564 -0.023253836 0.071807384 0.02334057 -0.01646818 -0.023808427 0.027801717 -0.062176064
0.02880077 0.045766167 -0.019997397 0.06322265 0.006110939 -0.1027497 0.012966069 -0.026242279
-0.0029995565 -0.072466224 -0.0025313864 -0.06374509 0.058861688 0.010550624 0.0018076681 0.004403311
-0.05549851 0.04181482 0.020464124 -0.039443146 0.02385792 0.040908992 -0.08549917 0.039221544
-0.025763996 -0.036564037 -0.036827035 0.0043533538 -0.007299671 0.004207512 -0.053970803 -0.010895893
-0.057403482 -0.035909224 -0.020106982 0.013869451 0.04822242 2.3112505e-05 -0.059298977 -0.041114286
0.021875953 0.026756797 -0.02066738 -0.006640507 0.06389322 0.026907573 0.06936398 -0.11669983
-0.009408139 0.047684405 0.043873385 0.033790406 0.0558042 -0.0014285449 -0.06894948 0.030712666
-0.033358216 -0.012477573 -0.009008664 -0.060364358 0.02646108 0.017825546 0.0132793235 0.0024463593
-0.0381287 0.025039913 0.0034586736 0.03786335 -0.07494078 -0.034744438 -0.025700597 0.013925947
0.05139009 0.01732225 -0.06531537 -0.05188001 0.017075269 -0.041671254 0.041083727 0.013337927
-0.0407975 0.050312225 0.03979944 0.0640108 -0.07226585 0.080473125 0.02048798 -0.029250052
-0.017177833 -0.018168602 0.0043450827 0.025649557 -0.033418503 -0.07684415 -0.025879867 0.09457005
-0.008460408 -0.034825884 -0.034603626 -0.006351703 0.011994339 0.03546477 -0.037571255 0.027941968
0.030191356 -0.033132944 0.06597342 -0.021995766 0.016429098 -0.0064208657 0.012890525 -0.052859776

fc1.bias f4 [100]
00000000: 741f 043d e2a0 a63c 5c52 8abb 9478 a5bc
00000010: e2ed 0b3c 9d76 ce3c eab7 b63b f89d 40bc
00000020: 39ba b53b 3feb 413b 5036 413d 469e df3c
00000030: 25d1 473c 5d62 3bbc 78d9 86bc 9aad fbbb
00000040: e25b 4cbc 8874 2d3a b83d e3bc ce2c 8dbc
00000050: 41e1 f73c 54bf 84bc a237 383d e51b 7b3c
00000060: c1e6 38bc 0cd7 213d 0691 c4bc 29e1 8c3c
00000070: 53e2 823c cb72 7f3c b538 82bc 3bc7 133d
00000080: c696 0a3d 69e6 a63c 06c3 c3bc 0427 e8bc
00000090: 8b91 293c 1fe9 173c c335 e7bc 8089 9c3c
000000a0: 7991 793c d67b aa3c 2195 d4bc 70be cc3b
000000b0: 01ed cb3c 4eef 63bc 4104 5a3b 4189 033d
000000c0: 2e98 4bbc 864d 813d 86da 8fbc f05b 78bc
000000d0: f417 083d b282 aabc e9bc 2a3b 2491 db3c
000000e0: 6e68 8f3c addb 4f3b b2d3 003d a23a 24bb
000000f0: ca92 cbbc d1bb f83c 403b 25bb 5c67 7cbc
00000100: 7a0e 9dbb 2af7 b0bb 33c4 71bc fdf4 053d
00000110: 3d93 2cbc 6b55 b4bb 8bbb c93b b84d d33c
00000120: 586f c3bb 0327 e23c 5921 00bd 18c5 adbc
00000130: add3 bd3c a799 c53c b3f0 e43b 8a6c 693c
00000140: 8593 ce3c 32b2 85bc 5211 ed3c 4e69 b1bc
00000150: d526 d83c 8b6f 513d 8036 a43c 81c5 80bc
00000160: 61be 083d dab2 ad3c 66cb 9bbc b528 74bc
00000170: a04e 273b 517b 47bc fc1d 773c b25b 103c
00000180: ea29 893a d855 8cba cca8 a3bc 5fc2 f4bb
0.03225656 0.020340387 -0.004221244 -0.020199098 0.008540602 0.025203044 0.0055761235 -0.011756413
0.005545881 0.002958968 0.047170937 0.02729715 0.01219586 -0.011437026 -0.016461119 -0.007680607
-0.012473078 0.0006616791 -0.02773939 -0.017233279 0.030258777 -0.016204514 0.04497493 0.015326475
-0.011285485 0.039511725 -0.023994934 0.017197208 0.01597706 0.015591334 -0.01589618 0.036078673
0.033835195 0.02037354 -0.023896705 -0.028338917 0.010349642 0.009271889 -0.028223878 0.019108534
0.015232437 0.020811003 -0.025950016 0.006248288 0.024893286 -0.013912035 0.0033266696 0.032113317
-0.012426419 0.063136145 -0.017560255 -0.015158638 0.03322597 -0.020814274 0.002605254 0.026802607
0.01750585 0.003171663 0.03145189 -0.0025059362 -0.024850268 0.030362995 -0.0025212318 -0.015405502
-0.0047929855 -0.005400558 -0.01475625 0.032704342 -0.010533151 -0.0055033467 0.00615639 0.025793895
-0.005964201 0.027606493 -0.031281803 -0.021212146 0.023172224 0.024121119 0.0069867014 0.014247069
0.025216827 -0.016320322 0.028938923 -0.021656659 0.026385704 0.051131766 0.020045519 -0.015719177
0.033384684 0.021203447 -0.019017886 -0.014902283 0.0025529042 -0.012175397 0.015082832 0.008810924
0.0010464762 -0.0010706736 -0.01997795 -0.00746946

fc2.weight f4 [64, 100]
00000000: a67e f13d 1636 baba ac45 26be 04a2 c13d
00000010: c4bc 253d 0e37 583e b16d 143e e85e b9bd
00000020: 02f9 413e 9ea1 cf3b c763 c23d 380b fc3d
00000030: b621 84bd 4d42 a43d 4713 533d fa51 f2bc
00000040: c550 823e 7361 0fbe 829b 983b a7ba 31bd
00000050: 82b5 853e 024a 123e b82d fd3d df99 7aba
00000060: 57a4 863d 3efb 493e 3005 c73d b1c1 c23d
00000070: d694 3f3e 69ed 44ba bb30 4abe 3c3e 373e
00000080: b832 ff3d aa2d 763d b371 38be f07f 913e
00000090: c109 9b3e 51bb 51be a98b 3abe aa41 823e
000000a0: 2cb3 293e 25c5 883e 52c7 44be 2409 b0bc
000000b0: d531 313c bee5 6b3e 000f d7bd 3fc9 40bd
000000c0: 0d18 943e 1cc3 c03d bcbf cf3b 21ff 913e
000000d0: ec85 85bd 7a7c 903e c280 3fbe 069b 313e
000000e0: 318c 563d faa3 e03c 3833 ea3d 4c5f 933e
000000f0: af02 a33d 5553 2b3e 208f d8bc 75a0 a93d
00000100: c4b4 69be 7331 2bbd d0c4 853e b749 e43d
00000110: b5ef 2c3e 3a2c ff3d 24de 503e 90d9 05be
00000120: a7e9 7a3d 60da 053e 29fd 8fbd 7062 2ebd
00000130: 2265 163e 361e 06be e9b7 a9bc 45ae d43d
00000140: 2a8a 3c3e 65bb 473e abd5 453d 12c0 07be
00000150: 1de5 33bd ee88 64bd 150e 693e ca48 2ebd
00000160: ca67 303e 8b5e 903e 8cda 923e fdf8 523e
00000170: cdf7 70bb 66be 163e aaeb 1e3d 2507 9e3d
00000180: 50d3 5c3e ac5d 3c3e 488c f23d cb84 82bc
00000190: 6812 493b 400b b13d f194 e43b d252 c03d
000001a0: 1906 b53c b196 4d3e 2fb7 403d cd29 283d
000001b0: 0232 3a3e 5fd5 183c a368 bc3d a7ec 773e
000001c0: adda 833c 44e4 afbd f755 c8bd 20bf bebc
000001d0: 19f6 943e 3010 adbd a430 663d 1291 483b
000001e0: a293 923e a05a fb3d 9a93 5dbd 53eb 73bd
000001f0: 6702 c9bc d90b 213e b3bf 17bd 677b a13d
00000200: 4f77 603e 7d52 4cbd 7fe7 26be 3d70 9a3e
00000210: 73dc 4a3e 2fb3 b23d f08a 93bd c89f 293e
00000220: 457f 943e ce5f 36bd e805 12be 3643 4a3e
00000230: 0131 153e 3f75 143e aeb3 cfbd 53fd e43c
00000240: f906 893d 4bb5 d03e 7847 02bc 97aa 123d
00000250: 601c 843e 187c b13c 2f5b a2bd 6c78 c13d
00000260: 9d41 c1bd cf14 0e3e 2ec0 21bd 1203 4e3e
00000270: dd62 ee3c 93ea 6fbb 244f fa3d 537e e03d
00000280: 8c02 893e 37b0 e23d 7099 bebd 5018 573d
00000290: 9b18 45be d46e c53d 6029 443e b42d 63bd
000002a0: d19b e43d bcb2 863d 1df7 3b3e a7db d53b
000002b0: ed98 abbc 0c58 453e ea3d 14bc ef5f a73d
000002c0: 1748 623d 897f 04be c7d9 87bb 9185 b43d
000002d0: b7da 243e fe40 503e 0eb3 043e 011c 40be
000002e0: e1d3 063e 84f7 deba 2ea1 fb3d 4945 c63d
000002f0: 523c 503e 8b1c 1f3e 7875 4f3e 8d3d 223e
00000300: ea69 813d f715 083e 8b64 e43b 1d9a 893c
00000310: 8a4b a43d 51f8 503e 8401 553e 41cf 163d
00000320: 0144 d93d dc39 3d3d 8e06 69bd 79e4 643e
00000330: 9ba5 253d 061e 723e f905 f9bc 7a76 773d
00000340: 5216 4e3e 1f23 06be 2bd4 d03c 9040 433e
00000350: 0d6f 8b3d 9101 38bc 4309 c63d c1d6 8abd
00000360: c4c6 523e afd2 04be fa00 13be 6ff8 04be
00000370: 0eb7 883e ad56 d43d b745 0abd 31f9 c33d
00000380: a5c6 8abd 808c 5f3e f709 9abd c074 3a3e
00000390: 16ae 833e 0764 e0bd 4ec4 1cbe f7d8 9b3e
000003a0: 9b42 843e cdbd 72bd 7543 0bbe 8b3d 663e
000003b0: 01c8 893e f558 febd 0a40 3dbe ec37 0b3e
000003c0: 00d0 133e 879e 7b3e 51d2 d8bd bb36 c33d
000003d0: 24dc 183e 4d54 4d3e 6954 1dbc 9c9a a63b
000003e0: 5d1c 323e 532e 283c b348 dfbc 2305 413e
000003f0: 4a33 c8bd f321 643e 5bb5 88be 7a80 6a3d
0.117917344 -0.0014206793 -0.16237515 0.0945473 0.040463224 0.21114752 0.14494969 -0.09051305
0.18942645 0.006336405 0.09491687 0.12306827 -0.06451742 0.08020458 0.051532056 -0.029580105
0.25452247 -0.14002018 0.00465721 -0.043390896 0.26115042 0.14286044 0.12362236 -0.0009559672
0.06574314 0.19724748 0.09717786 0.095096 0.1870912 -0.00075121835 -0.19745152 0.17894834
0.12460846 0.060102142 -0.18012123 0.2841792 0.3028088 -0.20481612 -0.18217339 0.25440723
0.16572255 0.2671291 -0.1921666 -0.021488734 0.010815104 0.23036858 -0.10500908 -0.047066923
0.289246 0.09412214 0.006339995 0.2851496 -0.06519684 0.28219968 -0.18701461 0.17344293
0.05237979 0.02742194 0.114355505 0.28783643 0.07959496 0.16731007 -0.026435435 0.08282558
-0.22822863 -0.041795205 0.2612672 0.111468725 0.16888316 0.124596074 0.2039724 -0.13071275
0.061257984 0.13071585 -0.07030708 -0.042574346 0.14687017 -0.13097462 -0.020717578 0.10384802
0.1841208 0.19505079 0.048299473 -0.13256863 -0.04391967 -0.05579465 0.22759278 -0.042549886
0.17227092 0.2819713 0.28682363 0.20602794 -0.0036768795 0.14721069 0.038798966 0.077162065
0.21564984 0.18395108 0.11843163 -0.015932461 0.0030681137 0.08644724 0.006975763 0.09390797
0.022097634 0.20077015 0.047049697 0.04105549 0.18183139 0.009328215 0.09199645 0.2421137
0.016095484 -0.0858846 -0.097820215 -0.023284495 0.29094008 -0.08450353 0.05619873 0.0030604047
0.2862826 0.12273145 -0.054095842 -0.059550595 -0.024537278 0.15727176 -0.037048053 0.07884865
0.21920513 -0.049883354 -0.16299246 0.30163756 0.19810657 0.08725583 -0.072042346 0.16564858
0.2900335 -0.04452496 -0.14260066 0.19752201 0.14569475 0.14497851 -0.10141693 0.027952826
0.06690783 0.40763316 -0.00795161 0.03580722 0.25802898 0.021665618 -0.07927548 0.09446797
-0.09436343 0.13875125 -0.039489917 0.20118359 0.029099876 -0.0036608323 0.12222126 0.109615944
0.26759756 0.110687666 -0.0930661 0.05251342 -0.19247667 0.096402794 0.19156408 -0.055463508
0.11162532 0.065770596 0.18355985 0.0065264287 -0.020946944 0.19271868 -0.009047965 0.08172595
0.05524453 -0.12939276 -0.004145834 0.08814538 0.16099058 0.20337293 0.12958929 -0.18760683
0.13166763 -0.0017011021 0.12286602 0.09681184 0.2033551 0.15538232 0.20259655 0.15843792
0.0631903 0.13289629 0.0069699935 0.01679712 0.080222204 0.20407225 0.2080136 0.036818746
0.10608674 0.046197757 -0.056891017 0.2235278 0.040441137 0.23644266 -0.030398356 0.060415722
0.20125702 -0.13099335 0.025491795 0.19067597 0.06808291 -0.011230842 0.09669735 -0.06779242
0.20583636 -0.12970994 -0.14355841 -0.12985395 0.2670216 0.103680946 -0.03375789 0.09569014
-0.0677617 0.2183094 -0.07521432 0.18208599 0.25718755 -0.10956579 -0.1530926 0.3043897
0.25832066 -0.05926304 -0.13599952 0.22484414 0.26910403 -0.12419311 -0.1848146 0.13595551
0.14434814 0.24572192 -0.1058699 0.095319234 0.14927727 0.2005169 -0.0096026445 0.005084349
0.17393632 0.010264951 -0.027256345 0.18849616 -0.097754076 0.22278576 -0.26700863 0.05725143

fc2.bias f4 [64]
00000000: a67c 2abc 7f5a 1bba f9cf 9a3d acb5 e1bd
00000010: 039d 1f3d fb69 a33d f03e 003e 1f78 213d
00000020: 0970 92bd 3037 17bc 35ab 8c3a e0c2 c83d
00000030: e5fc 69bd 429c 96bc 0390 64bd bc5b 0bbd
00000040: e8cc 60bd a1e1 88bc 1080 9f3d 2c03 83bd
00000050: fa99 59bd a946 5d3d e118 a2bd 4889 c93d
00000060: 23f8 38bd 3d64 ab3d 5051 b23d 4113 943a
00000070: 5389 0d3e 3550 b6ba 26fb 53bd 5495 803b
00000080: c40d 7c3d e8d9 a73d bf5c 923d f6f8 803d
00000090: 8901 2f3d 7c89 18bd 7f48 223d 0eba 683d
000000a0: 22b6 d93d ac6c ef3d 5eeb a4bd 5597 f83b
000000b0: b788 21bc da6a 543b d72e be3c c026 a23d
000000c0: 9ada 5abd 77ca 1e3e 14fc 9cbc 18c1 a8bc
000000d0: c38f 8cbd 9c15 acbc 8e2f b73c 5db7 83ba
000000e0: 958a 09bd 160a 503d 3382 523d 50ad b33d
000000f0: 2f14 4a3d 4138 34bc b159 db3d 215e a93d
-0.010405695 -0.0005926266 0.07559199 -0.11020979 0.038968097 0.079791985 0.12524009 0.039421197
-0.07150275 -0.009229466 0.0010732176 0.098027945 -0.057125945 -0.018385056 -0.055801403 -0.03402303
-0.054882914 -0.01670915 0.07788098 -0.06397089 -0.05312536 0.054022465 -0.079149015 0.098406374
-0.045158517 0.08368728 0.087069154 0.0011297242 0.13821916 -0.0013909402 -0.051753186 0.0039240513
0.061536565 0.08195859 0.07146596 0.062974855 0.042726073 -0.03724049 0.03961992 0.05681806
0.10630442 0.116906494 -0.08052705 0.0075863996 -0.0098592555 0.0032412321 0.023215694 0.07917547
-0.05343113 0.15506922 -0.019163169 -0.020599887 -0.06863358 -0.021006398 0.022361543 -0.0010049153
-0.033579428 0.05079087 0.0513937 0.08773291 0.049335655 -0.01099974 0.10710467 0.08269907

fc3.weight f4 [32, 64]
00000000: 3c36 80bc 7505 f53c f1ea 523d ce03 803d
00000010: 19be fdbd cea5 023e f918 c73d d59d 2e3d
00000020: e302 003e 2d53 93bd 9231 1ebc 16ab bebd
00000030: 7c9b 52bc 0f9a 2bbe abcc a3bd f00f 1d3d
00000040: c334 08be 7b06 db3d 30ba fd3d d0c7 abbc
00000050: 8734 883d 6300 5bbd 07cf b63d c905 2ebd
00000060: 240b d4bd 712d 23be e229 713d 0721 1dbc
00000070: d24f 1f3e 1039 fdbc b1e1 313e 8a9f debd
00000080: d7b0 213e 77db 183e 577a 4c3d 2913 1d3e
00000090: 1b4c d33c 6a8d f6bd 4ad0 4a3a cf0c f33c
000000a0: d114 783d 4728 103d e018 3d3b 055c 1bbd
000000b0: a5cd e3bd 8001 4f3e c8b8 a73d 770b 243e
000000c0: 8c10 553d d9cb c9bd bc8e 0d3d cf25 bfbd
000000d0: cdf2 9a3d bd08 543e 88da 763d 5c6c 853d
000000e0: c3ff 30bd 7795 27be 3753 f53d 5f72 433d
000000f0: e594 99bc 5cd1 0f3e 54f2 443e 08fc bb3d
00000100: 0a53 d03d 7039 fbbc f077 2a3c 56d7 a9bd
00000110: 10d4 febd befb f33d 4c23 d4bd 0c9a 85bd
00000120: 9eb1 b63d 38e1 9abc b4a5 b4bd fa59 9dbd
00000130: 3cae 383d 98f9 873c e094 803d 24da 8c3d
00000140: 9486 35bd 4094 b6bc 0062 ee3b 58d9 c23d
00000150: f037 5cbc e00f aabb 528b eabd 506f 493c
00000160: 94ab f8bd b496 a63d 6000 b93b dec3 e83d
00000170: 189a 66bd 3a5d 97bd c074 743b 58ec f93c
00000180: 965c f5bd 94c0 55bd 7646 c13d c843 bebd
00000190: 78a5 df3d e637 e73d 5a20 c73d 0068 2bbb
000001a0: c040 7c3d 126f a9bd dea2 d0bd 60e9 b73b
000001b0: 2044 61bd 6ee7 e4bd b8ec ab3c 70ef cf3c
000001c0: e08d b7bd 0470 51bd 1c10 29bd b01c adbc
000001d0: 4291 aabd 90f4 60bc 500d adbd 9ab9 c7bd
000001e0: 8ccc a23d 4c58 3f3d e034 bb3c b8ea 59bd
000001f0: 6cfc aabd 402e e0bd 62a5 883d ec72 b73d
00000200: 498a 1a3b 6d09 0ebe 5a4b babd 62cc e5bc
00000210: b362 953b 1c6c 1f3e d9f5 e93d b8ce 1f3e
00000220: db34 823b 58c9 173e 2c0d 513b 0a98 a4bd
00000230: e15a 2b3e fd69 36be 50d4 f2bd 7512 833e
00000240: c98d 4ebe fddc 183e c88d 263e 30b1 da3d
00000250: 2b10 06be 8df7 28bd 5e08 7cbd 1a12 e13c
00000260: a3c7 f13b 9d62 2cbe 5eaa 44bd 9aca 69bd
00000270: dead 89bd 9a54 1f3d 030e f6bb 93a1 8bbb
00000280: 42d2 153e 8ff6 2e3e 2e23 923d 351f 813d
00000290: 806a 933d 4853 80bd 2f79 9abd 8f14 373e
000002a0: 4c3f 3bbe b3fa 653e d933 f5bd 0c8a 89bd
000002b0: 8862 cabd f3d5 e03d edab 453d 1dd2 bd3d
000002c0: e7a0 f73d a124 25bd b61e 7cbd fab5 3a3d
000002d0: 02e2 923d 6a12 ee3d 0c4c ce3d a13f 583e
000002e0: 9a83 d63c 7a8c b7bd 8fbf 0c3d bf77 25bc
000002f0: daca 523e 42d0 b13d 78b7 8d3d 4e34 dc3c
00000300: b809 e3bd 0baf 8e3b 7bd6 abbc e8f8 4dbd
00000310: f043 563d ec77 8c3d 76af 77bd 6e3a 383e
00000320: eed8 393e 81bc 4f3d e809 a0bd f5f9 493d
00000330: 78fb 713e 2a02 27be 5918 be3c 604d 743d
00000340: 8c97 bdbc dd50 4c3e 1e54 2e3d 80ca eb3c
00000350: f0f4 dcbd cebb 3bbd ddb6 37bd 0908 fa3d
00000360: 8c9d 823d dedb 31be e92c f0bd ce44 5ebd
00000370: 54ee 703d fdc1 c9bd 8855 d03c 974a 88bc
00000380: eb78 6e3e 0cbb 753e 2b8e 383e fcd7 973d
00000390: d64b 87bc 5042 b03a 4988 72bd c234 a53d
000003a0: 5490 acbd 7668 313e e098 db3c 7881 42be
000003b0: 5b20 97bd cb28 c23c c5b8 1dbd b0f5 afbc
000003c0: bdf3 133e ea76 4ebd 3cd2 09be 87cf bd3d
000003d0: 7f51 d13c 0edf 4a3e d9ea ba3c 268b 1e3e
000003e0: a221 9e3d ce8f 85bd ea5c 313e 3e5a f4bd
000003f0: 250a 343e daa8 d93c 9350 bb3d d3d3 a53d
-0.015650861 0.029909829 0.05149359 0.06250726 -0.12389774 0.12758562 0.0972156 0.04263099
0.12501101 -0.07193599 -0.009655373 -0.09309976 -0.012854453 -0.16757987 -0.07998022 0.038345277
-0.13301377 0.106945954 0.12389028 -0.020969301 0.06650644 -0.053467166 0.08926206 -0.042485986
-0.103536874 -0.15935303 0.058877833 -0.009590394 0.15557793 -0.030910999 0.1737125 -0.108702734
0.15790115 0.14927469 0.04992136 0.1533934 0.025793126 -0.12038691 0.0007736726 0.029669194
0.060566727 0.03519466 0.0028853938 -0.037929554 -0.11123208 0.20215416 0.08189541 0.16019998
0.052017733 -0.09853334 0.03455995 -0.09333383 0.07565842 0.20706458 0.060267 0.065148085
-0.043212663 -0.1636561 0.119787626 0.047716495 -0.018747756 0.14044708 0.19233066 0.091789305
0.101720884 -0.030667037 0.010404572 -0.08293025 -0.124427915 0.119132504 -0.10358295 -0.06523523
0.089205965 -0.01890622 -0.08820668 -0.07683177 0.045088038 0.016598508 0.06278396 0.068775445
-0.044317797 -0.022287488 0.007274866 0.09514111 -0.013441071 -0.0051898807 -0.114523545 0.012294605
-0.12142101 0.08134213 0.0056457967 0.11365484 -0.0562993 -0.073908284 0.0037301034 0.030508205
-0.1198055 -0.05218561 0.094372675 -0.09290272 0.109202325 0.11289959 0.097229674 -0.0026154518
0.061585188 -0.08273138 -0.101873145 0.0056125373 -0.05499661 -0.11176954 0.0209869 0.025382727
-0.089626074 -0.051132217 -0.04127513 -0.021131843 -0.08328487 -0.013730183 -0.08449805 -0.097521976
0.079491705 0.046715066 0.022852361 -0.05320236 -0.08348927 -0.109463215 0.06672169 0.089574665
0.002358096 -0.13870783 -0.090964034 -0.028051559 0.004558885 0.15568584 0.11423845 0.156062
0.003973586 0.148229 0.003189872 -0.08036812 0.16733886 -0.17813869 -0.11856902 0.2560002
-0.20171274 0.1492805 0.16265023 0.10678327 -0.13092105 -0.041251708 -0.061531417 0.027474452
0.007378535 -0.16834493 -0.048014037 -0.05707798 -0.06722616 0.03889904 -0.0075089945 -0.0042612045
0.14630988 0.17086242 0.07135616 0.063047804 0.07198048 -0.06265885 -0.07542645 0.17878936
-0.18285865 0.22458915 -0.1197278 -0.067157835 -0.098820746 0.109783076 0.048259664 0.092685916
0.120912366 -0.040318135 -0.061552726 0.045583703 0.07172014 0.11624606 0.100730985 0.21118023
0.0261858 -0.08962341 0.034362372 -0.0100993505 0.20585194 0.086823 0.069197595 0.02688041
-0.11085838 0.004354363 -0.020976296 -0.050286204 0.052310884 0.06858811 -0.060470067 0.17991039
0.18149158 0.05071688 -0.078143895 0.049310643 0.23631084 -0.1630942 0.02320497 0.059644103
-0.023143552 0.19952722 0.04256069 0.028783083 -0.107889056 -0.0458334 -0.044852126 0.12208564
0.06377706 -0.17369029 -0.11727316 -0.054264836 0.058821037 -0.098514535 0.02543141 -0.01663713
0.23288314 0.23997134 0.18022983 0.074142426 -0.016515654 0.0013447497 -0.059212003 0.080667034
-0.08425966 0.17325005 0.026806295 -0.18994701 -0.07379218 0.023701092 -0.038506288 -0.021479458
0.14448448 -0.050406374 -0.13459104 0.09268098 0.025551556 0.19811651 0.022817062 0.15482768
0.07721259 -0.06521569 0.173206 -0.11931275 0.17581995 0.026569773 0.09146228 0.08097043

fc3.bias f4 [32]
00000000: 0490 3abd 46aa 83bd 649d 373d 0940 01bd
00000010: ff8b 9a3c bc86 bebd b972 323d 4ab6 863d
00000020: eae0 093e e4c6 b23d f97d c03d 2fb3 91bd
00000030: 8825 e53d 21a4 00bd 6ee3 3a3d 84b5 1d3d
00000040: 48f1 38bb d134 ed3b 97c7 1cbd c720 153c
00000050: eaad 65bd 5fff 3ebd a245 f73d ed3a d2bd
00000060: c442 2fbd acfa 473d 22cd 29bd 83b6 983d
00000070: 808f 8f3d 60bb b9bd e3f7 79bc 48bb 093d
-0.0455475 -0.064289615 0.044827834 -0.03155521 0.018865583 -0.09303042 0.04356644 0.06577738
0.13464704 0.087293416 0.093990274 -0.07114255 0.11188799 -0.031406526 0.04562705 0.038503185
-0.0028219987 0.007238962 -0.03827628 0.009102053 -0.05607406 -0.04663026 0.12073828 -0.102651455
-0.042788282 0.048823044 -0.041455396 0.07456686 0.07009792 -0.09068942 -0.015256855 0.03362587

fc4.weight f4 [2, 32]
00000000: a695 a4be 62be edbd 3c14 d3bd a08f 17be
00000010: 349c 81be 41b8 2d3d aa59 c93e fb23 573e
00000020: 882b acbe 14a0 d73e a7af 333e 4fda c73e
00000030: 7e99 833e 7934 1f3e 2289 9ebe efd9 b5be
00000040: 1853 b3be 1b48 ccbe faa2 ddbe 1656 c4be
00000050: 7325 4cbd 5daa f33d 618c 5cbe da7b 8bbd
00000060: bb07 ea3d 998d cf3e dae1 a7be 4411 9ebe
00000070: 4d5b 57be 2dfa 8c3e feb1 8abe 7a73 9fbe
00000080: ccf5 523e 7097 d3bd 88fe c73e 524a b13e
00000090: 80bf c13e 5fa8 143d 8acb 67be 36bb aabe
000000a0: 7ced 5a3e 7898 9bbe bc4f d9be ee6f b0be
000000b0: 332f a6be cbb9 d6be 8c90 423e 5d7a 963e
000000c0: a3aa b33e 914b 923e 414f da3e 8313 513e
000000d0: 7337 babd 94e9 17be 740e 8a3e af8f 433e
000000e0: 0424 a7bd c6e2 3fbe 3a0c 903e c0f0 d13e
000000f0: 5e8c 7b3e 41ef 03be a51b 463b 349a b13e
-0.32145423 -0.11608578 -0.10306594 -0.14800882 -0.25314486 0.042412046 0.3932622 0.21009819
-0.33626962 0.42114317 0.17547475 0.39033744 0.25703043 0.1554736 -0.30964 -0.35517833
-0.35024333 -0.39898762 -0.43288404 -0.38346928 -0.0498404 0.118977286 -0.21537925 -0.06810732
0.11427256 0.40537718 -0.327895 -0.30872548 -0.21030922 0.2753462 -0.27088922 -0.3114279
0.20601577 -0.10331619 0.3906138 0.34627014 0.37841415 0.036293384 -0.22636238 -0.33345956
0.21379656 -0.30389762 -0.42443645 -0.34460396 -0.32457885 -0.41938624 0.19000453 0.2939023
0.35091123 0.28573278 0.4263859 0.204176 -0.09092607 -0.14835197 0.26964152 0.1909778
-0.08161166 -0.18738851 0.28134328 0.4100399 0.24565265 -0.12884237 0.003022888 0.3468796

fc4.bias f4 [2]
00000000: 2f4e 9f3d 2373 383d
0.07778584 0.045031678
