checkpoint/model-fold-8.pt (torch, 446799 bytes, 8 tensors)

fc1.weight f4 [100, 1024]
000000 ca 90 f8 3c 1d 98 66 3d 67 b9 aa bc 70 cb 9f bb
       0.030342478 0.05629741 -0.02084036 -0.0048765466
000010 b9 88 03 3d f7 ee 87 3c bf 61 15 bd e9 d1 cb bd
       0.03211281 0.01659344 -0.03647017 -0.099521466
000020 15 09 af bc d4 4e 85 bd 82 cc 2e 3c 6d 32 f4 bc
       -0.021366635 -0.06509176 0.010668876 -0.029809201
000030 c7 c3 50 3d 44 49 e3 39 b5 10 83 bd 83 5b 12 3d
       0.050967958 0.000433514 -0.06399671 0.035731804
000040 fb b1 21 bd dc 4a cb 3c c8 c0 1c 3d 6b 62 3d 3c
       -0.039476376 0.02481597 0.038269788 0.011559109
000050 87 f7 16 bd 91 cf 3d 3c de 69 1a 3d 60 23 c0 3c
       -0.036857154 0.011585132 0.03769862 0.023454368
000060 f0 b5 ef bd f6 2e 50 3c e7 e1 18 bd bd ba 09 3d
       -0.11704624 0.012706509 -0.037324812 0.033625353
000070 a0 a0 57 3c ad f8 70 bd 84 30 d3 bd 0c 2c 8f bc
       0.013160855 -0.058830906 -0.10311988 -0.017477058
000080 ad 4b a0 ba 00 9f 9a bc 5e 9e 05 3d 73 4d c4 3c
       -0.0012229584 -0.018874645 0.032621734 0.023962712
000090 d5 31 b9 bb 94 6c 32 bd 3c 70 d9 39 f4 82 4e bc
       -0.0056516924 -0.04356058 0.00041473086 -0.012604464
0000a0 8c c7 c3 3c 6e 33 be 3b 3b d1 24 3d 70 bd 34 3d
       0.023898862 0.0058044707 0.0402386 0.044125974
0000b0 2d 36 d6 bc c9 7b 16 bd 2d 3b 23 3d 9b f2 27 3d
       -0.02614888 -0.036739144 0.039851356 0.04100285
0000c0 72 1d 1a 3d fb b2 05 3d 11 13 77 bd 2b 0e 5b bb
       0.037625737 0.032641392 -0.060320918 -0.0033425193
0000d0 e3 1c 7f bc 4a 9e 32 bd 0a 62 1b bc 37 71 02 bd
       -0.015570852 -0.043607987 -0.009483824 -0.03184625
0000e0 d3 25 cf 3b 11 87 84 3c 11 60 9f 3c 43 f3 8e 3d
       0.0063216477 0.016177686 0.019454988 0.06979992
0000f0 ca 9f 42 bb 19 ae c3 bc 2f d6 ad 3c 22 5c 51 3b
       -0.0029697292 -0.023886727 0.021220295 0.0031945785
000100 36 43 29 3d af 84 3a 3d 6a 8c e0 3c 91 68 1d bb
       0.041323863 0.045536693 0.027410705 -0.0024018625
000110 f9 a5 da bc 41 80 d1 bc eb 72 44 bd 62 a0 85 3d
       -0.02669047 -0.025573852 -0.047961157 0.06524731
000120 f9 57 a1 ba e7 0c 53 bd 8c a2 b9 bc d2 07 46 bd
       -0.0012309543 -0.051525977 -0.022660516 -0.0483473
000130 20 ee 0a bd 0f 4a bd 3c c4 11 8e 3c 47 b6 e4 3c
       -0.0339185 0.023106603 0.017342456 0.027918948
000140 7f a6 62 bd 5b 73 c5 bc 96 74 9b 3d ff 47 00 be
       -0.055334564 -0.024102857 0.075905964 -0.12527464
000150 b5 44 49 3d b5 41 01 bc d9 c8 44 bc 73 91 bf bc
       0.04913779 -0.007889201 -0.012010776 -0.023384785
000160 ce d3 4d 3b 5d 03 cd bb 15 05 7b 3c 1e c4 1b 3b
       0.0031406763 -0.0062565044 0.015321036 0.0023768018
000170 f9 e0 53 bd 7d f5 e5 bb 85 ca 27 bd 4f 9f 63 bd
       -0.051728223 -0.00701779 -0.040964622 -0.05557185
000180 8e b1 8e 3d 19 6b de bb 2f e6 2b 3c cc 9d 5d bd
       0.069674596 -0.0067876694 0.010491892 -0.054105565
000190 f5 92 b1 3c db fc 1c bd 10 05 4f bc af 88 30 3c
       0.02167652 -0.03832708 -0.012635484 0.010774775
0001a0 85 f8 e5 3c 29 8f 3b bd da 2c 13 bc d3 72 e3 bc
       0.028072605 -0.045790825 -0.008982861 -0.027764713
0001b0 5a 8f 6b bd 09 00 5c 3b cb 34 da 3d 70 fa 8d bc
       -0.057509758 0.0033569357 0.10654601 -0.017331332
0001c0 7f 09 9a 3d 58 99 a3 3c e8 6b a9 3b 47 58 8f bd
       0.075213425 0.019970581 0.005170334 -0.069992594
0001d0 ae c5 39 bc d2 e6 27 bd b3 eb 0e bd 63 6f 02 bd
       -0.011338634 -0.04099161 -0.03489275 -0.031844508
0001e0 6b 82 53 3d 27 3e e2 3c 4e b3 d6 bc 25 16 fa bc
       0.05163805 0.027617527 -0.026208546 -0.030528137
0001f0 5e 7c 91 3b 7f f4 0e bd f3 1a ca bc cb 75 f2 bc
       0.0044398746 -0.03490114 -0.024671054 -0.029597184
000200 03 bb 78 bd be c5 7c bc 52 21 e9 bb 6f b2 20 3d
       -0.060725223 -0.015428005 -0.007114568 0.039232668
000210 b3 23 6a bd a0 17 9a 3c 54 eb 2e 3d f5 81 4c 3d
       -0.05716295 0.018810093 0.042704895 0.049928624
000220 94 cd 7f 3c f9 e2 22 bd f6 83 b5 3d ec 7e 71 3c
       0.0156129785 -0.03976724 0.0886306 0.014739733
000230 fd 9a 02 bc c1 93 fd bc 0e 53 a0 3c 1e 7c 32 bd
       -0.007971522 -0.030954244 0.019570854 -0.0435754
000240 a0 e7 a1 3c fe 50 0f 3d ef 3c 36 bc a9 03 4c 3d
       0.019763768 0.03498935 -0.011122926 0.049808178
000250 ef 82 aa bc 79 0f ac bd 90 d0 39 3c 71 77 aa bb
       -0.020814387 -0.08401389 0.011341229 -0.005202227
000260 72 fc 4f bc 33 a2 8f bd 6d 53 1d bd 0a c2 8a bd
       -0.012694465 -0.07013359 -0.03840964 -0.06775291
000270 ab da 67 3d 98 02 e1 3c e2 b5 19 3c 4c 78 d5 bb
       0.056605022 0.027467057 0.009381743 -0.0065145846
000280 77 78 2c bd 58 1e e7 3c 43 1f 41 3c 58 aa 0e bd
       -0.04210707 0.028212711 0.0117872385 -0.03483042
000290 3c 01 66 3d 76 1a db 3c 7e 47 aa bd 7d 78 ad 3c
       0.05615352 0.026746016 -0.08314417 0.021175617
0002a0 80 3e cb bc a9 8e ac bc 52 4e cd bc 69 f6 87 3c
       -0.024810076 -0.02106412 -0.02506176 0.01659699
0002b0 29 d4 39 3b 81 81 78 3c f4 92 eb bc 7c e7 8f bc
       0.0028355217 0.015167595 -0.028756596 -0.017566435
0002c0 7d 35 59 bd 76 b1 ed bc b0 1e 36 bd f3 e2 a3 3b
       -0.053029526 -0.029015284 -0.04446286 0.0050014197
0002d0 66 98 35 3d a5 0c a3 3b 78 3e 38 bd 9f 1c cb bc
       0.04433479 0.0049758726 -0.04498145 -0.024793921
0002e0 c3 0f 13 3a 25 d6 27 3c b0 75 1e bc ca 31 81 bc
       0.00056099537 0.010243927 -0.009671614 -0.015770812
0002f0 02 88 7c 3d 62 4d 33 3c 57 a5 e7 3d 59 9f c3 bd
       0.061653145 0.0109437425 0.11310833 -0.095518775
000300 16 99 c3 bc e7 0b 12 3d e6 41 fc 3c 9d 2a 76 3c
       -0.023876708 0.035655882 0.030793142 0.015024808
000310 4a 5c 40 3d d0 c8 9a bc 66 47 40 bd 83 3d b6 3c
       0.046963014 -0.018894583 -0.04694309 0.022246128
000320 5d 54 9a bc 9f e0 d7 3b e2 07 d5 3b bc 55 c6 bd
       -0.018839056 0.006588056 0.006501184 -0.09684321
000330 fe 99 60 3c ad 83 a5 3b 15 72 8a 3c ab 12 44 bc
       0.01370859 0.0050510974 0.016900102 -0.011967341
000340 8c 8d d0 bc ad 8a 8c 3c ad f3 a4 3c ad 6f a8 3c
       -0.02545812 0.01715597 0.020135725 0.020561064
000350 e1 22 83 bd 65 a3 da bc b4 fd 7a bc 1d 34 30 ba
       -0.06403137 -0.02668924 -0.015319277 -0.00067216327
000360 06 37 10 3d 0a 54 ca 3b ae 27 be bd a0 55 37 bd
       0.035208724 0.006174569 -0.09284912 -0.044759393
000370 b9 23 e5 3b f7 96 ed bc 16 1b 0b 3d ed 84 0b 3c
       0.006992784 -0.02900265 0.033961378 0.008515579
000380 9b c1 03 bd 10 99 15 3d e9 54 e9 3c d7 d5 4d 3d
       -0.03216706 0.036522925 0.028482871 0.05025276
000390 27 8b 92 bd 50 34 97 3d 7c 30 cd 3c 51 b0 69 bc
       -0.071554475 0.07383025 0.025047533 -0.0142632285
0003a0 4b 61 0a bd e5 65 ac bb c2 77 92 3c 9f ac fe 3c
       -0.033784192 -0.00526117 0.01787937 0.031088172
0003b0 ee d0 92 bc ef 90 d4 bd 93 23 90 bc 8b 67 92 3d
       -0.017921891 -0.103792064 -0.017595088 0.071486555
0003c0 e8 ea 9f bc 28 c9 5a bd ac 06 1e bd ac 29 11 bc
       -0.019521192 -0.053414494 -0.03858058 -0.008860033
0003d0 3f 96 52 3b 3a 8e a3 3d fc 5b ca bc d1 78 5f 3c
       0.003213301 0.07986112 -0.024702065 0.013639645
0003e0 db f5 86 3c bb 68 e8 bc a9 77 c7 3d c3 c2 69 bc
       0.016474655 -0.028370252 0.0973962 -0.014267626
0003f0 46 22 8c 3b 14 aa 16 bc e7 cc 4d 3c e3 20 82 bd
       0.0042765466 -0.009195823 0.01256106 -0.06353929

fc1.bias f4 [100]
000000 9f 25 b6 3c 39 9b 9c 3c a4 5c ac bb 39 70 ac bc
       0.022234736 0.019116985 -0.005260067 -0.021049606
000010 dd ff b8 3b 16 cb c6 3c 79 9c 76 3b f8 9d 40 bc
       0.0056457357 0.02426676 0.0037629886 -0.011756413
000020 65 cb 8c 3b ab ef e2 3a 21 22 10 3d ab 84 d8 3c
       0.0042967075 0.0017313858 0.035188798 0.026430449
000030 25 d1 47 3c 5d 62 3b bc 78 d9 86 bc 9a ad fb bb
       0.01219586 -0.011437026 -0.016461119 -0.007680607
000040 c1 16 a0 bc ee 8e 39 ba 33 19 ea bc 64 89 96 bc
       -0.0195421 -0.0007078488 -0.028576469 -0.01837606
000050 c7 c2 e3 3c ad 56 90 bc 76 fe 2e 3d e5 1b 7b 3c
       0.027802838 -0.017619455 0.04272314 0.015326475
000060 c1 e6 38 bc ba d3 12 3d 06 91 c4 bc ac 23 84 3c
       -0.011285485 0.03584645 -0.023994934 0.01613029
000070 3b 62 54 3c 14 59 55 3c 15 af 85 bc 70 c6 10 3d
       0.012962873 0.013021726 -0.016318837 0.035345495
000080 6e c9 04 3d fc b6 77 3c 4a 1d ca bc dd 1e e6 bc
       0.03241866 0.0151193105 -0.02467217 -0.028090889
000090 b6 a4 12 3c 3d 86 16 3c cc 3d f8 bc 8d ee 8f 3c
       0.008950403 0.009187278 -0.030302905 0.017569805
0000a0 38 90 64 3c 0a 33 97 3c bd dc dd bc 70 be cc 3b
       0.0139504 0.018456955 -0.027082795 0.006248288
0000b0 07 cf be 3c 65 4a 5e bc ba 83 fc 3a 31 f1 e7 3c
       0.023292078 -0.013567542 0.0019265332 0.028313251
0000c0 50 d6 53 bc 69 63 6a 3d 86 da 8f bc d7 fc 81 bc
       -0.012929514 0.05722371 -0.017560255 -0.015867634
0000d0 96 e5 03 3d 60 ca b7 bc de b2 75 3a ef 0f dc 3c
       0.032201372 -0.022435367 0.00093726616 0.026863066
0000e0 a4 fe 56 3c 4e 4d f7 3a 08 c2 fa 3c 06 4b 83 bb
       0.0131222345 0.0018867643 0.0306101 -0.004006746
0000f0 ab c5 d5 bc 67 1f f0 3c 40 3b 25 bb 5c 67 7c bc
       -0.026095232 0.029311849 -0.0025212318 -0.015405502
000100 0a f1 85 bb 9c 4e 2a bc 42 c8 80 bc 76 c6 d9 3c
       -0.004087572 -0.0103947185 -0.01572049 0.026583891
000110 27 2b 3e bc d9 0e b9 bb 43 b2 8e 3b c7 dc d9 3c
       -0.011606968 -0.005647522 0.0043547465 0.026594533
000120 58 6f c3 bb 85 80 db 3c 01 88 11 bd 18 c5 ad bc
       -0.005964201 0.026794681 -0.035530094 -0.021212146
000130 43 2c bd 3c 68 f9 ba 3c 74 40 2a 3a 95 cf 6a 3c
       0.023092395 0.022824004 0.00064945896 0.014331718
000140 6b 22 c8 3c 68 01 97 bc ba d1 da 3c 24 35 b6 bc
       0.024430474 -0.018433288 0.026711334 -0.022242136
000150 3a c7 a3 3c f8 cb 40 3d ec 71 9f 3c 10 ba 89 bc
       0.01999246 0.04706952 0.019463502 -0.016812354
000160 30 5d 04 3d ca 8f ac 3c 3d 00 a1 bc 21 75 75 bc
       0.032315433 0.021064658 -0.019653434 -0.014981539
000170 a0 4e 27 3b 5a 16 60 bc fc 1d 77 3c 5c f4 ce 3b
       0.0025529042 -0.013677204 0.015082832 0.006315751
000180 84 4c 2a ba b3 8b 73 ba 2b c6 af bc 03 06 18 bc
       -0.0006496387 -0.0009290531 -0.021456799 -0.009278777

fc2.weight f4 [64, 100]
000000 97 d3 f3 3d 78 0c ff bb 05 e6 38 be 3f 31 21 3e
       0.11905592 -0.007783469 -0.18056495 0.15741442
000010 95 d4 27 3d 1f fc 84 3e 7a 87 21 3e e8 5e b9 bd
       0.04097422 0.25973603 0.15774336 -0.09051305
000020 ac 63 53 3e d4 ff a8 bc ae 50 c1 3d 8a 40 26 3e
       0.2064349 -0.0206298 0.094392166 0.16235557
000030 b6 21 84 bd 4d 42 a4 3d 47 13 53 3d fa 51 f2 bc
       -0.06451742 0.08020458 0.051532056 -0.029580105
000040 10 5c 7a 3e b4 04 2b be 68 1d 55 bb 1b ef 6d bd
       0.24449182 -0.16701013 -0.0032518748 -0.058089357
000050 17 4e 8e 3e 7a 3f 6d 3e d5 de f8 3d df 99 7a ba
       0.27793953 0.23168746 0.12151877 -0.0009559672
000060 57 a4 86 3d c1 df 56 3e 30 05 c7 3d 65 a8 12 3e
       0.06574314 0.20983793 0.09717786 0.1432205
000070 63 da 40 3e 41 22 37 bd d7 54 80 be 23 9a 5f 3e
       0.18833308 -0.0447104 -0.25064728 0.21836142
000080 5e e9 0f 3e 4c 1c 7c 3d bb fc 64 be f4 72 a8 3e
       0.14053866 0.061550424 -0.22362034 0.32900202
000090 c3 ce c3 3e c6 24 81 be c7 a2 88 be 21 a2 93 3e
       0.38243684 -0.25223368 -0.2668669 0.28834632
0000a0 06 07 4a 3e b3 2c 98 3e 0d a5 4f be 24 09 b0 bc
       0.19729242 0.29721603 -0.20277806 -0.021488734
0000b0 6e 57 9a 3c 15 cd b9 3e ab 60 01 be d5 99 30 bd
       0.018840518 0.36289278 -0.12634532 -0.043115456
0000c0 6e 9b d5 3e d8 92 bf 3d bc bf cf 3b e1 55 9d 3e
       0.41720146 0.0935418 0.006339995 0.30729583
0000d0 6f 48 c3 bd 9a 90 ae 3e 9b 42 89 be 35 79 3e 3e
       -0.095353 0.34094697 -0.26808628 0.18600924
0000e0 b6 7e 65 3d 47 a1 80 3c f1 f9 3f 3e 0c 21 b5 3e
       0.056029044 0.015701903 0.18747689 0.35376775
0000f0 1c 04 ee 3d 15 34 42 3e 20 8f d8 bc 75 a0 a9 3d
       0.116218776 0.1896518 -0.026435435 0.08282558
000100 bb e1 9c be 9e ed 18 bd 8b a9 9a 3e 7c 0e e5 3d
       -0.3064097 -0.037335984 0.30207476 0.11184403
000110 da 61 67 3e 07 ae 1e 3e 4c 80 9f 3e d8 47 41 be
       0.22595921 0.15496074 0.3115257 -0.18875062
000120 a7 e9 7a 3d 7b a4 2f 3e 7d 5e f9 bd 70 62 2e bd
       0.061257984 0.17152588 -0.12176225 -0.042574346
000130 b2 57 62 3e 0e 26 54 be 8d 37 9c bc 4d 0e 6c 3e
       0.22103766 -0.20717642 -0.019069457 0.2305233
000140 13 d0 82 3e b4 79 61 3e 5e 2e c2 3d ff f5 2a be
       0.25549373 0.22019082 0.094815 -0.16695403
000150 3a be 2a bd cf 1f 5e bd fe 04 9b 3e 22 ad 49 bd
       -0.04168532 -0.054229554 0.30277246 -0.049237378
000160 c0 14 47 3e 69 63 a0 3e 05 e0 a8 3e aa a4 74 3e
       0.19441509 0.31325844 0.32983413 0.2389094
000170 cd f7 70 bb ef e3 1e 3e aa eb 1e 3d 7f e9 92 3d
       -0.0036768795 0.15516637 0.038798966 0.07173442
000180 a1 d4 86 3e 11 0f 8c 3e 19 40 08 3e 93 26 dc bc
       0.26334098 0.27355245 0.13305701 -0.026873862
000190 0a 3c a0 3b b1 3f a4 3d 99 c2 40 bc b5 36 21 3e
       0.0048899697 0.08019961 -0.011765146 0.15743525
0001a0 a8 6c b7 3c df 44 80 3e 04 00 7c 3d cd 29 28 3d
       0.022390679 0.25052544 0.061523452 0.04105549
0001b0 0f bd 4d 3e 6d 16 91 bc f8 d1 bb 3d e7 cd 90 3e
       0.20091651 -0.017710889 0.09170908 0.2828209
0001c0 ad da 83 3c 44 e4 af bd f7 55 c8 bd 20 bf be bc
       0.016095484 -0.0858846 -0.097820215 -0.023284495
0001d0 7e 7e 90 3e 6b 30 e4 bd 7b 1f 43 3d 11 bc 4d bc
       0.28221506 -0.111420475 0.047637444 -0.012557046
0001e0 74 d7 9b 3e 48 3b 5a 3e bf ec 62 bd 53 eb 73 bd
       0.30437815 0.21311677 -0.05540156 -0.059550595
0001f0 67 02 c9 bc 69 70 2e 3e b3 bf 17 bd 6a e5 03 3e
       -0.024537278 0.17035069 -0.037048053 0.12880483
000200 90 04 63 3e 4b 44 c3 bd 64 c4 5c be a7 99 af 3e
       0.22169709 -0.0953451 -0.21559292 0.34296915
000210 46 ee 5c 3e ed 35 b7 3d 3c e3 ec bd c3 24 59 3e
       0.21575269 0.089458324 -0.11566779 0.2120543
000220 f4 c2 bd 3e 87 53 bc bd cd 6f 6a be 63 29 6d 3e
       0.370628 -0.09195619 -0.22894211 0.23160319
000230 bb 8a 37 3e 97 c7 34 3e cd 1f e7 bd 53 fd e4 3c
       0.17924015 0.17654262 -0.112853624 0.027952826
000240 71 d2 98 3d c3 ac 0a 3f 17 40 fa bc 9e 61 24 3d
       0.074620135 0.54169863 -0.030548139 0.040132158
000250 4c a1 c6 3e be 5c b1 3c 2f 5b a2 bd 35 29 f1 3d
       0.38794935 0.021650668 -0.07927548 0.11775438
000260 6c 6a fc bd de 3b 4a 3e 70 4a f6 bd d8 59 5c 3e
       -0.12324986 0.197494 -0.120259166 0.21518648
000270 a0 19 09 3d 7a c6 81 bc 6b 01 48 3e 55 39 35 3e
       0.033471704 -0.015841711 0.19531791 0.17697652
000280 03 34 9c 3e 3a 50 07 3e 70 99 be bd 50 18 57 3d
       0.30508432 0.13214198 -0.0930661 0.05251342
000290 83 96 8a be 44 c7 cf 3d 97 76 6f 3e 31 74 5e bd
       -0.27067956 0.10145429 0.23385082 -0.054310028
0002a0 ae 95 2e 3e 29 b8 c7 3d c3 c3 94 3e 58 8b 51 bd
       0.17049286 0.09751923 0.29055604 -0.05115828
0002b0 ed 98 ab bc c5 10 71 3e 03 56 78 bd ef 5f a7 3d
       -0.020946944 0.23541553 -0.060628902 0.08172595
0002c0 9e ff 05 3e 36 2f 52 be da 3c 12 bb 07 bd 5d 3e
       0.13085791 -0.20525822 -0.0022314102 0.2165414
0002d0 6c e6 6f 3e c9 91 6b 3e 53 67 36 3e 04 cc 62 be
       0.23427743 0.23004831 0.17812853 -0.22148138
0002e0 5c 9c 09 3e 9d 48 a5 39 91 e4 4b 3e 58 96 b7 3d
       0.13438553 0.00031525354 0.1991141 0.08964223
0002f0 86 77 68 3e 6e 5a 40 3e d1 02 7d 3e 49 11 46 3e
       0.22701845 0.18784496 0.24708106 0.19342531
000300 ea 69 81 3d 8e 1e 12 3e 8b 64 e4 3b 66 e0 30 3c
       0.0631903 0.14269468 0.0069699935 0.010795688
000310 86 e9 05 3e 4e 47 97 3e 6f a4 65 3e 6f 89 cb 3c
       0.13077363 0.2954659 0.22426008 0.024845807
000320 3c fc db 3d 55 3c 23 3d cc 0e 9a bd c3 36 92 3e
       0.10741469 0.03985246 -0.075223535 0.28557405
000330 60 ef 26 3d 69 9f 91 3e f5 91 99 bc 7a 76 77 3d
       0.04075563 0.28441933 -0.018746356 0.060415722
000340 42 45 5e 3e 6d 21 22 be 27 f4 cd 3c ce 93 6a 3e
       0.21706107 -0.15833063 0.025140835 0.22907946
000350 0d 6f 8b 3d 91 01 38 bc 43 09 c6 3d c1 d6 8a bd
       0.06808291 -0.011230842 0.09669735 -0.06779242
000360 02 6c 48 3e e7 e2 20 be c0 39 1b be 4e 7f 14 be
       0.19572452 -0.15711556 -0.15158749 -0.14501688
000370 00 cb 90 3e fd 60 43 3e 15 2a 13 bd 31 f9 c3 3d
       0.28279877 0.19079967 -0.035928804 0.09569014
000380 a5 c6 8a bd 2f 8f 6c 3e f7 09 9a bd 92 e7 6a 3e
       -0.0677617 0.23101495 -0.07521432 0.229399
000390 e1 75 84 3e 8b bc 1d be 0c af 52 be 5b 9c af 3e
       0.25871184 -0.15403955 -0.20574588 0.34298977
0003a0 f6 d4 8b 3e d5 29 6d bd 38 cc 37 be 47 ba 89 3e
       0.27310914 -0.057901222 -0.17948997 0.2689993
0003b0 9b f2 b1 3e 67 9e 2f be e1 82 8a be 33 48 2d 3e
       0.34755406 -0.1715027 -0.27052978 0.16922073
0003c0 36 0b 33 3e 95 cc 8c 3e a6 a8 ef bd bb 36 c3 3d
       0.17484745 0.27499834 -0.11702089 0.095319234
0003d0 f5 55 20 3e 30 69 a9 3e 08 07 02 bd d9 e3 12 3c
       0.1565779 0.33088064 -0.031744987 0.008965456
0003e0 d7 11 9a 3e 4e ae 22 3c b3 48 df bc 1f f8 56 3e
       0.30091736 0.009929253 -0.027256345 0.20993088
0003f0 e0 8d 02 be 44 9e 8f 3e 82 ef b1 be 39 00 8d 3d
       -0.12749434 0.28050435 -0.34753042 0.06884808

fc2.bias f4 [64]
000000 99 dd 84 bc 32 14 c0 bb 06 a4 8e 3d 2d aa e5 bd
       -0.016218947 -0.0058617825 0.06964879 -0.11214099
000010 46 19 0a 3d a2 e4 b0 3d 95 b9 0a 3e 68 65 3d 3d
       0.03371551 0.08637358 0.13547356 0.046239287
000020 cc 99 79 bd 35 a1 7f b9 34 c5 b2 bb ae ab d5 3d
       -0.060937688 -0.0002437875 -0.0054556374 0.10433136
000030 ab 03 47 bd 4b d4 ad bc 14 38 73 bd 67 e3 dc bc
       -0.048587482 -0.021219393 -0.059379652 -0.026963903
000040 8b ea 7a bd 94 a2 e0 bb e9 67 ab 3d 2c 03 83 bd
       -0.061258834 -0.0068553183 0.08369429 -0.06397089
000050 7e 0a 70 bd 2c 87 45 3d 80 8e a3 bd 8f 41 d9 3d
       -0.058603756 0.048224613 -0.07986164 0.106082074
000060 a8 b7 48 bd f1 53 a0 3d 58 92 a6 3d 0f 03 91 bb
       -0.049003273 0.078285106 0.081333816 -0.0044254134
000070 7b ac 15 3e d1 fa f3 bb 44 d5 37 bd 9c a2 06 ba
       0.14616577 -0.007445671 -0.04488112 -0.0005135925
000080 8b 0d 8e 3d e0 33 b5 3d 77 f5 9f 3d e6 91 8e 3d
       0.06936177 0.08847785 0.078104906 0.06961422
000090 9e 45 49 3d c9 5b 28 bd ef c7 0a 3d ec 0a 80 3d
       0.049138658 -0.04110316 0.033882078 0.06252083
0000a0 ae 16 cd 3d a4 4b fd 3d e5 72 ad bd ef 8d 92 3b
       0.100140914 0.12367943 -0.0846918 0.004472486
0000b0 dd 1d 83 bc 53 4a 3a 3c c5 49 b5 3c e1 ce ae 3d
       -0.01600545 0.011370259 0.022129903 0.08535553
0000c0 d4 a3 3e bd 2d 95 19 3e 11 41 b6 bc c9 d4 a5 bc
       -0.046542957 0.14998312 -0.022247823 -0.020243065
0000d0 45 88 78 bd cb d1 40 bc 56 d8 fc 3c 0d a4 be 3b
       -0.06067683 -0.011768769 0.030864876 0.005817896
0000e0 c5 2c dc bc 75 5e 36 3d 52 d3 7a 3d 9b 2f a8 3d
       -0.026876817 0.044523675 0.061236687 0.08212205
0000f0 31 61 65 3d 7f f6 f7 ba 94 0f ea 3d 77 66 b7 3d
       0.056000892 -0.0018918066 0.114287525 0.089550905

fc3.weight f4 [32, 64]
000000 30 c2 05 bd 60 50 cb 3b c0 15 d6 3c b0 e7 8d 3d
       -0.032655895 0.00620465 0.026133418 0.069289565
000010 8f 7c 1b be 37 44 33 3e 8d f4 d9 3d 0b 86 76 3d
       -0.15184234 0.1750649 0.106423475 0.060186427
000020 85 7b 37 3e 3c 73 5f bd 03 ce 12 bd f5 4b bf bd
       0.17918213 -0.054553255 -0.035841 -0.093406595
000030 03 a0 0d 3d 19 27 5e be 56 67 08 be d1 6d a4 3d
       0.034576427 -0.21694602 -0.1332067 0.08028758
000040 ab 74 35 be 90 93 2a 3e 55 58 16 3e d0 c7 ab bc
       -0.17720287 0.16657853 0.14682133 -0.020969301
000050 19 50 57 3d 20 84 a2 bd 32 aa b7 3d c3 00 e2 bc
       0.05256662 -0.07935357 0.08968009 -0.027588254
000060 d9 28 12 be 43 d5 45 be dd a3 23 3d aa 4d 21 bd
       -0.14273395 -0.19319634 0.039951194 -0.039380707
000070 da 3a 2b 3e 18 2f 84 bd f3 04 56 3e bb b2 f8 bd
       0.16721669 -0.06454295 0.20900325 -0.12143465
000080 2f 3a 54 3e c8 c5 39 3e af c4 a2 3d b8 9e 3d 3e
       0.2072532 0.18141854 0.07947671 0.18517578
000090 3e 4f 7e 3d a1 9e 26 be 0c 3a b1 bc a2 01 54 3d
       0.06208729 -0.1627145 -0.021634124 0.05175937
0000a0 ff df 20 3d ea 09 92 3d fa 10 13 bd 42 7e 9a bd
       0.03927612 0.07130797 -0.035904862 -0.07543613
0000b0 ab e3 0f be af 67 78 3e 06 df a7 3d fb d1 3c 3e
       -0.14051692 0.24258302 0.08196835 0.18439476
0000c0 f3 1d aa 3d 1d 77 d8 bd 6d 75 ff bb cf 25 bf bd
       0.083064936 -0.10569594 -0.0077959807 -0.09333383
0000d0 1c d5 fa 3d 9c 03 87 3e f0 59 e5 3d 98 f4 bc 3d
       0.12247679 0.2636994 0.11198795 0.0922634
0000e0 bd 13 c5 bc 9c 1f 42 be 4e d1 34 3e dc 61 b3 3c
       -0.024057264 -0.1895737 0.17657968 0.021897249
0000f0 53 70 83 3c 99 f8 43 3e 6c b4 7a 3e f7 da 06 3e
       0.016044771 0.19137801 0.24482888 0.13169466
000100 0a 53 d0 3d 70 39 fb bc f0 77 2a 3c 56 d7 a9 bd
       0.101720884 -0.030667037 0.010404572 -0.08293025
000110 10 d4 fe bd be fb f3 3d 4c 23 d4 bd 0c 9a 85 bd
       -0.124427915 0.119132504 -0.10358295 -0.06523523
000120 9e b1 b6 3d 38 e1 9a bc b4 a5 b4 bd fa 59 9d bd
       0.089205965 -0.01890622 -0.08820668 -0.07683177
000130 3c ae 38 3d 98 f9 87 3c e0 94 80 3d 24 da 8c 3d
       0.045088038 0.016598508 0.06278396 0.068775445
000140 94 86 35 bd 40 94 b6 bc 00 62 ee 3b 58 d9 c2 3d
       -0.044317797 -0.022287488 0.007274866 0.09514111
000150 f0 37 5c bc e0 0f aa bb 52 8b ea bd 50 6f 49 3c
       -0.013441071 -0.0051898807 -0.114523545 0.012294605
000160 94 ab f8 bd b4 96 a6 3d 60 00 b9 3b de c3 e8 3d
       -0.12142101 0.08134213 0.0056457967 0.11365484
000170 18 9a 66 bd 3a 5d 97 bd c0 74 74 3b 58 ec f9 3c
       -0.0562993 -0.073908284 0.0037301034 0.030508205
000180 96 5c f5 bd 94 c0 55 bd 76 46 c1 3d c8 43 be bd
       -0.1198055 -0.05218561 0.094372675 -0.09290272
000190 78 a5 df 3d e6 37 e7 3d 5a 20 c7 3d 00 68 2b bb
       0.109202325 0.11289959 0.097229674 -0.0026154518
0001a0 c0 40 7c 3d 12 6f a9 bd de a2 d0 bd 60 e9 b7 3b
       0.061585188 -0.08273138 -0.101873145 0.0056125373
0001b0 20 44 61 bd 6e e7 e4 bd b8 ec ab 3c 70 ef cf 3c
       -0.05499661 -0.11176954 0.0209869 0.025382727
0001c0 e0 8d b7 bd 04 70 51 bd 1c 10 29 bd b0 1c ad bc
       -0.089626074 -0.051132217 -0.04127513 -0.021131843
0001d0 42 91 aa bd 90 f4 60 bc 50 0d ad bd 9a b9 c7 bd
       -0.08328487 -0.013730183 -0.08449805 -0.097521976
0001e0 8c cc a2 3d 4c 58 3f 3d e0 34 bb 3c b8 ea 59 bd
       0.079491705 0.046715066 0.022852361 -0.05320236
0001f0 6c fc aa bd 40 2e e0 bd 62 a5 88 3d ec 72 b7 3d
       -0.08348927 -0.109463215 0.06672169 0.089574665
000200 ee 23 81 bc 18 c9 27 be e9 fa f0 bd c4 5b 9e bc
       -0.015764203 -0.16385305 -0.11766607 -0.019330867
000210 86 a8 c9 bc 98 77 4d 3e 58 07 f9 3d 6b 96 2f 3e
       -0.024616491 0.20065153 0.12159604 0.17147224
000220 f1 2b 62 3d 66 10 27 3e 68 23 c6 bc 48 6b a8 bd
       0.055217687 0.1631485 -0.024186805 -0.08223587
000230 8b 38 58 3e 14 cb 6a be 14 ba 30 be ec f5 96 3e
       0.2111532 -0.2292903 -0.17258483 0.29484499
000240 94 c2 7c be c5 91 52 3e b2 4e 3b 3e 30 b1 da 3d
       -0.246836 0.20563419 0.18291739 0.10678327
000250 24 6a 15 be 0b 0a 8a bd 83 ef 77 bd ee 6c 25 3d
       -0.1459127 -0.06740197 -0.06053115 0.040387087
000260 87 f4 09 bd 8b e4 4f be 7d c7 8a bd 0c 72 b3 bd
       -0.033680465 -0.20302026 -0.067763306 -0.08761987
000270 f6 91 6a bd 49 9f 85 3b 32 c3 d1 3c 2d 8b 99 bc
       -0.057268105 0.004077826 0.025605772 -0.018743122
000280 50 44 47 3e ad 6a 4d 3e be d9 c9 3d 6c a4 bc 3d
       0.19459653 0.20060225 0.09855984 0.092110485
000290 d3 b7 d8 3d 0f 59 d6 bd 3e d2 ca bd 63 7e 4b 3e
       0.10581937 -0.10466205 -0.09903382 0.19872431
0002a0 fb 10 52 be d3 3e 84 3e d4 48 22 be 07 c1 d9 bd
       -0.2051429 0.2582918 -0.15848094 -0.1063252
0002b0 de 34 04 be 26 aa 17 3e a0 f7 45 3d e1 7d eb 3d
       -0.12910792 0.14811 0.048331857 0.11498619
0002c0 7a c6 19 3e 90 58 49 bd 8a 3d d5 bd fa b5 3a 3d
       0.15017119 -0.049156725 -0.10412128 0.045583703
0002d0 b4 5f f1 3d 6d 44 2f 3e f4 f5 19 3e 68 b8 71 3e
       0.11785832 0.17115946 0.1503523 0.23605502
0002e0 61 f3 2f 3d 4a 2c ee bd 5e b9 b6 3d 6e d4 11 bd
       0.042956714 -0.11629541 0.08922075 -0.03560298
0002f0 d2 b6 73 3e c9 47 0b 3e 66 97 f4 3d 19 15 86 3d
       0.23800209 0.13601603 0.119429395 0.06546993
000300 9b 59 01 be c1 3f 97 bc 43 54 36 bd 37 a4 31 bd
       -0.12631838 -0.018463017 -0.044513952 -0.043369498
000310 c7 7c cf 3c 8a 4f ef 3d 7c b1 4c bd 5a 16 4b 3e
       0.025328053 0.11685093 -0.04997395 0.19832745
000320 e4 26 72 3e ee 38 8c 3d a4 4c d2 bd 30 2a 4e 3d
       0.23647648 0.06846796 -0.10268524 0.050333202
000330 a0 69 91 3e 77 b9 59 be 88 ea ed bc 64 89 d0 3d
       0.28400898 -0.21262155 -0.029042497 0.10182455
000340 c8 36 87 bd ef 1d 85 3e d8 78 87 3d 80 ca eb 3c
       -0.066022456 0.259994 0.06614846 0.028783083
000350 23 41 f6 bd d6 57 8e bd 40 54 34 bd 31 ad 0d 3e
       -0.120241426 -0.06950347 -0.04402566 0.13835599
000360 ab bd cc 3c 59 8b 52 be 89 60 09 be 8b 4a a9 bd
       0.024992784 -0.2056097 -0.13415731 -0.08266171
000370 0f f8 92 3d 10 58 06 be 04 4e 7d 3d ee 1e e7 bc
       0.0717622 -0.1311953 0.06184198 -0.02821299
000380 c3 4e 91 3e 8b ae 8b 3e a5 d3 57 3e 4f 2d da 3d
       0.28380403 0.27281603 0.2107683 0.10653173
000390 97 fa ac 3c 7c cc 1f bd cc b5 a3 bd 19 fa d4 3d
       0.021115584 -0.03901337 -0.079936594 0.10399265
0003a0 2b 50 d4 bd a3 9d 57 3e fe 27 1f bc d6 e2 68 be
       -0.10366853 0.21056227 -0.009714125 -0.22742781
0003b0 22 94 d0 bd 39 4a 86 3d 66 6d 1d bd e7 99 89 3b
       -0.10184504 0.065571256 -0.03843441 0.004199255
0003c0 b3 5d 35 3e 62 9d 66 bd aa 92 33 be 87 cf bd 3d
       0.17711525 -0.056302436 -0.17536417 0.09268098
0003d0 88 8d 98 3d 43 88 83 3e 09 3a 98 3d d1 2a 3b 3e
       0.0744887 0.25689897 0.07432944 0.18278052
0003e0 0b f9 c6 3d c6 44 b6 bd 62 1f 6d 3e fc 84 11 be
       0.0971547 -0.08899836 0.23156503 -0.14210886
0003f0 24 d4 57 3e 5c 5d a1 3d 32 c8 14 3e 39 11 fb 3d
       0.21077019 0.07879135 0.14529493 0.12259144

fc3.bias f4 [32]
000000 a3 5e 17 bd 46 aa 83 bd 56 a6 54 3d 2a 10 ac bc
       -0.036955487 -0.064289615 0.051916443 -0.021003801
000010 38 1f cf 3c ea ea be bd 94 ca 15 3d 00 86 6a 3d
       0.025283441 -0.0932215 0.036570147 0.0572567
000020 28 49 0e 3e ef f3 ad 3d 1d 79 b8 3d 0c 97 96 bd
       0.13895094 0.08493792 0.090074755 -0.07353029
000030 31 eb df 3d 4e 12 03 bd 56 89 57 3d c0 d5 3a 3d
       0.10933531 -0.03199988 0.052621208 0.045614004
000040 e2 7f a7 3b ea a9 7c 3c a7 3c f8 bc 66 d1 8f 3c
       0.0051116804 0.01542137 -0.030302359 0.017555904
000050 ea ad 65 bd 5f ff 3e bd 40 6a 00 3e 80 9b b8 bd
       -0.05607406 -0.04663026 0.12540531 -0.09014034
000060 c4 42 2f bd 91 f8 31 3d 99 ee 03 bd 3b 4a a2 3d
       -0.042788282 0.043449942 -0.032209966 0.079243146
000070 b1 f1 99 3d f1 00 b4 bd 3a d4 46 bb 41 11 27 3d
       0.07516802 -0.08789242 -0.00303389 0.04078794

fc4.weight f4 [2, 32]
000000 65 2c ef be 62 be ed bd 0d 38 84 be d5 9a 9a be
       -0.46713558 -0.11608578 -0.25824013 -0.30196252
000010 2d 45 ce be cc 1e 2a 3d 01 cd 00 3f 2b 18 a4 3e
       -0.40287152 0.041533276 0.5031281 0.3204969
000020 6d 78 f2 be 90 f9 0b 3f c6 9b 9a 3e d6 6f 04 3f
       -0.47357503 0.5467768 0.3019697 0.5173315
000030 fc 3f c0 3e 50 b5 90 3e 52 5d e9 be ff af 03 bf
       0.37548816 0.2826333 -0.4557901 -0.51440424
000040 2c ad 03 bf 44 60 0e bf 8e 14 1b bf f0 96 0a bf
       -0.51436114 -0.5561564 -0.6057824 -0.5413656
000050 73 25 4c bd 5d aa f3 3d 53 20 b8 be d6 83 4f be
       -0.0498404 0.118977286 -0.3596216 -0.20265135
000060 bb 07 ea 3d 85 da 05 3f 46 b3 fb be 6b a1 ed be
       0.11427256 0.5228656 -0.49160212 -0.46412215
000070 76 1e af be 1d 99 c7 3e 06 12 ce be 10 58 f3 be
       -0.34202927 0.38984004 -0.40248126 -0.47528124
000080 15 d5 b3 3e 70 97 d3 bd f8 7d 09 3f 42 f4 fc 3e
       0.35123506 -0.10331619 0.5370784 0.49405104
000090 e1 ef 05 3f 58 63 18 3d 9f 01 b1 be 6e d0 e1 be
       0.5231915 0.037204117 -0.3457155 -0.44104332
0000a0 a7 8e b4 3e bd 12 e0 be 4a 70 0b bf 9f c5 f3 be
       0.35265085 -0.43764296 -0.54468215 -0.4761171
0000b0 87 d9 e2 be b3 0e 0a bf 7e bc ac 3e 53 d0 e7 3e
       -0.44306585 -0.5392868 0.33737558 0.45276126
0000c0 b3 5b 03 3f ca 83 e3 3e bb f4 18 3f 7f f0 ba 3e
       0.51311797 0.44436485 0.5974843 0.3651161
0000d0 73 37 ba bd 94 e9 17 be 1c 1e d2 3e 54 ec a4 3e
       -0.09092607 -0.14835197 0.41038597 0.32211554
0000e0 04 24 a7 bd 31 36 a2 be c5 76 e3 3e 57 8f 0f 3f
       -0.08161166 -0.3168197 0.4442655 0.56078094
0000f0 3a 8d bf 3e 01 1c 7f be ca db 0a 3e 73 f3 01 3f
       0.37412435 -0.24913026 0.13560405 0.507621

fc4.bias f4 [2]
000000 78 37 a7 3d 68 a6 19 3d
       0.08164877 0.037512213
